{
  "layers" : [
    {
      "begin_n" : 0,
      "static_sizes_k" : 0,
      "end_mask_h" : true,
      "end_w" : 1,
      "end_h" : 0,
      "begin_h" : 0,
      "stride_n" : 1,
      "end_seq" : 1,
      "attributes" : {
        "basic_block_head" : 1
      },
      "begin_mask_seq" : false,
      "begin_mask_h" : true,
      "stride_k" : 1,
      "squeeze_mask_h" : false,
      "type" : "general_slice",
      "begin_mask_k" : true,
      "static_sizes_w" : 0,
      "begin_w" : 0,
      "end_mask_k" : true,
      "use_static_sizes" : false,
      "stride_h" : 1,
      "static_sizes_n" : 0,
      "begin_mask_n" : false,
      "weights" : {

      },
      "name" : "pose_estimator\/StatefulPartitionedCall\/StatefulPartitionedCall\/strided_slice",
      "stride_seq" : 1,
      "end_k" : 0,
      "static_sizes_seq" : 0,
      "top" : "pose_estimator\/StatefulPartitionedCall\/StatefulPartitionedCall\/strided_slice",
      "begin_seq" : 0,
      "begin_k" : 0,
      "squeeze_mask_k" : false,
      "end_mask_w" : false,
      "end_mask_seq" : false,
      "end_mask_n" : false,
      "debug_info" : "pose_estimator\/StatefulPartitionedCall\/StatefulPartitionedCall\/strided_slice",
      "stride_w" : 1,
      "squeeze_mask_seq" : false,
      "static_sizes_h" : 0,
      "begin_mask_w" : false,
      "bottom" : "args_0",
      "end_n" : 1,
      "squeeze_mask_w" : true,
      "squeeze_mask_n" : false
    },
    {
      "begin_n" : 0,
      "static_sizes_k" : 0,
      "end_mask_h" : true,
      "end_w" : 1,
      "end_h" : 0,
      "begin_h" : 0,
      "stride_n" : 1,
      "end_seq" : 1,
      "begin_mask_seq" : false,
      "begin_mask_h" : true,
      "squeeze_mask_h" : false,
      "stride_k" : 1,
      "type" : "general_slice",
      "begin_mask_k" : false,
      "static_sizes_w" : 0,
      "begin_w" : 0,
      "end_mask_k" : false,
      "use_static_sizes" : false,
      "stride_h" : 1,
      "static_sizes_n" : 0,
      "begin_mask_n" : false,
      "weights" : {

      },
      "name" : "pose_estimator\/StatefulPartitionedCall\/StatefulPartitionedCall\/proj_1\/strided_slice",
      "stride_seq" : 1,
      "end_k" : 1,
      "static_sizes_seq" : 0,
      "top" : "pose_estimator\/StatefulPartitionedCall\/StatefulPartitionedCall\/proj_1\/strided_slice",
      "begin_seq" : 0,
      "squeeze_mask_k" : false,
      "begin_k" : 0,
      "end_mask_w" : false,
      "end_mask_seq" : false,
      "end_mask_n" : false,
      "debug_info" : "pose_estimator\/StatefulPartitionedCall\/StatefulPartitionedCall\/proj_1\/strided_slice",
      "stride_w" : 1,
      "squeeze_mask_seq" : false,
      "static_sizes_h" : 0,
      "begin_mask_w" : false,
      "bottom" : "pose_estimator\/StatefulPartitionedCall\/StatefulPartitionedCall\/strided_slice",
      "end_n" : 1,
      "squeeze_mask_w" : true,
      "squeeze_mask_n" : false
    },
    {
      "begin_n" : 0,
      "static_sizes_k" : 0,
      "end_mask_h" : true,
      "end_w" : 2,
      "end_h" : 0,
      "begin_h" : 0,
      "stride_n" : 1,
      "end_seq" : 1,
      "begin_mask_seq" : false,
      "begin_mask_h" : true,
      "squeeze_mask_h" : false,
      "stride_k" : 1,
      "type" : "general_slice",
      "begin_mask_k" : false,
      "static_sizes_w" : 0,
      "begin_w" : 1,
      "end_mask_k" : false,
      "use_static_sizes" : false,
      "stride_h" : 1,
      "static_sizes_n" : 0,
      "begin_mask_n" : false,
      "weights" : {

      },
      "name" : "pose_estimator\/StatefulPartitionedCall\/StatefulPartitionedCall\/proj_1\/strided_slice_1",
      "stride_seq" : 1,
      "end_k" : 1,
      "static_sizes_seq" : 0,
      "top" : "pose_estimator\/StatefulPartitionedCall\/StatefulPartitionedCall\/proj_1\/strided_slice_1",
      "begin_seq" : 0,
      "squeeze_mask_k" : false,
      "begin_k" : 0,
      "end_mask_w" : false,
      "end_mask_seq" : false,
      "end_mask_n" : false,
      "debug_info" : "pose_estimator\/StatefulPartitionedCall\/StatefulPartitionedCall\/proj_1\/strided_slice_1",
      "stride_w" : 1,
      "squeeze_mask_seq" : false,
      "static_sizes_h" : 0,
      "begin_mask_w" : false,
      "bottom" : "pose_estimator\/StatefulPartitionedCall\/StatefulPartitionedCall\/strided_slice",
      "end_n" : 1,
      "squeeze_mask_w" : true,
      "squeeze_mask_n" : false
    },
    {
      "begin_n" : 0,
      "static_sizes_k" : 0,
      "end_mask_h" : true,
      "end_w" : 3,
      "end_h" : 0,
      "begin_h" : 0,
      "stride_n" : 1,
      "end_seq" : 1,
      "begin_mask_seq" : false,
      "begin_mask_h" : true,
      "squeeze_mask_h" : false,
      "stride_k" : 1,
      "type" : "general_slice",
      "begin_mask_k" : false,
      "static_sizes_w" : 0,
      "begin_w" : 2,
      "end_mask_k" : false,
      "use_static_sizes" : false,
      "stride_h" : 1,
      "static_sizes_n" : 0,
      "begin_mask_n" : false,
      "weights" : {

      },
      "name" : "pose_estimator\/StatefulPartitionedCall\/StatefulPartitionedCall\/proj_1\/strided_slice_2",
      "stride_seq" : 1,
      "end_k" : 1,
      "static_sizes_seq" : 0,
      "top" : "pose_estimator\/StatefulPartitionedCall\/StatefulPartitionedCall\/proj_1\/strided_slice_2",
      "begin_seq" : 0,
      "squeeze_mask_k" : false,
      "begin_k" : 0,
      "end_mask_w" : false,
      "end_mask_seq" : false,
      "end_mask_n" : false,
      "debug_info" : "pose_estimator\/StatefulPartitionedCall\/StatefulPartitionedCall\/proj_1\/strided_slice_2",
      "stride_w" : 1,
      "squeeze_mask_seq" : false,
      "static_sizes_h" : 0,
      "begin_mask_w" : false,
      "bottom" : "pose_estimator\/StatefulPartitionedCall\/StatefulPartitionedCall\/strided_slice",
      "end_n" : 1,
      "squeeze_mask_w" : true,
      "squeeze_mask_n" : false
    },
    {
      "top" : "pose_estimator\/StatefulPartitionedCall\/StatefulPartitionedCall\/proj_1\/sub\/x",
      "w" : 1,
      "h" : 1,
      "name" : "pose_estimator\/StatefulPartitionedCall\/StatefulPartitionedCall\/proj_1\/sub\/x",
      "nd_rank" : 1,
      "type" : "load_constant",
      "k" : 1,
      "bottom" : "",
      "debug_info" : "pose_estimator\/StatefulPartitionedCall\/StatefulPartitionedCall\/proj_1\/sub\/x",
      "n" : 1,
      "weights" : {

      },
      "constant_blob" : 1
    },
    {
      "alpha" : -1,
      "bottom" : "pose_estimator\/StatefulPartitionedCall\/StatefulPartitionedCall\/proj_1\/strided_slice_1",
      "weights" : {

      },
      "mode" : 6,
      "debug_info" : "_neg_y_pose_estimator\/StatefulPartitionedCall\/StatefulPartitionedCall\/proj_1\/sub",
      "top" : "_neg_y_pose_estimator\/StatefulPartitionedCall\/StatefulPartitionedCall\/proj_1\/sub",
      "type" : "activation",
      "name" : "_neg_y_pose_estimator\/StatefulPartitionedCall\/StatefulPartitionedCall\/proj_1\/sub",
      "beta" : 0
    },
    {
      "bottom" : "_neg_y_pose_estimator\/StatefulPartitionedCall\/StatefulPartitionedCall\/proj_1\/sub,pose_estimator\/StatefulPartitionedCall\/StatefulPartitionedCall\/proj_1\/sub\/x",
      "alpha" : 1,
      "operation" : 0,
      "weights" : {

      },
      "fused_relu" : 0,
      "debug_info" : "pose_estimator\/StatefulPartitionedCall\/StatefulPartitionedCall\/proj_1\/sub",
      "top" : "pose_estimator\/StatefulPartitionedCall\/StatefulPartitionedCall\/proj_1\/sub",
      "type" : "elementwise",
      "name" : "pose_estimator\/StatefulPartitionedCall\/StatefulPartitionedCall\/proj_1\/sub",
      "beta" : 0
    },
    {
      "bottom" : "pose_estimator\/StatefulPartitionedCall\/StatefulPartitionedCall\/proj_1\/strided_slice,pose_estimator\/StatefulPartitionedCall\/StatefulPartitionedCall\/proj_1\/sub,pose_estimator\/StatefulPartitionedCall\/StatefulPartitionedCall\/proj_1\/strided_slice_2",
      "weights" : {

      },
      "nd_axis" : 0,
      "debug_info" : "pose_estimator\/StatefulPartitionedCall\/StatefulPartitionedCall\/proj_1\/stack",
      "top" : "pose_estimator\/StatefulPartitionedCall\/StatefulPartitionedCall\/proj_1\/stack",
      "type" : "stack_nd",
      "name" : "pose_estimator\/StatefulPartitionedCall\/StatefulPartitionedCall\/proj_1\/stack"
    },
    {
      "top" : "pose_estimator\/StatefulPartitionedCall\/StatefulPartitionedCall\/proj_1\/stack_2",
      "w" : 1,
      "h" : 3,
      "name" : "pose_estimator\/StatefulPartitionedCall\/StatefulPartitionedCall\/proj_1\/stack_2",
      "nd_rank" : 2,
      "type" : "load_constant",
      "k" : 1,
      "bottom" : "",
      "debug_info" : "pose_estimator\/StatefulPartitionedCall\/StatefulPartitionedCall\/proj_1\/stack_2",
      "n" : 1,
      "weights" : {

      },
      "constant_blob" : 3
    },
    {
      "bottom" : "pose_estimator\/StatefulPartitionedCall\/StatefulPartitionedCall\/proj_1\/stack,pose_estimator\/StatefulPartitionedCall\/StatefulPartitionedCall\/proj_1\/stack_2",
      "alpha" : 1,
      "operation" : 1,
      "weights" : {

      },
      "fused_relu" : 0,
      "debug_info" : "pose_estimator\/StatefulPartitionedCall\/StatefulPartitionedCall\/proj_1\/mul",
      "nd_mode" : true,
      "top" : "pose_estimator\/StatefulPartitionedCall\/StatefulPartitionedCall\/proj_1\/mul",
      "type" : "elementwise",
      "name" : "pose_estimator\/StatefulPartitionedCall\/StatefulPartitionedCall\/proj_1\/mul",
      "beta" : 0
    },
    {
      "top" : "pose_estimator\/StatefulPartitionedCall\/StatefulPartitionedCall\/proj_1\/stack_4",
      "w" : 1,
      "h" : 3,
      "name" : "pose_estimator\/StatefulPartitionedCall\/StatefulPartitionedCall\/proj_1\/stack_4",
      "nd_rank" : 2,
      "type" : "load_constant",
      "k" : 1,
      "bottom" : "",
      "debug_info" : "pose_estimator\/StatefulPartitionedCall\/StatefulPartitionedCall\/proj_1\/stack_4",
      "n" : 1,
      "weights" : {

      },
      "constant_blob" : 5
    },
    {
      "bottom" : "pose_estimator\/StatefulPartitionedCall\/StatefulPartitionedCall\/proj_1\/mul,pose_estimator\/StatefulPartitionedCall\/StatefulPartitionedCall\/proj_1\/stack_4",
      "alpha" : 1,
      "operation" : 0,
      "weights" : {

      },
      "fused_relu" : 0,
      "debug_info" : "pose_estimator\/StatefulPartitionedCall\/StatefulPartitionedCall\/proj_1\/add",
      "nd_mode" : true,
      "top" : "pose_estimator\/StatefulPartitionedCall\/StatefulPartitionedCall\/proj_1\/add",
      "type" : "elementwise",
      "name" : "pose_estimator\/StatefulPartitionedCall\/StatefulPartitionedCall\/proj_1\/add",
      "beta" : 0
    },
    {
      "begin_n" : 0,
      "static_sizes_k" : 0,
      "end_mask_h" : true,
      "end_w" : 3,
      "end_h" : 0,
      "begin_h" : 0,
      "stride_n" : 1,
      "end_seq" : 1,
      "begin_mask_seq" : false,
      "begin_mask_h" : true,
      "squeeze_mask_h" : false,
      "stride_k" : 1,
      "type" : "general_slice",
      "begin_mask_k" : false,
      "static_sizes_w" : 0,
      "begin_w" : 2,
      "end_mask_k" : false,
      "use_static_sizes" : false,
      "stride_h" : 1,
      "static_sizes_n" : 0,
      "begin_mask_n" : false,
      "weights" : {

      },
      "name" : "pose_estimator\/StatefulPartitionedCall\/StatefulPartitionedCall\/strided_slice_1",
      "stride_seq" : 1,
      "end_k" : 1,
      "static_sizes_seq" : 0,
      "top" : "pose_estimator\/StatefulPartitionedCall\/StatefulPartitionedCall\/strided_slice_1",
      "begin_seq" : 0,
      "squeeze_mask_k" : false,
      "begin_k" : 0,
      "end_mask_w" : false,
      "end_mask_seq" : false,
      "end_mask_n" : false,
      "debug_info" : "pose_estimator\/StatefulPartitionedCall\/StatefulPartitionedCall\/strided_slice_1",
      "stride_w" : 1,
      "squeeze_mask_seq" : false,
      "static_sizes_h" : 0,
      "begin_mask_w" : false,
      "bottom" : "pose_estimator\/StatefulPartitionedCall\/StatefulPartitionedCall\/proj_1\/add",
      "end_n" : 1,
      "squeeze_mask_w" : true,
      "squeeze_mask_n" : false
    },
    {
      "top" : "pose_estimator\/StatefulPartitionedCall\/StatefulPartitionedCall\/change_handedness_1\/mul",
      "w" : 468,
      "h" : 3,
      "name" : "pose_estimator\/StatefulPartitionedCall\/StatefulPartitionedCall\/change_handedness_1\/mul",
      "nd_rank" : 2,
      "type" : "load_constant",
      "k" : 1,
      "bottom" : "",
      "debug_info" : "pose_estimator\/StatefulPartitionedCall\/StatefulPartitionedCall\/change_handedness_1\/mul",
      "n" : 1,
      "weights" : {

      },
      "constant_blob" : 7
    },
    {
      "bottom" : "pose_estimator\/StatefulPartitionedCall\/StatefulPartitionedCall\/proj_1\/add,pose_estimator\/StatefulPartitionedCall\/StatefulPartitionedCall\/change_handedness_1\/mul",
      "alpha" : 1,
      "operation" : 1,
      "weights" : {

      },
      "fused_relu" : 0,
      "debug_info" : "pose_estimator\/StatefulPartitionedCall\/StatefulPartitionedCall\/scale_est_1\/scale_est_1ort_solver\/mul_1",
      "top" : "pose_estimator\/StatefulPartitionedCall\/StatefulPartitionedCall\/scale_est_1\/scale_est_1ort_solver\/mul_1",
      "type" : "elementwise",
      "name" : "pose_estimator\/StatefulPartitionedCall\/StatefulPartitionedCall\/scale_est_1\/scale_est_1ort_solver\/mul_1",
      "beta" : 0
    },
    {
      "axis_mode" : 1,
      "bottom" : "pose_estimator\/StatefulPartitionedCall\/StatefulPartitionedCall\/strided_slice_1",
      "weights" : {

      },
      "mode" : 1,
      "nd_axis" : 0,
      "nd_mode" : true,
      "debug_info" : "pose_estimator\/StatefulPartitionedCall\/StatefulPartitionedCall\/Mean",
      "use_version" : 1,
      "top" : "pose_estimator\/StatefulPartitionedCall\/StatefulPartitionedCall\/Mean_presqueeze",
      "type" : "reduce",
      "name" : "pose_estimator\/StatefulPartitionedCall\/StatefulPartitionedCall\/Mean_presqueeze"
    },
    {
      "size_of_axes" : 1,
      "bottom" : "pose_estimator\/StatefulPartitionedCall\/StatefulPartitionedCall\/Mean_presqueeze",
      "axes_0" : 0,
      "weights" : {

      },
      "nd_axis" : 0,
      "debug_info" : "pose_estimator\/StatefulPartitionedCall\/StatefulPartitionedCall\/Mean",
      "version" : 1,
      "top" : "pose_estimator\/StatefulPartitionedCall\/StatefulPartitionedCall\/Mean",
      "type" : "squeeze",
      "name" : "pose_estimator\/StatefulPartitionedCall\/StatefulPartitionedCall\/Mean"
    },
    {
      "nB" : 468,
      "top" : "pose_estimator\/StatefulPartitionedCall\/StatefulPartitionedCall\/scale_est_1\/scale_est_1ort_solver\/matmul_1",
      "has_biases" : 0,
      "weights" : {

      },
      "nC" : 3,
      "blob_weights" : 9,
      "type" : "inner_product",
      "has_relu" : 0,
      "bottom" : "pose_estimator\/StatefulPartitionedCall\/StatefulPartitionedCall\/scale_est_1\/scale_est_1ort_solver\/mul_1",
      "debug_info" : "pose_estimator\/StatefulPartitionedCall\/StatefulPartitionedCall\/scale_est_1\/scale_est_1ort_solver\/matmul_1",
      "has_tanh" : 0,
      "nd_mode" : true,
      "name" : "pose_estimator\/StatefulPartitionedCall\/StatefulPartitionedCall\/scale_est_1\/scale_est_1ort_solver\/matmul_1",
      "has_prelu" : 0
    },
    {
      "top" : "pose_estimator\/StatefulPartitionedCall\/StatefulPartitionedCall\/move_rescale_2\/sub\/y",
      "w" : 1,
      "h" : 1,
      "name" : "pose_estimator\/StatefulPartitionedCall\/StatefulPartitionedCall\/move_rescale_2\/sub\/y",
      "nd_rank" : 1,
      "type" : "load_constant",
      "k" : 1,
      "bottom" : "",
      "debug_info" : "pose_estimator\/StatefulPartitionedCall\/StatefulPartitionedCall\/move_rescale_2\/sub\/y",
      "n" : 1,
      "weights" : {

      },
      "constant_blob" : 11
    },
    {
      "alpha" : -1,
      "bottom" : "pose_estimator\/StatefulPartitionedCall\/StatefulPartitionedCall\/move_rescale_2\/sub\/y",
      "weights" : {

      },
      "mode" : 6,
      "debug_info" : "_neg_y_pose_estimator\/StatefulPartitionedCall\/StatefulPartitionedCall\/move_rescale_2\/sub",
      "top" : "_neg_y_pose_estimator\/StatefulPartitionedCall\/StatefulPartitionedCall\/move_rescale_2\/sub",
      "type" : "activation",
      "name" : "_neg_y_pose_estimator\/StatefulPartitionedCall\/StatefulPartitionedCall\/move_rescale_2\/sub",
      "beta" : 0
    },
    {
      "bottom" : "_neg_y_pose_estimator\/StatefulPartitionedCall\/StatefulPartitionedCall\/move_rescale_2\/sub,pose_estimator\/StatefulPartitionedCall\/StatefulPartitionedCall\/Mean",
      "alpha" : 1,
      "operation" : 0,
      "weights" : {

      },
      "fused_relu" : 0,
      "debug_info" : "pose_estimator\/StatefulPartitionedCall\/StatefulPartitionedCall\/move_rescale_2\/sub",
      "top" : "pose_estimator\/StatefulPartitionedCall\/StatefulPartitionedCall\/move_rescale_2\/sub",
      "type" : "elementwise",
      "name" : "pose_estimator\/StatefulPartitionedCall\/StatefulPartitionedCall\/move_rescale_2\/sub",
      "beta" : 0
    },
    {
      "name" : "pose_estimator\/StatefulPartitionedCall\/StatefulPartitionedCall\/scale_est_1\/scale_est_1ort_solver\/MatMul_2",
      "bottom" : "pose_estimator\/StatefulPartitionedCall\/StatefulPartitionedCall\/scale_est_1\/scale_est_1ort_solver\/matmul_1,pose_estimator\/StatefulPartitionedCall\/StatefulPartitionedCall\/scale_est_1\/scale_est_1ort_solver\/matmul_1",
      "weights" : {

      },
      "debug_info" : "pose_estimator\/StatefulPartitionedCall\/StatefulPartitionedCall\/scale_est_1\/scale_est_1ort_solver\/MatMul_2",
      "transpose_x" : true,
      "top" : "pose_estimator\/StatefulPartitionedCall\/StatefulPartitionedCall\/scale_est_1\/scale_est_1ort_solver\/MatMul_2",
      "type" : "batch_matmul",
      "channel_mode" : false
    },
    {
      "name" : "pose_estimator\/StatefulPartitionedCall\/StatefulPartitionedCall\/move_rescale_2\/Reshape",
      "weights" : {

      },
      "dst_w" : 1,
      "version" : 1,
      "dst_n" : 1,
      "dst_nd_rank" : 2,
      "type" : "reshape",
      "dst_h" : 1,
      "mode" : 0,
      "dynamic_shape" : false,
      "bottom" : "pose_estimator\/StatefulPartitionedCall\/StatefulPartitionedCall\/move_rescale_2\/sub",
      "debug_info" : "pose_estimator\/StatefulPartitionedCall\/StatefulPartitionedCall\/move_rescale_2\/Reshape",
      "dst_seq" : 1,
      "dst_k" : 1,
      "top" : "pose_estimator\/StatefulPartitionedCall\/StatefulPartitionedCall\/move_rescale_2\/Reshape"
    },
    {
      "nB" : 3,
      "top" : "pose_estimator\/StatefulPartitionedCall\/StatefulPartitionedCall\/scale_est_1\/scale_est_1ort_solver\/Tensordot\/MatMul",
      "has_biases" : 0,
      "weights" : {

      },
      "nC" : 1,
      "blob_weights" : 13,
      "type" : "inner_product",
      "has_relu" : 0,
      "bottom" : "pose_estimator\/StatefulPartitionedCall\/StatefulPartitionedCall\/scale_est_1\/scale_est_1ort_solver\/MatMul_2",
      "debug_info" : "pose_estimator\/StatefulPartitionedCall\/StatefulPartitionedCall\/scale_est_1\/scale_est_1ort_solver\/Tensordot\/MatMul",
      "has_tanh" : 0,
      "nd_mode" : true,
      "name" : "pose_estimator\/StatefulPartitionedCall\/StatefulPartitionedCall\/scale_est_1\/scale_est_1ort_solver\/Tensordot\/MatMul",
      "has_prelu" : 0
    },
    {
      "top" : "pose_estimator\/StatefulPartitionedCall\/StatefulPartitionedCall\/move_rescale_2\/zeros",
      "w" : 1,
      "h" : 2,
      "name" : "pose_estimator\/StatefulPartitionedCall\/StatefulPartitionedCall\/move_rescale_2\/zeros",
      "nd_rank" : 2,
      "type" : "load_constant",
      "k" : 1,
      "bottom" : "",
      "debug_info" : "pose_estimator\/StatefulPartitionedCall\/StatefulPartitionedCall\/move_rescale_2\/zeros",
      "n" : 1,
      "weights" : {

      },
      "constant_blob" : 15
    },
    {
      "bottom" : "pose_estimator\/StatefulPartitionedCall\/StatefulPartitionedCall\/move_rescale_2\/zeros,pose_estimator\/StatefulPartitionedCall\/StatefulPartitionedCall\/move_rescale_2\/Reshape",
      "weights" : {

      },
      "nd_mode" : true,
      "axis" : 0,
      "debug_info" : "pose_estimator\/StatefulPartitionedCall\/StatefulPartitionedCall\/move_rescale_2\/concat",
      "top" : "pose_estimator\/StatefulPartitionedCall\/StatefulPartitionedCall\/move_rescale_2\/concat",
      "type" : "general_concat",
      "name" : "pose_estimator\/StatefulPartitionedCall\/StatefulPartitionedCall\/move_rescale_2\/concat"
    },
    {
      "name" : "pose_estimator\/StatefulPartitionedCall\/StatefulPartitionedCall\/scale_est_1\/scale_est_1ort_solver\/Tensordot",
      "weights" : {

      },
      "dst_w" : 3,
      "version" : 1,
      "dst_n" : 1,
      "dst_nd_rank" : 1,
      "type" : "reshape",
      "dst_h" : 1,
      "mode" : 0,
      "dynamic_shape" : false,
      "bottom" : "pose_estimator\/StatefulPartitionedCall\/StatefulPartitionedCall\/scale_est_1\/scale_est_1ort_solver\/Tensordot\/MatMul",
      "debug_info" : "pose_estimator\/StatefulPartitionedCall\/StatefulPartitionedCall\/scale_est_1\/scale_est_1ort_solver\/Tensordot",
      "dst_seq" : 1,
      "dst_k" : 1,
      "top" : "pose_estimator\/StatefulPartitionedCall\/StatefulPartitionedCall\/scale_est_1\/scale_est_1ort_solver\/Tensordot"
    },
    {
      "bottom" : "pose_estimator\/StatefulPartitionedCall\/StatefulPartitionedCall\/proj_1\/add,pose_estimator\/StatefulPartitionedCall\/StatefulPartitionedCall\/move_rescale_2\/concat",
      "alpha" : 1,
      "operation" : 33,
      "weights" : {

      },
      "fused_relu" : 0,
      "debug_info" : "pose_estimator\/StatefulPartitionedCall\/StatefulPartitionedCall\/move_rescale_2\/sub_1",
      "nd_mode" : true,
      "top" : "pose_estimator\/StatefulPartitionedCall\/StatefulPartitionedCall\/move_rescale_2\/sub_1",
      "type" : "elementwise",
      "name" : "pose_estimator\/StatefulPartitionedCall\/StatefulPartitionedCall\/move_rescale_2\/sub_1",
      "beta" : 0
    },
    {
      "bottom" : "pose_estimator\/StatefulPartitionedCall\/StatefulPartitionedCall\/scale_est_1\/scale_est_1ort_solver\/Tensordot,pose_estimator\/StatefulPartitionedCall\/StatefulPartitionedCall\/scale_est_1\/scale_est_1ort_solver\/Tensordot",
      "alpha" : 1,
      "operation" : 1,
      "weights" : {

      },
      "fused_relu" : 0,
      "debug_info" : "pose_estimator\/StatefulPartitionedCall\/StatefulPartitionedCall\/scale_est_1\/scale_est_1ort_solver\/norm_1\/mul",
      "top" : "pose_estimator\/StatefulPartitionedCall\/StatefulPartitionedCall\/scale_est_1\/scale_est_1ort_solver\/norm_1\/mul",
      "type" : "elementwise",
      "name" : "pose_estimator\/StatefulPartitionedCall\/StatefulPartitionedCall\/scale_est_1\/scale_est_1ort_solver\/norm_1\/mul",
      "beta" : 0
    },
    {
      "axis_mode" : 1,
      "bottom" : "pose_estimator\/StatefulPartitionedCall\/StatefulPartitionedCall\/scale_est_1\/scale_est_1ort_solver\/norm_1\/mul",
      "weights" : {

      },
      "mode" : 0,
      "nd_axis" : 0,
      "nd_mode" : true,
      "debug_info" : "pose_estimator\/StatefulPartitionedCall\/StatefulPartitionedCall\/scale_est_1\/scale_est_1ort_solver\/norm_1\/Sum",
      "use_version" : 1,
      "top" : "pose_estimator\/StatefulPartitionedCall\/StatefulPartitionedCall\/scale_est_1\/scale_est_1ort_solver\/norm_1\/Sum",
      "type" : "reduce",
      "name" : "pose_estimator\/StatefulPartitionedCall\/StatefulPartitionedCall\/scale_est_1\/scale_est_1ort_solver\/norm_1\/Sum"
    },
    {
      "bottom" : "pose_estimator\/StatefulPartitionedCall\/StatefulPartitionedCall\/scale_est_1\/scale_est_1ort_solver\/norm_1\/Sum",
      "alpha" : 1,
      "operation" : 11,
      "weights" : {

      },
      "fused_relu" : 0,
      "debug_info" : "pose_estimator\/StatefulPartitionedCall\/StatefulPartitionedCall\/scale_est_1\/scale_est_1ort_solver\/norm_1\/Sqrt",
      "top" : "pose_estimator\/StatefulPartitionedCall\/StatefulPartitionedCall\/scale_est_1\/scale_est_1ort_solver\/norm_1\/Sqrt",
      "type" : "elementwise",
      "name" : "pose_estimator\/StatefulPartitionedCall\/StatefulPartitionedCall\/scale_est_1\/scale_est_1ort_solver\/norm_1\/Sqrt",
      "beta" : 0
    },
    {
      "size_of_axes" : 0,
      "bottom" : "pose_estimator\/StatefulPartitionedCall\/StatefulPartitionedCall\/scale_est_1\/scale_est_1ort_solver\/norm_1\/Sqrt",
      "weights" : {

      },
      "nd_axis" : 0,
      "debug_info" : "pose_estimator\/StatefulPartitionedCall\/StatefulPartitionedCall\/scale_est_1\/scale_est_1ort_solver\/norm_1\/Squeeze",
      "version" : 1,
      "top" : "pose_estimator\/StatefulPartitionedCall\/StatefulPartitionedCall\/scale_est_1\/scale_est_1ort_solver\/norm_1\/Squeeze",
      "type" : "squeeze",
      "name" : "pose_estimator\/StatefulPartitionedCall\/StatefulPartitionedCall\/scale_est_1\/scale_est_1ort_solver\/norm_1\/Squeeze",
      "squeeze_all" : true
    },
    {
      "bottom" : "pose_estimator\/StatefulPartitionedCall\/StatefulPartitionedCall\/scale_est_1\/scale_est_1ort_solver\/Tensordot,pose_estimator\/StatefulPartitionedCall\/StatefulPartitionedCall\/scale_est_1\/scale_est_1ort_solver\/norm_1\/Squeeze",
      "alpha" : 1,
      "operation" : 102,
      "weights" : {

      },
      "fused_relu" : 0,
      "debug_info" : "pose_estimator\/StatefulPartitionedCall\/StatefulPartitionedCall\/scale_est_1\/scale_est_1ort_solver\/truediv_2",
      "nd_mode" : true,
      "top" : "pose_estimator\/StatefulPartitionedCall\/StatefulPartitionedCall\/scale_est_1\/scale_est_1ort_solver\/truediv_2",
      "type" : "elementwise",
      "name" : "pose_estimator\/StatefulPartitionedCall\/StatefulPartitionedCall\/scale_est_1\/scale_est_1ort_solver\/truediv_2",
      "beta" : 0
    },
    {
      "name" : "pose_estimator\/StatefulPartitionedCall\/StatefulPartitionedCall\/scale_est_1\/scale_est_1ort_solver\/Tensordot_1\/Reshape",
      "weights" : {

      },
      "dst_w" : 1,
      "version" : 1,
      "dst_n" : 1,
      "dst_nd_rank" : 2,
      "type" : "reshape",
      "dst_h" : 3,
      "mode" : 0,
      "dynamic_shape" : false,
      "bottom" : "pose_estimator\/StatefulPartitionedCall\/StatefulPartitionedCall\/scale_est_1\/scale_est_1ort_solver\/truediv_2",
      "debug_info" : "pose_estimator\/StatefulPartitionedCall\/StatefulPartitionedCall\/scale_est_1\/scale_est_1ort_solver\/Tensordot_1\/Reshape",
      "dst_seq" : 1,
      "dst_k" : 1,
      "top" : "pose_estimator\/StatefulPartitionedCall\/StatefulPartitionedCall\/scale_est_1\/scale_est_1ort_solver\/Tensordot_1\/Reshape"
    },
    {
      "bottom" : "pose_estimator\/StatefulPartitionedCall\/StatefulPartitionedCall\/scale_est_1\/scale_est_1ort_solver\/MatMul_2,pose_estimator\/StatefulPartitionedCall\/StatefulPartitionedCall\/scale_est_1\/scale_est_1ort_solver\/Tensordot_1\/Reshape",
      "weights" : {

      },
      "debug_info" : "pose_estimator\/StatefulPartitionedCall\/StatefulPartitionedCall\/scale_est_1\/scale_est_1ort_solver\/Tensordot_1\/MatMul",
      "top" : "pose_estimator\/StatefulPartitionedCall\/StatefulPartitionedCall\/scale_est_1\/scale_est_1ort_solver\/Tensordot_1\/MatMul",
      "type" : "batch_matmul",
      "name" : "pose_estimator\/StatefulPartitionedCall\/StatefulPartitionedCall\/scale_est_1\/scale_est_1ort_solver\/Tensordot_1\/MatMul",
      "channel_mode" : false
    },
    {
      "name" : "pose_estimator\/StatefulPartitionedCall\/StatefulPartitionedCall\/scale_est_1\/scale_est_1ort_solver\/Tensordot_1",
      "weights" : {

      },
      "dst_w" : 3,
      "version" : 1,
      "dst_n" : 1,
      "dst_nd_rank" : 1,
      "type" : "reshape",
      "dst_h" : 1,
      "mode" : 0,
      "dynamic_shape" : false,
      "bottom" : "pose_estimator\/StatefulPartitionedCall\/StatefulPartitionedCall\/scale_est_1\/scale_est_1ort_solver\/Tensordot_1\/MatMul",
      "debug_info" : "pose_estimator\/StatefulPartitionedCall\/StatefulPartitionedCall\/scale_est_1\/scale_est_1ort_solver\/Tensordot_1",
      "dst_seq" : 1,
      "dst_k" : 1,
      "top" : "pose_estimator\/StatefulPartitionedCall\/StatefulPartitionedCall\/scale_est_1\/scale_est_1ort_solver\/Tensordot_1"
    },
    {
      "bottom" : "pose_estimator\/StatefulPartitionedCall\/StatefulPartitionedCall\/scale_est_1\/scale_est_1ort_solver\/Tensordot_1,pose_estimator\/StatefulPartitionedCall\/StatefulPartitionedCall\/scale_est_1\/scale_est_1ort_solver\/Tensordot_1",
      "alpha" : 1,
      "operation" : 1,
      "weights" : {

      },
      "fused_relu" : 0,
      "debug_info" : "pose_estimator\/StatefulPartitionedCall\/StatefulPartitionedCall\/scale_est_1\/scale_est_1ort_solver\/norm_2\/mul",
      "top" : "pose_estimator\/StatefulPartitionedCall\/StatefulPartitionedCall\/scale_est_1\/scale_est_1ort_solver\/norm_2\/mul",
      "type" : "elementwise",
      "name" : "pose_estimator\/StatefulPartitionedCall\/StatefulPartitionedCall\/scale_est_1\/scale_est_1ort_solver\/norm_2\/mul",
      "beta" : 0
    },
    {
      "axis_mode" : 1,
      "bottom" : "pose_estimator\/StatefulPartitionedCall\/StatefulPartitionedCall\/scale_est_1\/scale_est_1ort_solver\/norm_2\/mul",
      "weights" : {

      },
      "mode" : 0,
      "nd_axis" : 0,
      "nd_mode" : true,
      "debug_info" : "pose_estimator\/StatefulPartitionedCall\/StatefulPartitionedCall\/scale_est_1\/scale_est_1ort_solver\/norm_2\/Sum",
      "use_version" : 1,
      "top" : "pose_estimator\/StatefulPartitionedCall\/StatefulPartitionedCall\/scale_est_1\/scale_est_1ort_solver\/norm_2\/Sum",
      "type" : "reduce",
      "name" : "pose_estimator\/StatefulPartitionedCall\/StatefulPartitionedCall\/scale_est_1\/scale_est_1ort_solver\/norm_2\/Sum"
    },
    {
      "bottom" : "pose_estimator\/StatefulPartitionedCall\/StatefulPartitionedCall\/scale_est_1\/scale_est_1ort_solver\/norm_2\/Sum",
      "alpha" : 1,
      "operation" : 11,
      "weights" : {

      },
      "fused_relu" : 0,
      "debug_info" : "pose_estimator\/StatefulPartitionedCall\/StatefulPartitionedCall\/scale_est_1\/scale_est_1ort_solver\/norm_2\/Sqrt",
      "top" : "pose_estimator\/StatefulPartitionedCall\/StatefulPartitionedCall\/scale_est_1\/scale_est_1ort_solver\/norm_2\/Sqrt",
      "type" : "elementwise",
      "name" : "pose_estimator\/StatefulPartitionedCall\/StatefulPartitionedCall\/scale_est_1\/scale_est_1ort_solver\/norm_2\/Sqrt",
      "beta" : 0
    },
    {
      "size_of_axes" : 0,
      "bottom" : "pose_estimator\/StatefulPartitionedCall\/StatefulPartitionedCall\/scale_est_1\/scale_est_1ort_solver\/norm_2\/Sqrt",
      "weights" : {

      },
      "nd_axis" : 0,
      "debug_info" : "pose_estimator\/StatefulPartitionedCall\/StatefulPartitionedCall\/scale_est_1\/scale_est_1ort_solver\/norm_2\/Squeeze",
      "version" : 1,
      "top" : "pose_estimator\/StatefulPartitionedCall\/StatefulPartitionedCall\/scale_est_1\/scale_est_1ort_solver\/norm_2\/Squeeze",
      "type" : "squeeze",
      "name" : "pose_estimator\/StatefulPartitionedCall\/StatefulPartitionedCall\/scale_est_1\/scale_est_1ort_solver\/norm_2\/Squeeze",
      "squeeze_all" : true
    },
    {
      "bottom" : "pose_estimator\/StatefulPartitionedCall\/StatefulPartitionedCall\/scale_est_1\/scale_est_1ort_solver\/Tensordot_1,pose_estimator\/StatefulPartitionedCall\/StatefulPartitionedCall\/scale_est_1\/scale_est_1ort_solver\/norm_2\/Squeeze",
      "alpha" : 1,
      "operation" : 102,
      "weights" : {

      },
      "fused_relu" : 0,
      "debug_info" : "pose_estimator\/StatefulPartitionedCall\/StatefulPartitionedCall\/scale_est_1\/scale_est_1ort_solver\/truediv_3",
      "nd_mode" : true,
      "top" : "pose_estimator\/StatefulPartitionedCall\/StatefulPartitionedCall\/scale_est_1\/scale_est_1ort_solver\/truediv_3",
      "type" : "elementwise",
      "name" : "pose_estimator\/StatefulPartitionedCall\/StatefulPartitionedCall\/scale_est_1\/scale_est_1ort_solver\/truediv_3",
      "beta" : 0
    },
    {
      "name" : "pose_estimator\/StatefulPartitionedCall\/StatefulPartitionedCall\/scale_est_1\/scale_est_1ort_solver\/Tensordot_2\/Reshape",
      "weights" : {

      },
      "dst_w" : 1,
      "version" : 1,
      "dst_n" : 1,
      "dst_nd_rank" : 2,
      "type" : "reshape",
      "dst_h" : 3,
      "mode" : 0,
      "dynamic_shape" : false,
      "bottom" : "pose_estimator\/StatefulPartitionedCall\/StatefulPartitionedCall\/scale_est_1\/scale_est_1ort_solver\/truediv_3",
      "debug_info" : "pose_estimator\/StatefulPartitionedCall\/StatefulPartitionedCall\/scale_est_1\/scale_est_1ort_solver\/Tensordot_2\/Reshape",
      "dst_seq" : 1,
      "dst_k" : 1,
      "top" : "pose_estimator\/StatefulPartitionedCall\/StatefulPartitionedCall\/scale_est_1\/scale_est_1ort_solver\/Tensordot_2\/Reshape"
    },
    {
      "bottom" : "pose_estimator\/StatefulPartitionedCall\/StatefulPartitionedCall\/scale_est_1\/scale_est_1ort_solver\/MatMul_2,pose_estimator\/StatefulPartitionedCall\/StatefulPartitionedCall\/scale_est_1\/scale_est_1ort_solver\/Tensordot_2\/Reshape",
      "weights" : {

      },
      "debug_info" : "pose_estimator\/StatefulPartitionedCall\/StatefulPartitionedCall\/scale_est_1\/scale_est_1ort_solver\/Tensordot_2\/MatMul",
      "top" : "pose_estimator\/StatefulPartitionedCall\/StatefulPartitionedCall\/scale_est_1\/scale_est_1ort_solver\/Tensordot_2\/MatMul",
      "type" : "batch_matmul",
      "name" : "pose_estimator\/StatefulPartitionedCall\/StatefulPartitionedCall\/scale_est_1\/scale_est_1ort_solver\/Tensordot_2\/MatMul",
      "channel_mode" : false
    },
    {
      "name" : "pose_estimator\/StatefulPartitionedCall\/StatefulPartitionedCall\/scale_est_1\/scale_est_1ort_solver\/Tensordot_2",
      "weights" : {

      },
      "dst_w" : 3,
      "version" : 1,
      "dst_n" : 1,
      "dst_nd_rank" : 1,
      "type" : "reshape",
      "dst_h" : 1,
      "mode" : 0,
      "dynamic_shape" : false,
      "bottom" : "pose_estimator\/StatefulPartitionedCall\/StatefulPartitionedCall\/scale_est_1\/scale_est_1ort_solver\/Tensordot_2\/MatMul",
      "debug_info" : "pose_estimator\/StatefulPartitionedCall\/StatefulPartitionedCall\/scale_est_1\/scale_est_1ort_solver\/Tensordot_2",
      "dst_seq" : 1,
      "dst_k" : 1,
      "top" : "pose_estimator\/StatefulPartitionedCall\/StatefulPartitionedCall\/scale_est_1\/scale_est_1ort_solver\/Tensordot_2"
    },
    {
      "bottom" : "pose_estimator\/StatefulPartitionedCall\/StatefulPartitionedCall\/scale_est_1\/scale_est_1ort_solver\/Tensordot_2,pose_estimator\/StatefulPartitionedCall\/StatefulPartitionedCall\/scale_est_1\/scale_est_1ort_solver\/Tensordot_2",
      "alpha" : 1,
      "operation" : 1,
      "weights" : {

      },
      "fused_relu" : 0,
      "debug_info" : "pose_estimator\/StatefulPartitionedCall\/StatefulPartitionedCall\/scale_est_1\/scale_est_1ort_solver\/norm_3\/mul",
      "top" : "pose_estimator\/StatefulPartitionedCall\/StatefulPartitionedCall\/scale_est_1\/scale_est_1ort_solver\/norm_3\/mul",
      "type" : "elementwise",
      "name" : "pose_estimator\/StatefulPartitionedCall\/StatefulPartitionedCall\/scale_est_1\/scale_est_1ort_solver\/norm_3\/mul",
      "beta" : 0
    },
    {
      "axis_mode" : 1,
      "bottom" : "pose_estimator\/StatefulPartitionedCall\/StatefulPartitionedCall\/scale_est_1\/scale_est_1ort_solver\/norm_3\/mul",
      "weights" : {

      },
      "mode" : 0,
      "nd_axis" : 0,
      "nd_mode" : true,
      "debug_info" : "pose_estimator\/StatefulPartitionedCall\/StatefulPartitionedCall\/scale_est_1\/scale_est_1ort_solver\/norm_3\/Sum",
      "use_version" : 1,
      "top" : "pose_estimator\/StatefulPartitionedCall\/StatefulPartitionedCall\/scale_est_1\/scale_est_1ort_solver\/norm_3\/Sum",
      "type" : "reduce",
      "name" : "pose_estimator\/StatefulPartitionedCall\/StatefulPartitionedCall\/scale_est_1\/scale_est_1ort_solver\/norm_3\/Sum"
    },
    {
      "bottom" : "pose_estimator\/StatefulPartitionedCall\/StatefulPartitionedCall\/scale_est_1\/scale_est_1ort_solver\/norm_3\/Sum",
      "alpha" : 1,
      "operation" : 11,
      "weights" : {

      },
      "fused_relu" : 0,
      "debug_info" : "pose_estimator\/StatefulPartitionedCall\/StatefulPartitionedCall\/scale_est_1\/scale_est_1ort_solver\/norm_3\/Sqrt",
      "top" : "pose_estimator\/StatefulPartitionedCall\/StatefulPartitionedCall\/scale_est_1\/scale_est_1ort_solver\/norm_3\/Sqrt",
      "type" : "elementwise",
      "name" : "pose_estimator\/StatefulPartitionedCall\/StatefulPartitionedCall\/scale_est_1\/scale_est_1ort_solver\/norm_3\/Sqrt",
      "beta" : 0
    },
    {
      "size_of_axes" : 0,
      "bottom" : "pose_estimator\/StatefulPartitionedCall\/StatefulPartitionedCall\/scale_est_1\/scale_est_1ort_solver\/norm_3\/Sqrt",
      "weights" : {

      },
      "nd_axis" : 0,
      "debug_info" : "pose_estimator\/StatefulPartitionedCall\/StatefulPartitionedCall\/scale_est_1\/scale_est_1ort_solver\/norm_3\/Squeeze",
      "version" : 1,
      "top" : "pose_estimator\/StatefulPartitionedCall\/StatefulPartitionedCall\/scale_est_1\/scale_est_1ort_solver\/norm_3\/Squeeze",
      "type" : "squeeze",
      "name" : "pose_estimator\/StatefulPartitionedCall\/StatefulPartitionedCall\/scale_est_1\/scale_est_1ort_solver\/norm_3\/Squeeze",
      "squeeze_all" : true
    },
    {
      "bottom" : "pose_estimator\/StatefulPartitionedCall\/StatefulPartitionedCall\/scale_est_1\/scale_est_1ort_solver\/Tensordot_2,pose_estimator\/StatefulPartitionedCall\/StatefulPartitionedCall\/scale_est_1\/scale_est_1ort_solver\/norm_3\/Squeeze",
      "alpha" : 1,
      "operation" : 102,
      "weights" : {

      },
      "fused_relu" : 0,
      "debug_info" : "pose_estimator\/StatefulPartitionedCall\/StatefulPartitionedCall\/scale_est_1\/scale_est_1ort_solver\/truediv_4",
      "nd_mode" : true,
      "top" : "pose_estimator\/StatefulPartitionedCall\/StatefulPartitionedCall\/scale_est_1\/scale_est_1ort_solver\/truediv_4",
      "type" : "elementwise",
      "name" : "pose_estimator\/StatefulPartitionedCall\/StatefulPartitionedCall\/scale_est_1\/scale_est_1ort_solver\/truediv_4",
      "beta" : 0
    },
    {
      "name" : "pose_estimator\/StatefulPartitionedCall\/StatefulPartitionedCall\/scale_est_1\/scale_est_1ort_solver\/Tensordot_3\/Reshape",
      "weights" : {

      },
      "dst_w" : 1,
      "version" : 1,
      "dst_n" : 1,
      "dst_nd_rank" : 2,
      "type" : "reshape",
      "dst_h" : 3,
      "mode" : 0,
      "dynamic_shape" : false,
      "bottom" : "pose_estimator\/StatefulPartitionedCall\/StatefulPartitionedCall\/scale_est_1\/scale_est_1ort_solver\/truediv_4",
      "debug_info" : "pose_estimator\/StatefulPartitionedCall\/StatefulPartitionedCall\/scale_est_1\/scale_est_1ort_solver\/Tensordot_3\/Reshape",
      "dst_seq" : 1,
      "dst_k" : 1,
      "top" : "pose_estimator\/StatefulPartitionedCall\/StatefulPartitionedCall\/scale_est_1\/scale_est_1ort_solver\/Tensordot_3\/Reshape"
    },
    {
      "bottom" : "pose_estimator\/StatefulPartitionedCall\/StatefulPartitionedCall\/scale_est_1\/scale_est_1ort_solver\/MatMul_2,pose_estimator\/StatefulPartitionedCall\/StatefulPartitionedCall\/scale_est_1\/scale_est_1ort_solver\/Tensordot_3\/Reshape",
      "weights" : {

      },
      "debug_info" : "pose_estimator\/StatefulPartitionedCall\/StatefulPartitionedCall\/scale_est_1\/scale_est_1ort_solver\/Tensordot_3\/MatMul",
      "top" : "pose_estimator\/StatefulPartitionedCall\/StatefulPartitionedCall\/scale_est_1\/scale_est_1ort_solver\/Tensordot_3\/MatMul",
      "type" : "batch_matmul",
      "name" : "pose_estimator\/StatefulPartitionedCall\/StatefulPartitionedCall\/scale_est_1\/scale_est_1ort_solver\/Tensordot_3\/MatMul",
      "channel_mode" : false
    },
    {
      "name" : "pose_estimator\/StatefulPartitionedCall\/StatefulPartitionedCall\/scale_est_1\/scale_est_1ort_solver\/Tensordot_3",
      "weights" : {

      },
      "dst_w" : 3,
      "version" : 1,
      "dst_n" : 1,
      "dst_nd_rank" : 1,
      "type" : "reshape",
      "dst_h" : 1,
      "mode" : 0,
      "dynamic_shape" : false,
      "bottom" : "pose_estimator\/StatefulPartitionedCall\/StatefulPartitionedCall\/scale_est_1\/scale_est_1ort_solver\/Tensordot_3\/MatMul",
      "debug_info" : "pose_estimator\/StatefulPartitionedCall\/StatefulPartitionedCall\/scale_est_1\/scale_est_1ort_solver\/Tensordot_3",
      "dst_seq" : 1,
      "dst_k" : 1,
      "top" : "pose_estimator\/StatefulPartitionedCall\/StatefulPartitionedCall\/scale_est_1\/scale_est_1ort_solver\/Tensordot_3"
    },
    {
      "bottom" : "pose_estimator\/StatefulPartitionedCall\/StatefulPartitionedCall\/scale_est_1\/scale_est_1ort_solver\/Tensordot_3,pose_estimator\/StatefulPartitionedCall\/StatefulPartitionedCall\/scale_est_1\/scale_est_1ort_solver\/Tensordot_3",
      "alpha" : 1,
      "operation" : 1,
      "weights" : {

      },
      "fused_relu" : 0,
      "debug_info" : "pose_estimator\/StatefulPartitionedCall\/StatefulPartitionedCall\/scale_est_1\/scale_est_1ort_solver\/norm_4\/mul",
      "top" : "pose_estimator\/StatefulPartitionedCall\/StatefulPartitionedCall\/scale_est_1\/scale_est_1ort_solver\/norm_4\/mul",
      "type" : "elementwise",
      "name" : "pose_estimator\/StatefulPartitionedCall\/StatefulPartitionedCall\/scale_est_1\/scale_est_1ort_solver\/norm_4\/mul",
      "beta" : 0
    },
    {
      "axis_mode" : 1,
      "bottom" : "pose_estimator\/StatefulPartitionedCall\/StatefulPartitionedCall\/scale_est_1\/scale_est_1ort_solver\/norm_4\/mul",
      "weights" : {

      },
      "mode" : 0,
      "nd_axis" : 0,
      "nd_mode" : true,
      "debug_info" : "pose_estimator\/StatefulPartitionedCall\/StatefulPartitionedCall\/scale_est_1\/scale_est_1ort_solver\/norm_4\/Sum",
      "use_version" : 1,
      "top" : "pose_estimator\/StatefulPartitionedCall\/StatefulPartitionedCall\/scale_est_1\/scale_est_1ort_solver\/norm_4\/Sum",
      "type" : "reduce",
      "name" : "pose_estimator\/StatefulPartitionedCall\/StatefulPartitionedCall\/scale_est_1\/scale_est_1ort_solver\/norm_4\/Sum"
    },
    {
      "bottom" : "pose_estimator\/StatefulPartitionedCall\/StatefulPartitionedCall\/scale_est_1\/scale_est_1ort_solver\/norm_4\/Sum",
      "alpha" : 1,
      "operation" : 11,
      "weights" : {

      },
      "fused_relu" : 0,
      "debug_info" : "pose_estimator\/StatefulPartitionedCall\/StatefulPartitionedCall\/scale_est_1\/scale_est_1ort_solver\/norm_4\/Sqrt",
      "top" : "pose_estimator\/StatefulPartitionedCall\/StatefulPartitionedCall\/scale_est_1\/scale_est_1ort_solver\/norm_4\/Sqrt",
      "type" : "elementwise",
      "name" : "pose_estimator\/StatefulPartitionedCall\/StatefulPartitionedCall\/scale_est_1\/scale_est_1ort_solver\/norm_4\/Sqrt",
      "beta" : 0
    },
    {
      "size_of_axes" : 0,
      "bottom" : "pose_estimator\/StatefulPartitionedCall\/StatefulPartitionedCall\/scale_est_1\/scale_est_1ort_solver\/norm_4\/Sqrt",
      "weights" : {

      },
      "nd_axis" : 0,
      "debug_info" : "pose_estimator\/StatefulPartitionedCall\/StatefulPartitionedCall\/scale_est_1\/scale_est_1ort_solver\/norm_4\/Squeeze",
      "version" : 1,
      "top" : "pose_estimator\/StatefulPartitionedCall\/StatefulPartitionedCall\/scale_est_1\/scale_est_1ort_solver\/norm_4\/Squeeze",
      "type" : "squeeze",
      "name" : "pose_estimator\/StatefulPartitionedCall\/StatefulPartitionedCall\/scale_est_1\/scale_est_1ort_solver\/norm_4\/Squeeze",
      "squeeze_all" : true
    },
    {
      "bottom" : "pose_estimator\/StatefulPartitionedCall\/StatefulPartitionedCall\/scale_est_1\/scale_est_1ort_solver\/Tensordot_3,pose_estimator\/StatefulPartitionedCall\/StatefulPartitionedCall\/scale_est_1\/scale_est_1ort_solver\/norm_4\/Squeeze",
      "alpha" : 1,
      "operation" : 102,
      "weights" : {

      },
      "fused_relu" : 0,
      "debug_info" : "pose_estimator\/StatefulPartitionedCall\/StatefulPartitionedCall\/scale_est_1\/scale_est_1ort_solver\/truediv_5",
      "nd_mode" : true,
      "top" : "pose_estimator\/StatefulPartitionedCall\/StatefulPartitionedCall\/scale_est_1\/scale_est_1ort_solver\/truediv_5",
      "type" : "elementwise",
      "name" : "pose_estimator\/StatefulPartitionedCall\/StatefulPartitionedCall\/scale_est_1\/scale_est_1ort_solver\/truediv_5",
      "beta" : 0
    },
    {
      "name" : "pose_estimator\/StatefulPartitionedCall\/StatefulPartitionedCall\/scale_est_1\/scale_est_1ort_solver\/Tensordot_4\/Reshape",
      "weights" : {

      },
      "dst_w" : 1,
      "version" : 1,
      "dst_n" : 1,
      "dst_nd_rank" : 2,
      "type" : "reshape",
      "dst_h" : 3,
      "mode" : 0,
      "dynamic_shape" : false,
      "bottom" : "pose_estimator\/StatefulPartitionedCall\/StatefulPartitionedCall\/scale_est_1\/scale_est_1ort_solver\/truediv_5",
      "debug_info" : "pose_estimator\/StatefulPartitionedCall\/StatefulPartitionedCall\/scale_est_1\/scale_est_1ort_solver\/Tensordot_4\/Reshape",
      "dst_seq" : 1,
      "dst_k" : 1,
      "top" : "pose_estimator\/StatefulPartitionedCall\/StatefulPartitionedCall\/scale_est_1\/scale_est_1ort_solver\/Tensordot_4\/Reshape"
    },
    {
      "bottom" : "pose_estimator\/StatefulPartitionedCall\/StatefulPartitionedCall\/scale_est_1\/scale_est_1ort_solver\/MatMul_2,pose_estimator\/StatefulPartitionedCall\/StatefulPartitionedCall\/scale_est_1\/scale_est_1ort_solver\/Tensordot_4\/Reshape",
      "weights" : {

      },
      "debug_info" : "pose_estimator\/StatefulPartitionedCall\/StatefulPartitionedCall\/scale_est_1\/scale_est_1ort_solver\/Tensordot_4\/MatMul",
      "top" : "pose_estimator\/StatefulPartitionedCall\/StatefulPartitionedCall\/scale_est_1\/scale_est_1ort_solver\/Tensordot_4\/MatMul",
      "type" : "batch_matmul",
      "name" : "pose_estimator\/StatefulPartitionedCall\/StatefulPartitionedCall\/scale_est_1\/scale_est_1ort_solver\/Tensordot_4\/MatMul",
      "channel_mode" : false
    },
    {
      "name" : "pose_estimator\/StatefulPartitionedCall\/StatefulPartitionedCall\/scale_est_1\/scale_est_1ort_solver\/Tensordot_4",
      "weights" : {

      },
      "dst_w" : 3,
      "version" : 1,
      "dst_n" : 1,
      "dst_nd_rank" : 1,
      "type" : "reshape",
      "dst_h" : 1,
      "mode" : 0,
      "dynamic_shape" : false,
      "bottom" : "pose_estimator\/StatefulPartitionedCall\/StatefulPartitionedCall\/scale_est_1\/scale_est_1ort_solver\/Tensordot_4\/MatMul",
      "debug_info" : "pose_estimator\/StatefulPartitionedCall\/StatefulPartitionedCall\/scale_est_1\/scale_est_1ort_solver\/Tensordot_4",
      "dst_seq" : 1,
      "dst_k" : 1,
      "top" : "pose_estimator\/StatefulPartitionedCall\/StatefulPartitionedCall\/scale_est_1\/scale_est_1ort_solver\/Tensordot_4"
    },
    {
      "bottom" : "pose_estimator\/StatefulPartitionedCall\/StatefulPartitionedCall\/scale_est_1\/scale_est_1ort_solver\/Tensordot_4,pose_estimator\/StatefulPartitionedCall\/StatefulPartitionedCall\/scale_est_1\/scale_est_1ort_solver\/Tensordot_4",
      "alpha" : 1,
      "operation" : 1,
      "weights" : {

      },
      "fused_relu" : 0,
      "debug_info" : "pose_estimator\/StatefulPartitionedCall\/StatefulPartitionedCall\/scale_est_1\/scale_est_1ort_solver\/norm_5\/mul",
      "top" : "pose_estimator\/StatefulPartitionedCall\/StatefulPartitionedCall\/scale_est_1\/scale_est_1ort_solver\/norm_5\/mul",
      "type" : "elementwise",
      "name" : "pose_estimator\/StatefulPartitionedCall\/StatefulPartitionedCall\/scale_est_1\/scale_est_1ort_solver\/norm_5\/mul",
      "beta" : 0
    },
    {
      "axis_mode" : 1,
      "bottom" : "pose_estimator\/StatefulPartitionedCall\/StatefulPartitionedCall\/scale_est_1\/scale_est_1ort_solver\/norm_5\/mul",
      "weights" : {

      },
      "mode" : 0,
      "nd_axis" : 0,
      "nd_mode" : true,
      "debug_info" : "pose_estimator\/StatefulPartitionedCall\/StatefulPartitionedCall\/scale_est_1\/scale_est_1ort_solver\/norm_5\/Sum",
      "use_version" : 1,
      "top" : "pose_estimator\/StatefulPartitionedCall\/StatefulPartitionedCall\/scale_est_1\/scale_est_1ort_solver\/norm_5\/Sum",
      "type" : "reduce",
      "name" : "pose_estimator\/StatefulPartitionedCall\/StatefulPartitionedCall\/scale_est_1\/scale_est_1ort_solver\/norm_5\/Sum"
    },
    {
      "bottom" : "pose_estimator\/StatefulPartitionedCall\/StatefulPartitionedCall\/scale_est_1\/scale_est_1ort_solver\/norm_5\/Sum",
      "alpha" : 1,
      "operation" : 11,
      "weights" : {

      },
      "fused_relu" : 0,
      "debug_info" : "pose_estimator\/StatefulPartitionedCall\/StatefulPartitionedCall\/scale_est_1\/scale_est_1ort_solver\/norm_5\/Sqrt",
      "top" : "pose_estimator\/StatefulPartitionedCall\/StatefulPartitionedCall\/scale_est_1\/scale_est_1ort_solver\/norm_5\/Sqrt",
      "type" : "elementwise",
      "name" : "pose_estimator\/StatefulPartitionedCall\/StatefulPartitionedCall\/scale_est_1\/scale_est_1ort_solver\/norm_5\/Sqrt",
      "beta" : 0
    },
    {
      "size_of_axes" : 0,
      "bottom" : "pose_estimator\/StatefulPartitionedCall\/StatefulPartitionedCall\/scale_est_1\/scale_est_1ort_solver\/norm_5\/Sqrt",
      "weights" : {

      },
      "nd_axis" : 0,
      "debug_info" : "pose_estimator\/StatefulPartitionedCall\/StatefulPartitionedCall\/scale_est_1\/scale_est_1ort_solver\/norm_5\/Squeeze",
      "version" : 1,
      "top" : "pose_estimator\/StatefulPartitionedCall\/StatefulPartitionedCall\/scale_est_1\/scale_est_1ort_solver\/norm_5\/Squeeze",
      "type" : "squeeze",
      "name" : "pose_estimator\/StatefulPartitionedCall\/StatefulPartitionedCall\/scale_est_1\/scale_est_1ort_solver\/norm_5\/Squeeze",
      "squeeze_all" : true
    },
    {
      "bottom" : "pose_estimator\/StatefulPartitionedCall\/StatefulPartitionedCall\/scale_est_1\/scale_est_1ort_solver\/Tensordot_4,pose_estimator\/StatefulPartitionedCall\/StatefulPartitionedCall\/scale_est_1\/scale_est_1ort_solver\/norm_5\/Squeeze",
      "alpha" : 1,
      "operation" : 102,
      "weights" : {

      },
      "fused_relu" : 0,
      "debug_info" : "pose_estimator\/StatefulPartitionedCall\/StatefulPartitionedCall\/scale_est_1\/scale_est_1ort_solver\/truediv_6",
      "nd_mode" : true,
      "top" : "pose_estimator\/StatefulPartitionedCall\/StatefulPartitionedCall\/scale_est_1\/scale_est_1ort_solver\/truediv_6",
      "type" : "elementwise",
      "name" : "pose_estimator\/StatefulPartitionedCall\/StatefulPartitionedCall\/scale_est_1\/scale_est_1ort_solver\/truediv_6",
      "beta" : 0
    },
    {
      "name" : "pose_estimator\/StatefulPartitionedCall\/StatefulPartitionedCall\/scale_est_1\/scale_est_1ort_solver\/Tensordot_5\/Reshape",
      "weights" : {

      },
      "dst_w" : 1,
      "version" : 1,
      "dst_n" : 1,
      "dst_nd_rank" : 2,
      "type" : "reshape",
      "dst_h" : 3,
      "mode" : 0,
      "dynamic_shape" : false,
      "bottom" : "pose_estimator\/StatefulPartitionedCall\/StatefulPartitionedCall\/scale_est_1\/scale_est_1ort_solver\/truediv_6",
      "debug_info" : "pose_estimator\/StatefulPartitionedCall\/StatefulPartitionedCall\/scale_est_1\/scale_est_1ort_solver\/Tensordot_5\/Reshape",
      "dst_seq" : 1,
      "dst_k" : 1,
      "top" : "pose_estimator\/StatefulPartitionedCall\/StatefulPartitionedCall\/scale_est_1\/scale_est_1ort_solver\/Tensordot_5\/Reshape"
    },
    {
      "bottom" : "pose_estimator\/StatefulPartitionedCall\/StatefulPartitionedCall\/scale_est_1\/scale_est_1ort_solver\/MatMul_2,pose_estimator\/StatefulPartitionedCall\/StatefulPartitionedCall\/scale_est_1\/scale_est_1ort_solver\/Tensordot_5\/Reshape",
      "weights" : {

      },
      "debug_info" : "pose_estimator\/StatefulPartitionedCall\/StatefulPartitionedCall\/scale_est_1\/scale_est_1ort_solver\/Tensordot_5\/MatMul",
      "top" : "pose_estimator\/StatefulPartitionedCall\/StatefulPartitionedCall\/scale_est_1\/scale_est_1ort_solver\/Tensordot_5\/MatMul",
      "type" : "batch_matmul",
      "name" : "pose_estimator\/StatefulPartitionedCall\/StatefulPartitionedCall\/scale_est_1\/scale_est_1ort_solver\/Tensordot_5\/MatMul",
      "channel_mode" : false
    },
    {
      "name" : "pose_estimator\/StatefulPartitionedCall\/StatefulPartitionedCall\/scale_est_1\/scale_est_1ort_solver\/Tensordot_5",
      "weights" : {

      },
      "dst_w" : 3,
      "version" : 1,
      "dst_n" : 1,
      "dst_nd_rank" : 1,
      "type" : "reshape",
      "dst_h" : 1,
      "mode" : 0,
      "dynamic_shape" : false,
      "bottom" : "pose_estimator\/StatefulPartitionedCall\/StatefulPartitionedCall\/scale_est_1\/scale_est_1ort_solver\/Tensordot_5\/MatMul",
      "debug_info" : "pose_estimator\/StatefulPartitionedCall\/StatefulPartitionedCall\/scale_est_1\/scale_est_1ort_solver\/Tensordot_5",
      "dst_seq" : 1,
      "dst_k" : 1,
      "top" : "pose_estimator\/StatefulPartitionedCall\/StatefulPartitionedCall\/scale_est_1\/scale_est_1ort_solver\/Tensordot_5"
    },
    {
      "bottom" : "pose_estimator\/StatefulPartitionedCall\/StatefulPartitionedCall\/scale_est_1\/scale_est_1ort_solver\/Tensordot_5,pose_estimator\/StatefulPartitionedCall\/StatefulPartitionedCall\/scale_est_1\/scale_est_1ort_solver\/Tensordot_5",
      "alpha" : 1,
      "operation" : 1,
      "weights" : {

      },
      "fused_relu" : 0,
      "debug_info" : "pose_estimator\/StatefulPartitionedCall\/StatefulPartitionedCall\/scale_est_1\/scale_est_1ort_solver\/norm_6\/mul",
      "top" : "pose_estimator\/StatefulPartitionedCall\/StatefulPartitionedCall\/scale_est_1\/scale_est_1ort_solver\/norm_6\/mul",
      "type" : "elementwise",
      "name" : "pose_estimator\/StatefulPartitionedCall\/StatefulPartitionedCall\/scale_est_1\/scale_est_1ort_solver\/norm_6\/mul",
      "beta" : 0
    },
    {
      "axis_mode" : 1,
      "bottom" : "pose_estimator\/StatefulPartitionedCall\/StatefulPartitionedCall\/scale_est_1\/scale_est_1ort_solver\/norm_6\/mul",
      "weights" : {

      },
      "mode" : 0,
      "nd_axis" : 0,
      "nd_mode" : true,
      "debug_info" : "pose_estimator\/StatefulPartitionedCall\/StatefulPartitionedCall\/scale_est_1\/scale_est_1ort_solver\/norm_6\/Sum",
      "use_version" : 1,
      "top" : "pose_estimator\/StatefulPartitionedCall\/StatefulPartitionedCall\/scale_est_1\/scale_est_1ort_solver\/norm_6\/Sum",
      "type" : "reduce",
      "name" : "pose_estimator\/StatefulPartitionedCall\/StatefulPartitionedCall\/scale_est_1\/scale_est_1ort_solver\/norm_6\/Sum"
    },
    {
      "bottom" : "pose_estimator\/StatefulPartitionedCall\/StatefulPartitionedCall\/scale_est_1\/scale_est_1ort_solver\/norm_6\/Sum",
      "alpha" : 1,
      "operation" : 11,
      "weights" : {

      },
      "fused_relu" : 0,
      "debug_info" : "pose_estimator\/StatefulPartitionedCall\/StatefulPartitionedCall\/scale_est_1\/scale_est_1ort_solver\/norm_6\/Sqrt",
      "top" : "pose_estimator\/StatefulPartitionedCall\/StatefulPartitionedCall\/scale_est_1\/scale_est_1ort_solver\/norm_6\/Sqrt",
      "type" : "elementwise",
      "name" : "pose_estimator\/StatefulPartitionedCall\/StatefulPartitionedCall\/scale_est_1\/scale_est_1ort_solver\/norm_6\/Sqrt",
      "beta" : 0
    },
    {
      "size_of_axes" : 0,
      "bottom" : "pose_estimator\/StatefulPartitionedCall\/StatefulPartitionedCall\/scale_est_1\/scale_est_1ort_solver\/norm_6\/Sqrt",
      "weights" : {

      },
      "nd_axis" : 0,
      "debug_info" : "pose_estimator\/StatefulPartitionedCall\/StatefulPartitionedCall\/scale_est_1\/scale_est_1ort_solver\/norm_6\/Squeeze",
      "version" : 1,
      "top" : "pose_estimator\/StatefulPartitionedCall\/StatefulPartitionedCall\/scale_est_1\/scale_est_1ort_solver\/norm_6\/Squeeze",
      "type" : "squeeze",
      "name" : "pose_estimator\/StatefulPartitionedCall\/StatefulPartitionedCall\/scale_est_1\/scale_est_1ort_solver\/norm_6\/Squeeze",
      "squeeze_all" : true
    },
    {
      "bottom" : "pose_estimator\/StatefulPartitionedCall\/StatefulPartitionedCall\/scale_est_1\/scale_est_1ort_solver\/Tensordot_5,pose_estimator\/StatefulPartitionedCall\/StatefulPartitionedCall\/scale_est_1\/scale_est_1ort_solver\/norm_6\/Squeeze",
      "alpha" : 1,
      "operation" : 102,
      "weights" : {

      },
      "fused_relu" : 0,
      "debug_info" : "pose_estimator\/StatefulPartitionedCall\/StatefulPartitionedCall\/scale_est_1\/scale_est_1ort_solver\/truediv_7",
      "nd_mode" : true,
      "top" : "pose_estimator\/StatefulPartitionedCall\/StatefulPartitionedCall\/scale_est_1\/scale_est_1ort_solver\/truediv_7",
      "type" : "elementwise",
      "name" : "pose_estimator\/StatefulPartitionedCall\/StatefulPartitionedCall\/scale_est_1\/scale_est_1ort_solver\/truediv_7",
      "beta" : 0
    },
    {
      "name" : "pose_estimator\/StatefulPartitionedCall\/StatefulPartitionedCall\/scale_est_1\/scale_est_1ort_solver\/Tensordot_6\/Reshape",
      "weights" : {

      },
      "dst_w" : 1,
      "version" : 1,
      "dst_n" : 1,
      "dst_nd_rank" : 2,
      "type" : "reshape",
      "dst_h" : 3,
      "mode" : 0,
      "dynamic_shape" : false,
      "bottom" : "pose_estimator\/StatefulPartitionedCall\/StatefulPartitionedCall\/scale_est_1\/scale_est_1ort_solver\/truediv_7",
      "debug_info" : "pose_estimator\/StatefulPartitionedCall\/StatefulPartitionedCall\/scale_est_1\/scale_est_1ort_solver\/Tensordot_6\/Reshape",
      "dst_seq" : 1,
      "dst_k" : 1,
      "top" : "pose_estimator\/StatefulPartitionedCall\/StatefulPartitionedCall\/scale_est_1\/scale_est_1ort_solver\/Tensordot_6\/Reshape"
    },
    {
      "bottom" : "pose_estimator\/StatefulPartitionedCall\/StatefulPartitionedCall\/scale_est_1\/scale_est_1ort_solver\/MatMul_2,pose_estimator\/StatefulPartitionedCall\/StatefulPartitionedCall\/scale_est_1\/scale_est_1ort_solver\/Tensordot_6\/Reshape",
      "weights" : {

      },
      "debug_info" : "pose_estimator\/StatefulPartitionedCall\/StatefulPartitionedCall\/scale_est_1\/scale_est_1ort_solver\/Tensordot_6\/MatMul",
      "top" : "pose_estimator\/StatefulPartitionedCall\/StatefulPartitionedCall\/scale_est_1\/scale_est_1ort_solver\/Tensordot_6\/MatMul",
      "type" : "batch_matmul",
      "name" : "pose_estimator\/StatefulPartitionedCall\/StatefulPartitionedCall\/scale_est_1\/scale_est_1ort_solver\/Tensordot_6\/MatMul",
      "channel_mode" : false
    },
    {
      "name" : "pose_estimator\/StatefulPartitionedCall\/StatefulPartitionedCall\/scale_est_1\/scale_est_1ort_solver\/Tensordot_6",
      "weights" : {

      },
      "dst_w" : 3,
      "version" : 1,
      "dst_n" : 1,
      "dst_nd_rank" : 1,
      "type" : "reshape",
      "dst_h" : 1,
      "mode" : 0,
      "dynamic_shape" : false,
      "bottom" : "pose_estimator\/StatefulPartitionedCall\/StatefulPartitionedCall\/scale_est_1\/scale_est_1ort_solver\/Tensordot_6\/MatMul",
      "debug_info" : "pose_estimator\/StatefulPartitionedCall\/StatefulPartitionedCall\/scale_est_1\/scale_est_1ort_solver\/Tensordot_6",
      "dst_seq" : 1,
      "dst_k" : 1,
      "top" : "pose_estimator\/StatefulPartitionedCall\/StatefulPartitionedCall\/scale_est_1\/scale_est_1ort_solver\/Tensordot_6"
    },
    {
      "bottom" : "pose_estimator\/StatefulPartitionedCall\/StatefulPartitionedCall\/scale_est_1\/scale_est_1ort_solver\/Tensordot_6,pose_estimator\/StatefulPartitionedCall\/StatefulPartitionedCall\/scale_est_1\/scale_est_1ort_solver\/Tensordot_6",
      "alpha" : 1,
      "operation" : 1,
      "weights" : {

      },
      "fused_relu" : 0,
      "debug_info" : "pose_estimator\/StatefulPartitionedCall\/StatefulPartitionedCall\/scale_est_1\/scale_est_1ort_solver\/norm_7\/mul",
      "top" : "pose_estimator\/StatefulPartitionedCall\/StatefulPartitionedCall\/scale_est_1\/scale_est_1ort_solver\/norm_7\/mul",
      "type" : "elementwise",
      "name" : "pose_estimator\/StatefulPartitionedCall\/StatefulPartitionedCall\/scale_est_1\/scale_est_1ort_solver\/norm_7\/mul",
      "beta" : 0
    },
    {
      "axis_mode" : 1,
      "bottom" : "pose_estimator\/StatefulPartitionedCall\/StatefulPartitionedCall\/scale_est_1\/scale_est_1ort_solver\/norm_7\/mul",
      "weights" : {

      },
      "mode" : 0,
      "nd_axis" : 0,
      "nd_mode" : true,
      "debug_info" : "pose_estimator\/StatefulPartitionedCall\/StatefulPartitionedCall\/scale_est_1\/scale_est_1ort_solver\/norm_7\/Sum",
      "use_version" : 1,
      "top" : "pose_estimator\/StatefulPartitionedCall\/StatefulPartitionedCall\/scale_est_1\/scale_est_1ort_solver\/norm_7\/Sum",
      "type" : "reduce",
      "name" : "pose_estimator\/StatefulPartitionedCall\/StatefulPartitionedCall\/scale_est_1\/scale_est_1ort_solver\/norm_7\/Sum"
    },
    {
      "bottom" : "pose_estimator\/StatefulPartitionedCall\/StatefulPartitionedCall\/scale_est_1\/scale_est_1ort_solver\/norm_7\/Sum",
      "alpha" : 1,
      "operation" : 11,
      "weights" : {

      },
      "fused_relu" : 0,
      "debug_info" : "pose_estimator\/StatefulPartitionedCall\/StatefulPartitionedCall\/scale_est_1\/scale_est_1ort_solver\/norm_7\/Sqrt",
      "top" : "pose_estimator\/StatefulPartitionedCall\/StatefulPartitionedCall\/scale_est_1\/scale_est_1ort_solver\/norm_7\/Sqrt",
      "type" : "elementwise",
      "name" : "pose_estimator\/StatefulPartitionedCall\/StatefulPartitionedCall\/scale_est_1\/scale_est_1ort_solver\/norm_7\/Sqrt",
      "beta" : 0
    },
    {
      "size_of_axes" : 0,
      "bottom" : "pose_estimator\/StatefulPartitionedCall\/StatefulPartitionedCall\/scale_est_1\/scale_est_1ort_solver\/norm_7\/Sqrt",
      "weights" : {

      },
      "nd_axis" : 0,
      "debug_info" : "pose_estimator\/StatefulPartitionedCall\/StatefulPartitionedCall\/scale_est_1\/scale_est_1ort_solver\/norm_7\/Squeeze",
      "version" : 1,
      "top" : "pose_estimator\/StatefulPartitionedCall\/StatefulPartitionedCall\/scale_est_1\/scale_est_1ort_solver\/norm_7\/Squeeze",
      "type" : "squeeze",
      "name" : "pose_estimator\/StatefulPartitionedCall\/StatefulPartitionedCall\/scale_est_1\/scale_est_1ort_solver\/norm_7\/Squeeze",
      "squeeze_all" : true
    },
    {
      "bottom" : "pose_estimator\/StatefulPartitionedCall\/StatefulPartitionedCall\/scale_est_1\/scale_est_1ort_solver\/Tensordot_6,pose_estimator\/StatefulPartitionedCall\/StatefulPartitionedCall\/scale_est_1\/scale_est_1ort_solver\/norm_7\/Squeeze",
      "alpha" : 1,
      "operation" : 102,
      "weights" : {

      },
      "fused_relu" : 0,
      "debug_info" : "pose_estimator\/StatefulPartitionedCall\/StatefulPartitionedCall\/scale_est_1\/scale_est_1ort_solver\/truediv_8",
      "nd_mode" : true,
      "top" : "pose_estimator\/StatefulPartitionedCall\/StatefulPartitionedCall\/scale_est_1\/scale_est_1ort_solver\/truediv_8",
      "type" : "elementwise",
      "name" : "pose_estimator\/StatefulPartitionedCall\/StatefulPartitionedCall\/scale_est_1\/scale_est_1ort_solver\/truediv_8",
      "beta" : 0
    },
    {
      "name" : "pose_estimator\/StatefulPartitionedCall\/StatefulPartitionedCall\/scale_est_1\/scale_est_1ort_solver\/Tensordot_7\/Reshape",
      "weights" : {

      },
      "dst_w" : 1,
      "version" : 1,
      "dst_n" : 1,
      "dst_nd_rank" : 2,
      "type" : "reshape",
      "dst_h" : 3,
      "mode" : 0,
      "dynamic_shape" : false,
      "bottom" : "pose_estimator\/StatefulPartitionedCall\/StatefulPartitionedCall\/scale_est_1\/scale_est_1ort_solver\/truediv_8",
      "debug_info" : "pose_estimator\/StatefulPartitionedCall\/StatefulPartitionedCall\/scale_est_1\/scale_est_1ort_solver\/Tensordot_7\/Reshape",
      "dst_seq" : 1,
      "dst_k" : 1,
      "top" : "pose_estimator\/StatefulPartitionedCall\/StatefulPartitionedCall\/scale_est_1\/scale_est_1ort_solver\/Tensordot_7\/Reshape"
    },
    {
      "bottom" : "pose_estimator\/StatefulPartitionedCall\/StatefulPartitionedCall\/scale_est_1\/scale_est_1ort_solver\/MatMul_2,pose_estimator\/StatefulPartitionedCall\/StatefulPartitionedCall\/scale_est_1\/scale_est_1ort_solver\/Tensordot_7\/Reshape",
      "weights" : {

      },
      "debug_info" : "pose_estimator\/StatefulPartitionedCall\/StatefulPartitionedCall\/scale_est_1\/scale_est_1ort_solver\/Tensordot_7\/MatMul",
      "top" : "pose_estimator\/StatefulPartitionedCall\/StatefulPartitionedCall\/scale_est_1\/scale_est_1ort_solver\/Tensordot_7\/MatMul",
      "type" : "batch_matmul",
      "name" : "pose_estimator\/StatefulPartitionedCall\/StatefulPartitionedCall\/scale_est_1\/scale_est_1ort_solver\/Tensordot_7\/MatMul",
      "channel_mode" : false
    },
    {
      "name" : "pose_estimator\/StatefulPartitionedCall\/StatefulPartitionedCall\/scale_est_1\/scale_est_1ort_solver\/Tensordot_7",
      "weights" : {

      },
      "dst_w" : 3,
      "version" : 1,
      "dst_n" : 1,
      "dst_nd_rank" : 1,
      "type" : "reshape",
      "dst_h" : 1,
      "mode" : 0,
      "dynamic_shape" : false,
      "bottom" : "pose_estimator\/StatefulPartitionedCall\/StatefulPartitionedCall\/scale_est_1\/scale_est_1ort_solver\/Tensordot_7\/MatMul",
      "debug_info" : "pose_estimator\/StatefulPartitionedCall\/StatefulPartitionedCall\/scale_est_1\/scale_est_1ort_solver\/Tensordot_7",
      "dst_seq" : 1,
      "dst_k" : 1,
      "top" : "pose_estimator\/StatefulPartitionedCall\/StatefulPartitionedCall\/scale_est_1\/scale_est_1ort_solver\/Tensordot_7"
    },
    {
      "bottom" : "pose_estimator\/StatefulPartitionedCall\/StatefulPartitionedCall\/scale_est_1\/scale_est_1ort_solver\/Tensordot_7,pose_estimator\/StatefulPartitionedCall\/StatefulPartitionedCall\/scale_est_1\/scale_est_1ort_solver\/Tensordot_7",
      "alpha" : 1,
      "operation" : 1,
      "weights" : {

      },
      "fused_relu" : 0,
      "debug_info" : "pose_estimator\/StatefulPartitionedCall\/StatefulPartitionedCall\/scale_est_1\/scale_est_1ort_solver\/norm_8\/mul",
      "top" : "pose_estimator\/StatefulPartitionedCall\/StatefulPartitionedCall\/scale_est_1\/scale_est_1ort_solver\/norm_8\/mul",
      "type" : "elementwise",
      "name" : "pose_estimator\/StatefulPartitionedCall\/StatefulPartitionedCall\/scale_est_1\/scale_est_1ort_solver\/norm_8\/mul",
      "beta" : 0
    },
    {
      "axis_mode" : 1,
      "bottom" : "pose_estimator\/StatefulPartitionedCall\/StatefulPartitionedCall\/scale_est_1\/scale_est_1ort_solver\/norm_8\/mul",
      "weights" : {

      },
      "mode" : 0,
      "nd_axis" : 0,
      "nd_mode" : true,
      "debug_info" : "pose_estimator\/StatefulPartitionedCall\/StatefulPartitionedCall\/scale_est_1\/scale_est_1ort_solver\/norm_8\/Sum",
      "use_version" : 1,
      "top" : "pose_estimator\/StatefulPartitionedCall\/StatefulPartitionedCall\/scale_est_1\/scale_est_1ort_solver\/norm_8\/Sum",
      "type" : "reduce",
      "name" : "pose_estimator\/StatefulPartitionedCall\/StatefulPartitionedCall\/scale_est_1\/scale_est_1ort_solver\/norm_8\/Sum"
    },
    {
      "bottom" : "pose_estimator\/StatefulPartitionedCall\/StatefulPartitionedCall\/scale_est_1\/scale_est_1ort_solver\/norm_8\/Sum",
      "alpha" : 1,
      "operation" : 11,
      "weights" : {

      },
      "fused_relu" : 0,
      "debug_info" : "pose_estimator\/StatefulPartitionedCall\/StatefulPartitionedCall\/scale_est_1\/scale_est_1ort_solver\/norm_8\/Sqrt",
      "top" : "pose_estimator\/StatefulPartitionedCall\/StatefulPartitionedCall\/scale_est_1\/scale_est_1ort_solver\/norm_8\/Sqrt",
      "type" : "elementwise",
      "name" : "pose_estimator\/StatefulPartitionedCall\/StatefulPartitionedCall\/scale_est_1\/scale_est_1ort_solver\/norm_8\/Sqrt",
      "beta" : 0
    },
    {
      "size_of_axes" : 0,
      "bottom" : "pose_estimator\/StatefulPartitionedCall\/StatefulPartitionedCall\/scale_est_1\/scale_est_1ort_solver\/norm_8\/Sqrt",
      "weights" : {

      },
      "nd_axis" : 0,
      "debug_info" : "pose_estimator\/StatefulPartitionedCall\/StatefulPartitionedCall\/scale_est_1\/scale_est_1ort_solver\/norm_8\/Squeeze",
      "version" : 1,
      "top" : "pose_estimator\/StatefulPartitionedCall\/StatefulPartitionedCall\/scale_est_1\/scale_est_1ort_solver\/norm_8\/Squeeze",
      "type" : "squeeze",
      "name" : "pose_estimator\/StatefulPartitionedCall\/StatefulPartitionedCall\/scale_est_1\/scale_est_1ort_solver\/norm_8\/Squeeze",
      "squeeze_all" : true
    },
    {
      "bottom" : "pose_estimator\/StatefulPartitionedCall\/StatefulPartitionedCall\/scale_est_1\/scale_est_1ort_solver\/Tensordot_7,pose_estimator\/StatefulPartitionedCall\/StatefulPartitionedCall\/scale_est_1\/scale_est_1ort_solver\/norm_8\/Squeeze",
      "alpha" : 1,
      "operation" : 102,
      "weights" : {

      },
      "fused_relu" : 0,
      "debug_info" : "pose_estimator\/StatefulPartitionedCall\/StatefulPartitionedCall\/scale_est_1\/scale_est_1ort_solver\/truediv_9",
      "nd_mode" : true,
      "top" : "pose_estimator\/StatefulPartitionedCall\/StatefulPartitionedCall\/scale_est_1\/scale_est_1ort_solver\/truediv_9",
      "type" : "elementwise",
      "name" : "pose_estimator\/StatefulPartitionedCall\/StatefulPartitionedCall\/scale_est_1\/scale_est_1ort_solver\/truediv_9",
      "beta" : 0
    },
    {
      "name" : "pose_estimator\/StatefulPartitionedCall\/StatefulPartitionedCall\/scale_est_1\/scale_est_1ort_solver\/Tensordot_8\/Reshape",
      "weights" : {

      },
      "dst_w" : 1,
      "version" : 1,
      "dst_n" : 1,
      "dst_nd_rank" : 2,
      "type" : "reshape",
      "dst_h" : 3,
      "mode" : 0,
      "dynamic_shape" : false,
      "bottom" : "pose_estimator\/StatefulPartitionedCall\/StatefulPartitionedCall\/scale_est_1\/scale_est_1ort_solver\/truediv_9",
      "debug_info" : "pose_estimator\/StatefulPartitionedCall\/StatefulPartitionedCall\/scale_est_1\/scale_est_1ort_solver\/Tensordot_8\/Reshape",
      "dst_seq" : 1,
      "dst_k" : 1,
      "top" : "pose_estimator\/StatefulPartitionedCall\/StatefulPartitionedCall\/scale_est_1\/scale_est_1ort_solver\/Tensordot_8\/Reshape"
    },
    {
      "bottom" : "pose_estimator\/StatefulPartitionedCall\/StatefulPartitionedCall\/scale_est_1\/scale_est_1ort_solver\/MatMul_2,pose_estimator\/StatefulPartitionedCall\/StatefulPartitionedCall\/scale_est_1\/scale_est_1ort_solver\/Tensordot_8\/Reshape",
      "weights" : {

      },
      "debug_info" : "pose_estimator\/StatefulPartitionedCall\/StatefulPartitionedCall\/scale_est_1\/scale_est_1ort_solver\/Tensordot_8\/MatMul",
      "top" : "pose_estimator\/StatefulPartitionedCall\/StatefulPartitionedCall\/scale_est_1\/scale_est_1ort_solver\/Tensordot_8\/MatMul",
      "type" : "batch_matmul",
      "name" : "pose_estimator\/StatefulPartitionedCall\/StatefulPartitionedCall\/scale_est_1\/scale_est_1ort_solver\/Tensordot_8\/MatMul",
      "channel_mode" : false
    },
    {
      "name" : "pose_estimator\/StatefulPartitionedCall\/StatefulPartitionedCall\/scale_est_1\/scale_est_1ort_solver\/Tensordot_8",
      "weights" : {

      },
      "dst_w" : 3,
      "version" : 1,
      "dst_n" : 1,
      "dst_nd_rank" : 1,
      "type" : "reshape",
      "dst_h" : 1,
      "mode" : 0,
      "dynamic_shape" : false,
      "bottom" : "pose_estimator\/StatefulPartitionedCall\/StatefulPartitionedCall\/scale_est_1\/scale_est_1ort_solver\/Tensordot_8\/MatMul",
      "debug_info" : "pose_estimator\/StatefulPartitionedCall\/StatefulPartitionedCall\/scale_est_1\/scale_est_1ort_solver\/Tensordot_8",
      "dst_seq" : 1,
      "dst_k" : 1,
      "top" : "pose_estimator\/StatefulPartitionedCall\/StatefulPartitionedCall\/scale_est_1\/scale_est_1ort_solver\/Tensordot_8"
    },
    {
      "bottom" : "pose_estimator\/StatefulPartitionedCall\/StatefulPartitionedCall\/scale_est_1\/scale_est_1ort_solver\/Tensordot_8,pose_estimator\/StatefulPartitionedCall\/StatefulPartitionedCall\/scale_est_1\/scale_est_1ort_solver\/Tensordot_8",
      "alpha" : 1,
      "operation" : 1,
      "weights" : {

      },
      "fused_relu" : 0,
      "debug_info" : "pose_estimator\/StatefulPartitionedCall\/StatefulPartitionedCall\/scale_est_1\/scale_est_1ort_solver\/norm_9\/mul",
      "top" : "pose_estimator\/StatefulPartitionedCall\/StatefulPartitionedCall\/scale_est_1\/scale_est_1ort_solver\/norm_9\/mul",
      "type" : "elementwise",
      "name" : "pose_estimator\/StatefulPartitionedCall\/StatefulPartitionedCall\/scale_est_1\/scale_est_1ort_solver\/norm_9\/mul",
      "beta" : 0
    },
    {
      "axis_mode" : 1,
      "bottom" : "pose_estimator\/StatefulPartitionedCall\/StatefulPartitionedCall\/scale_est_1\/scale_est_1ort_solver\/norm_9\/mul",
      "weights" : {

      },
      "mode" : 0,
      "nd_axis" : 0,
      "nd_mode" : true,
      "debug_info" : "pose_estimator\/StatefulPartitionedCall\/StatefulPartitionedCall\/scale_est_1\/scale_est_1ort_solver\/norm_9\/Sum",
      "use_version" : 1,
      "top" : "pose_estimator\/StatefulPartitionedCall\/StatefulPartitionedCall\/scale_est_1\/scale_est_1ort_solver\/norm_9\/Sum",
      "type" : "reduce",
      "name" : "pose_estimator\/StatefulPartitionedCall\/StatefulPartitionedCall\/scale_est_1\/scale_est_1ort_solver\/norm_9\/Sum"
    },
    {
      "bottom" : "pose_estimator\/StatefulPartitionedCall\/StatefulPartitionedCall\/scale_est_1\/scale_est_1ort_solver\/norm_9\/Sum",
      "alpha" : 1,
      "operation" : 11,
      "weights" : {

      },
      "fused_relu" : 0,
      "debug_info" : "pose_estimator\/StatefulPartitionedCall\/StatefulPartitionedCall\/scale_est_1\/scale_est_1ort_solver\/norm_9\/Sqrt",
      "top" : "pose_estimator\/StatefulPartitionedCall\/StatefulPartitionedCall\/scale_est_1\/scale_est_1ort_solver\/norm_9\/Sqrt",
      "type" : "elementwise",
      "name" : "pose_estimator\/StatefulPartitionedCall\/StatefulPartitionedCall\/scale_est_1\/scale_est_1ort_solver\/norm_9\/Sqrt",
      "beta" : 0
    },
    {
      "size_of_axes" : 0,
      "bottom" : "pose_estimator\/StatefulPartitionedCall\/StatefulPartitionedCall\/scale_est_1\/scale_est_1ort_solver\/norm_9\/Sqrt",
      "weights" : {

      },
      "nd_axis" : 0,
      "debug_info" : "pose_estimator\/StatefulPartitionedCall\/StatefulPartitionedCall\/scale_est_1\/scale_est_1ort_solver\/norm_9\/Squeeze",
      "version" : 1,
      "top" : "pose_estimator\/StatefulPartitionedCall\/StatefulPartitionedCall\/scale_est_1\/scale_est_1ort_solver\/norm_9\/Squeeze",
      "type" : "squeeze",
      "name" : "pose_estimator\/StatefulPartitionedCall\/StatefulPartitionedCall\/scale_est_1\/scale_est_1ort_solver\/norm_9\/Squeeze",
      "squeeze_all" : true
    },
    {
      "bottom" : "pose_estimator\/StatefulPartitionedCall\/StatefulPartitionedCall\/scale_est_1\/scale_est_1ort_solver\/Tensordot_8,pose_estimator\/StatefulPartitionedCall\/StatefulPartitionedCall\/scale_est_1\/scale_est_1ort_solver\/norm_9\/Squeeze",
      "alpha" : 1,
      "operation" : 102,
      "weights" : {

      },
      "fused_relu" : 0,
      "debug_info" : "pose_estimator\/StatefulPartitionedCall\/StatefulPartitionedCall\/scale_est_1\/scale_est_1ort_solver\/truediv_10",
      "nd_mode" : true,
      "top" : "pose_estimator\/StatefulPartitionedCall\/StatefulPartitionedCall\/scale_est_1\/scale_est_1ort_solver\/truediv_10",
      "type" : "elementwise",
      "name" : "pose_estimator\/StatefulPartitionedCall\/StatefulPartitionedCall\/scale_est_1\/scale_est_1ort_solver\/truediv_10",
      "beta" : 0
    },
    {
      "name" : "pose_estimator\/StatefulPartitionedCall\/StatefulPartitionedCall\/scale_est_1\/scale_est_1ort_solver\/Tensordot_9\/Reshape",
      "weights" : {

      },
      "dst_w" : 1,
      "version" : 1,
      "dst_n" : 1,
      "dst_nd_rank" : 2,
      "type" : "reshape",
      "dst_h" : 3,
      "mode" : 0,
      "dynamic_shape" : false,
      "bottom" : "pose_estimator\/StatefulPartitionedCall\/StatefulPartitionedCall\/scale_est_1\/scale_est_1ort_solver\/truediv_10",
      "debug_info" : "pose_estimator\/StatefulPartitionedCall\/StatefulPartitionedCall\/scale_est_1\/scale_est_1ort_solver\/Tensordot_9\/Reshape",
      "dst_seq" : 1,
      "dst_k" : 1,
      "top" : "pose_estimator\/StatefulPartitionedCall\/StatefulPartitionedCall\/scale_est_1\/scale_est_1ort_solver\/Tensordot_9\/Reshape"
    },
    {
      "bottom" : "pose_estimator\/StatefulPartitionedCall\/StatefulPartitionedCall\/scale_est_1\/scale_est_1ort_solver\/MatMul_2,pose_estimator\/StatefulPartitionedCall\/StatefulPartitionedCall\/scale_est_1\/scale_est_1ort_solver\/Tensordot_9\/Reshape",
      "weights" : {

      },
      "debug_info" : "pose_estimator\/StatefulPartitionedCall\/StatefulPartitionedCall\/scale_est_1\/scale_est_1ort_solver\/Tensordot_9\/MatMul",
      "top" : "pose_estimator\/StatefulPartitionedCall\/StatefulPartitionedCall\/scale_est_1\/scale_est_1ort_solver\/Tensordot_9\/MatMul",
      "type" : "batch_matmul",
      "name" : "pose_estimator\/StatefulPartitionedCall\/StatefulPartitionedCall\/scale_est_1\/scale_est_1ort_solver\/Tensordot_9\/MatMul",
      "channel_mode" : false
    },
    {
      "name" : "pose_estimator\/StatefulPartitionedCall\/StatefulPartitionedCall\/scale_est_1\/scale_est_1ort_solver\/Tensordot_9",
      "weights" : {

      },
      "dst_w" : 3,
      "version" : 1,
      "dst_n" : 1,
      "dst_nd_rank" : 1,
      "type" : "reshape",
      "dst_h" : 1,
      "mode" : 0,
      "dynamic_shape" : false,
      "bottom" : "pose_estimator\/StatefulPartitionedCall\/StatefulPartitionedCall\/scale_est_1\/scale_est_1ort_solver\/Tensordot_9\/MatMul",
      "debug_info" : "pose_estimator\/StatefulPartitionedCall\/StatefulPartitionedCall\/scale_est_1\/scale_est_1ort_solver\/Tensordot_9",
      "dst_seq" : 1,
      "dst_k" : 1,
      "top" : "pose_estimator\/StatefulPartitionedCall\/StatefulPartitionedCall\/scale_est_1\/scale_est_1ort_solver\/Tensordot_9"
    },
    {
      "bottom" : "pose_estimator\/StatefulPartitionedCall\/StatefulPartitionedCall\/scale_est_1\/scale_est_1ort_solver\/Tensordot_9,pose_estimator\/StatefulPartitionedCall\/StatefulPartitionedCall\/scale_est_1\/scale_est_1ort_solver\/Tensordot_9",
      "alpha" : 1,
      "operation" : 1,
      "weights" : {

      },
      "fused_relu" : 0,
      "debug_info" : "pose_estimator\/StatefulPartitionedCall\/StatefulPartitionedCall\/scale_est_1\/scale_est_1ort_solver\/norm_10\/mul",
      "top" : "pose_estimator\/StatefulPartitionedCall\/StatefulPartitionedCall\/scale_est_1\/scale_est_1ort_solver\/norm_10\/mul",
      "type" : "elementwise",
      "name" : "pose_estimator\/StatefulPartitionedCall\/StatefulPartitionedCall\/scale_est_1\/scale_est_1ort_solver\/norm_10\/mul",
      "beta" : 0
    },
    {
      "axis_mode" : 1,
      "bottom" : "pose_estimator\/StatefulPartitionedCall\/StatefulPartitionedCall\/scale_est_1\/scale_est_1ort_solver\/norm_10\/mul",
      "weights" : {

      },
      "mode" : 0,
      "nd_axis" : 0,
      "nd_mode" : true,
      "debug_info" : "pose_estimator\/StatefulPartitionedCall\/StatefulPartitionedCall\/scale_est_1\/scale_est_1ort_solver\/norm_10\/Sum",
      "use_version" : 1,
      "top" : "pose_estimator\/StatefulPartitionedCall\/StatefulPartitionedCall\/scale_est_1\/scale_est_1ort_solver\/norm_10\/Sum",
      "type" : "reduce",
      "name" : "pose_estimator\/StatefulPartitionedCall\/StatefulPartitionedCall\/scale_est_1\/scale_est_1ort_solver\/norm_10\/Sum"
    },
    {
      "bottom" : "pose_estimator\/StatefulPartitionedCall\/StatefulPartitionedCall\/scale_est_1\/scale_est_1ort_solver\/norm_10\/Sum",
      "alpha" : 1,
      "operation" : 11,
      "weights" : {

      },
      "fused_relu" : 0,
      "debug_info" : "pose_estimator\/StatefulPartitionedCall\/StatefulPartitionedCall\/scale_est_1\/scale_est_1ort_solver\/norm_10\/Sqrt",
      "top" : "pose_estimator\/StatefulPartitionedCall\/StatefulPartitionedCall\/scale_est_1\/scale_est_1ort_solver\/norm_10\/Sqrt",
      "type" : "elementwise",
      "name" : "pose_estimator\/StatefulPartitionedCall\/StatefulPartitionedCall\/scale_est_1\/scale_est_1ort_solver\/norm_10\/Sqrt",
      "beta" : 0
    },
    {
      "size_of_axes" : 0,
      "bottom" : "pose_estimator\/StatefulPartitionedCall\/StatefulPartitionedCall\/scale_est_1\/scale_est_1ort_solver\/norm_10\/Sqrt",
      "weights" : {

      },
      "nd_axis" : 0,
      "debug_info" : "pose_estimator\/StatefulPartitionedCall\/StatefulPartitionedCall\/scale_est_1\/scale_est_1ort_solver\/norm_10\/Squeeze",
      "version" : 1,
      "top" : "pose_estimator\/StatefulPartitionedCall\/StatefulPartitionedCall\/scale_est_1\/scale_est_1ort_solver\/norm_10\/Squeeze",
      "type" : "squeeze",
      "name" : "pose_estimator\/StatefulPartitionedCall\/StatefulPartitionedCall\/scale_est_1\/scale_est_1ort_solver\/norm_10\/Squeeze",
      "squeeze_all" : true
    },
    {
      "bottom" : "pose_estimator\/StatefulPartitionedCall\/StatefulPartitionedCall\/scale_est_1\/scale_est_1ort_solver\/Tensordot_9,pose_estimator\/StatefulPartitionedCall\/StatefulPartitionedCall\/scale_est_1\/scale_est_1ort_solver\/norm_10\/Squeeze",
      "alpha" : 1,
      "operation" : 102,
      "weights" : {

      },
      "fused_relu" : 0,
      "debug_info" : "pose_estimator\/StatefulPartitionedCall\/StatefulPartitionedCall\/scale_est_1\/scale_est_1ort_solver\/truediv_11",
      "nd_mode" : true,
      "top" : "pose_estimator\/StatefulPartitionedCall\/StatefulPartitionedCall\/scale_est_1\/scale_est_1ort_solver\/truediv_11",
      "type" : "elementwise",
      "name" : "pose_estimator\/StatefulPartitionedCall\/StatefulPartitionedCall\/scale_est_1\/scale_est_1ort_solver\/truediv_11",
      "beta" : 0
    },
    {
      "name" : "pose_estimator\/StatefulPartitionedCall\/StatefulPartitionedCall\/scale_est_1\/scale_est_1ort_solver\/Tensordot_10\/Reshape",
      "weights" : {

      },
      "dst_w" : 1,
      "version" : 1,
      "dst_n" : 1,
      "dst_nd_rank" : 2,
      "type" : "reshape",
      "dst_h" : 3,
      "mode" : 0,
      "dynamic_shape" : false,
      "bottom" : "pose_estimator\/StatefulPartitionedCall\/StatefulPartitionedCall\/scale_est_1\/scale_est_1ort_solver\/truediv_11",
      "debug_info" : "pose_estimator\/StatefulPartitionedCall\/StatefulPartitionedCall\/scale_est_1\/scale_est_1ort_solver\/Tensordot_10\/Reshape",
      "dst_seq" : 1,
      "dst_k" : 1,
      "top" : "pose_estimator\/StatefulPartitionedCall\/StatefulPartitionedCall\/scale_est_1\/scale_est_1ort_solver\/Tensordot_10\/Reshape"
    },
    {
      "name" : "pose_estimator\/StatefulPartitionedCall\/StatefulPartitionedCall\/scale_est_1\/scale_est_1ort_solver\/Tensordot_10\/Reshape_1",
      "weights" : {

      },
      "dst_w" : 3,
      "version" : 1,
      "dst_n" : 1,
      "dst_nd_rank" : 2,
      "type" : "reshape",
      "dst_h" : 1,
      "mode" : 0,
      "dynamic_shape" : false,
      "bottom" : "pose_estimator\/StatefulPartitionedCall\/StatefulPartitionedCall\/scale_est_1\/scale_est_1ort_solver\/truediv_11",
      "debug_info" : "pose_estimator\/StatefulPartitionedCall\/StatefulPartitionedCall\/scale_est_1\/scale_est_1ort_solver\/Tensordot_10\/Reshape_1",
      "dst_seq" : 1,
      "dst_k" : 1,
      "top" : "pose_estimator\/StatefulPartitionedCall\/StatefulPartitionedCall\/scale_est_1\/scale_est_1ort_solver\/Tensordot_10\/Reshape_1"
    },
    {
      "bottom" : "pose_estimator\/StatefulPartitionedCall\/StatefulPartitionedCall\/scale_est_1\/scale_est_1ort_solver\/Tensordot_10\/Reshape,pose_estimator\/StatefulPartitionedCall\/StatefulPartitionedCall\/scale_est_1\/scale_est_1ort_solver\/Tensordot_10\/Reshape_1",
      "weights" : {

      },
      "debug_info" : "pose_estimator\/StatefulPartitionedCall\/StatefulPartitionedCall\/scale_est_1\/scale_est_1ort_solver\/Tensordot_10\/MatMul",
      "top" : "pose_estimator\/StatefulPartitionedCall\/StatefulPartitionedCall\/scale_est_1\/scale_est_1ort_solver\/Tensordot_10\/MatMul",
      "type" : "batch_matmul",
      "name" : "pose_estimator\/StatefulPartitionedCall\/StatefulPartitionedCall\/scale_est_1\/scale_est_1ort_solver\/Tensordot_10\/MatMul",
      "channel_mode" : false
    },
    {
      "bottom" : "pose_estimator\/StatefulPartitionedCall\/StatefulPartitionedCall\/scale_est_1\/scale_est_1ort_solver\/Tensordot_10\/MatMul,pose_estimator\/StatefulPartitionedCall\/StatefulPartitionedCall\/scale_est_1\/scale_est_1ort_solver\/norm_10\/Squeeze",
      "alpha" : 1,
      "operation" : 1,
      "weights" : {

      },
      "fused_relu" : 0,
      "debug_info" : "pose_estimator\/StatefulPartitionedCall\/StatefulPartitionedCall\/scale_est_1\/scale_est_1ort_solver\/mul_4",
      "top" : "pose_estimator\/StatefulPartitionedCall\/StatefulPartitionedCall\/scale_est_1\/scale_est_1ort_solver\/mul_4",
      "type" : "elementwise",
      "name" : "pose_estimator\/StatefulPartitionedCall\/StatefulPartitionedCall\/scale_est_1\/scale_est_1ort_solver\/mul_4",
      "beta" : 0
    },
    {
      "alpha" : -1,
      "bottom" : "pose_estimator\/StatefulPartitionedCall\/StatefulPartitionedCall\/scale_est_1\/scale_est_1ort_solver\/mul_4",
      "weights" : {

      },
      "mode" : 6,
      "debug_info" : "_neg_y_pose_estimator\/StatefulPartitionedCall\/StatefulPartitionedCall\/scale_est_1\/scale_est_1ort_solver\/sub_1",
      "top" : "_neg_y_pose_estimator\/StatefulPartitionedCall\/StatefulPartitionedCall\/scale_est_1\/scale_est_1ort_solver\/sub_1",
      "type" : "activation",
      "name" : "_neg_y_pose_estimator\/StatefulPartitionedCall\/StatefulPartitionedCall\/scale_est_1\/scale_est_1ort_solver\/sub_1",
      "beta" : 0
    },
    {
      "bottom" : "_neg_y_pose_estimator\/StatefulPartitionedCall\/StatefulPartitionedCall\/scale_est_1\/scale_est_1ort_solver\/sub_1,pose_estimator\/StatefulPartitionedCall\/StatefulPartitionedCall\/scale_est_1\/scale_est_1ort_solver\/MatMul_2",
      "alpha" : 1,
      "operation" : 0,
      "weights" : {

      },
      "fused_relu" : 0,
      "debug_info" : "pose_estimator\/StatefulPartitionedCall\/StatefulPartitionedCall\/scale_est_1\/scale_est_1ort_solver\/sub_1",
      "top" : "pose_estimator\/StatefulPartitionedCall\/StatefulPartitionedCall\/scale_est_1\/scale_est_1ort_solver\/sub_1",
      "type" : "elementwise",
      "name" : "pose_estimator\/StatefulPartitionedCall\/StatefulPartitionedCall\/scale_est_1\/scale_est_1ort_solver\/sub_1",
      "beta" : 0
    },
    {
      "nB" : 3,
      "top" : "pose_estimator\/StatefulPartitionedCall\/StatefulPartitionedCall\/scale_est_1\/scale_est_1ort_solver\/Tensordot_11\/MatMul",
      "has_biases" : 0,
      "weights" : {

      },
      "nC" : 1,
      "blob_weights" : 17,
      "type" : "inner_product",
      "has_relu" : 0,
      "bottom" : "pose_estimator\/StatefulPartitionedCall\/StatefulPartitionedCall\/scale_est_1\/scale_est_1ort_solver\/sub_1",
      "debug_info" : "pose_estimator\/StatefulPartitionedCall\/StatefulPartitionedCall\/scale_est_1\/scale_est_1ort_solver\/Tensordot_11\/MatMul",
      "has_tanh" : 0,
      "nd_mode" : true,
      "name" : "pose_estimator\/StatefulPartitionedCall\/StatefulPartitionedCall\/scale_est_1\/scale_est_1ort_solver\/Tensordot_11\/MatMul",
      "has_prelu" : 0
    },
    {
      "name" : "pose_estimator\/StatefulPartitionedCall\/StatefulPartitionedCall\/scale_est_1\/scale_est_1ort_solver\/Tensordot_11",
      "weights" : {

      },
      "dst_w" : 3,
      "version" : 1,
      "dst_n" : 1,
      "dst_nd_rank" : 1,
      "type" : "reshape",
      "dst_h" : 1,
      "mode" : 0,
      "dynamic_shape" : false,
      "bottom" : "pose_estimator\/StatefulPartitionedCall\/StatefulPartitionedCall\/scale_est_1\/scale_est_1ort_solver\/Tensordot_11\/MatMul",
      "debug_info" : "pose_estimator\/StatefulPartitionedCall\/StatefulPartitionedCall\/scale_est_1\/scale_est_1ort_solver\/Tensordot_11",
      "dst_seq" : 1,
      "dst_k" : 1,
      "top" : "pose_estimator\/StatefulPartitionedCall\/StatefulPartitionedCall\/scale_est_1\/scale_est_1ort_solver\/Tensordot_11"
    },
    {
      "bottom" : "pose_estimator\/StatefulPartitionedCall\/StatefulPartitionedCall\/scale_est_1\/scale_est_1ort_solver\/Tensordot_11,pose_estimator\/StatefulPartitionedCall\/StatefulPartitionedCall\/scale_est_1\/scale_est_1ort_solver\/Tensordot_11",
      "alpha" : 1,
      "operation" : 1,
      "weights" : {

      },
      "fused_relu" : 0,
      "debug_info" : "pose_estimator\/StatefulPartitionedCall\/StatefulPartitionedCall\/scale_est_1\/scale_est_1ort_solver\/norm_12\/mul",
      "top" : "pose_estimator\/StatefulPartitionedCall\/StatefulPartitionedCall\/scale_est_1\/scale_est_1ort_solver\/norm_12\/mul",
      "type" : "elementwise",
      "name" : "pose_estimator\/StatefulPartitionedCall\/StatefulPartitionedCall\/scale_est_1\/scale_est_1ort_solver\/norm_12\/mul",
      "beta" : 0
    },
    {
      "axis_mode" : 1,
      "bottom" : "pose_estimator\/StatefulPartitionedCall\/StatefulPartitionedCall\/scale_est_1\/scale_est_1ort_solver\/norm_12\/mul",
      "weights" : {

      },
      "mode" : 0,
      "nd_axis" : 0,
      "nd_mode" : true,
      "debug_info" : "pose_estimator\/StatefulPartitionedCall\/StatefulPartitionedCall\/scale_est_1\/scale_est_1ort_solver\/norm_12\/Sum",
      "use_version" : 1,
      "top" : "pose_estimator\/StatefulPartitionedCall\/StatefulPartitionedCall\/scale_est_1\/scale_est_1ort_solver\/norm_12\/Sum",
      "type" : "reduce",
      "name" : "pose_estimator\/StatefulPartitionedCall\/StatefulPartitionedCall\/scale_est_1\/scale_est_1ort_solver\/norm_12\/Sum"
    },
    {
      "bottom" : "pose_estimator\/StatefulPartitionedCall\/StatefulPartitionedCall\/scale_est_1\/scale_est_1ort_solver\/norm_12\/Sum",
      "alpha" : 1,
      "operation" : 11,
      "weights" : {

      },
      "fused_relu" : 0,
      "debug_info" : "pose_estimator\/StatefulPartitionedCall\/StatefulPartitionedCall\/scale_est_1\/scale_est_1ort_solver\/norm_12\/Sqrt",
      "top" : "pose_estimator\/StatefulPartitionedCall\/StatefulPartitionedCall\/scale_est_1\/scale_est_1ort_solver\/norm_12\/Sqrt",
      "type" : "elementwise",
      "name" : "pose_estimator\/StatefulPartitionedCall\/StatefulPartitionedCall\/scale_est_1\/scale_est_1ort_solver\/norm_12\/Sqrt",
      "beta" : 0
    },
    {
      "size_of_axes" : 0,
      "bottom" : "pose_estimator\/StatefulPartitionedCall\/StatefulPartitionedCall\/scale_est_1\/scale_est_1ort_solver\/norm_12\/Sqrt",
      "weights" : {

      },
      "nd_axis" : 0,
      "debug_info" : "pose_estimator\/StatefulPartitionedCall\/StatefulPartitionedCall\/scale_est_1\/scale_est_1ort_solver\/norm_12\/Squeeze",
      "version" : 1,
      "top" : "pose_estimator\/StatefulPartitionedCall\/StatefulPartitionedCall\/scale_est_1\/scale_est_1ort_solver\/norm_12\/Squeeze",
      "type" : "squeeze",
      "name" : "pose_estimator\/StatefulPartitionedCall\/StatefulPartitionedCall\/scale_est_1\/scale_est_1ort_solver\/norm_12\/Squeeze",
      "squeeze_all" : true
    },
    {
      "bottom" : "pose_estimator\/StatefulPartitionedCall\/StatefulPartitionedCall\/scale_est_1\/scale_est_1ort_solver\/Tensordot_11,pose_estimator\/StatefulPartitionedCall\/StatefulPartitionedCall\/scale_est_1\/scale_est_1ort_solver\/norm_12\/Squeeze",
      "alpha" : 1,
      "operation" : 102,
      "weights" : {

      },
      "fused_relu" : 0,
      "debug_info" : "pose_estimator\/StatefulPartitionedCall\/StatefulPartitionedCall\/scale_est_1\/scale_est_1ort_solver\/truediv_13",
      "nd_mode" : true,
      "top" : "pose_estimator\/StatefulPartitionedCall\/StatefulPartitionedCall\/scale_est_1\/scale_est_1ort_solver\/truediv_13",
      "type" : "elementwise",
      "name" : "pose_estimator\/StatefulPartitionedCall\/StatefulPartitionedCall\/scale_est_1\/scale_est_1ort_solver\/truediv_13",
      "beta" : 0
    },
    {
      "name" : "pose_estimator\/StatefulPartitionedCall\/StatefulPartitionedCall\/scale_est_1\/scale_est_1ort_solver\/Tensordot_12\/Reshape",
      "weights" : {

      },
      "dst_w" : 1,
      "version" : 1,
      "dst_n" : 1,
      "dst_nd_rank" : 2,
      "type" : "reshape",
      "dst_h" : 3,
      "mode" : 0,
      "dynamic_shape" : false,
      "bottom" : "pose_estimator\/StatefulPartitionedCall\/StatefulPartitionedCall\/scale_est_1\/scale_est_1ort_solver\/truediv_13",
      "debug_info" : "pose_estimator\/StatefulPartitionedCall\/StatefulPartitionedCall\/scale_est_1\/scale_est_1ort_solver\/Tensordot_12\/Reshape",
      "dst_seq" : 1,
      "dst_k" : 1,
      "top" : "pose_estimator\/StatefulPartitionedCall\/StatefulPartitionedCall\/scale_est_1\/scale_est_1ort_solver\/Tensordot_12\/Reshape"
    },
    {
      "bottom" : "pose_estimator\/StatefulPartitionedCall\/StatefulPartitionedCall\/scale_est_1\/scale_est_1ort_solver\/sub_1,pose_estimator\/StatefulPartitionedCall\/StatefulPartitionedCall\/scale_est_1\/scale_est_1ort_solver\/Tensordot_12\/Reshape",
      "weights" : {

      },
      "debug_info" : "pose_estimator\/StatefulPartitionedCall\/StatefulPartitionedCall\/scale_est_1\/scale_est_1ort_solver\/Tensordot_12\/MatMul",
      "top" : "pose_estimator\/StatefulPartitionedCall\/StatefulPartitionedCall\/scale_est_1\/scale_est_1ort_solver\/Tensordot_12\/MatMul",
      "type" : "batch_matmul",
      "name" : "pose_estimator\/StatefulPartitionedCall\/StatefulPartitionedCall\/scale_est_1\/scale_est_1ort_solver\/Tensordot_12\/MatMul",
      "channel_mode" : false
    },
    {
      "name" : "pose_estimator\/StatefulPartitionedCall\/StatefulPartitionedCall\/scale_est_1\/scale_est_1ort_solver\/Tensordot_12",
      "weights" : {

      },
      "dst_w" : 3,
      "version" : 1,
      "dst_n" : 1,
      "dst_nd_rank" : 1,
      "type" : "reshape",
      "dst_h" : 1,
      "mode" : 0,
      "dynamic_shape" : false,
      "bottom" : "pose_estimator\/StatefulPartitionedCall\/StatefulPartitionedCall\/scale_est_1\/scale_est_1ort_solver\/Tensordot_12\/MatMul",
      "debug_info" : "pose_estimator\/StatefulPartitionedCall\/StatefulPartitionedCall\/scale_est_1\/scale_est_1ort_solver\/Tensordot_12",
      "dst_seq" : 1,
      "dst_k" : 1,
      "top" : "pose_estimator\/StatefulPartitionedCall\/StatefulPartitionedCall\/scale_est_1\/scale_est_1ort_solver\/Tensordot_12"
    },
    {
      "bottom" : "pose_estimator\/StatefulPartitionedCall\/StatefulPartitionedCall\/scale_est_1\/scale_est_1ort_solver\/Tensordot_12,pose_estimator\/StatefulPartitionedCall\/StatefulPartitionedCall\/scale_est_1\/scale_est_1ort_solver\/Tensordot_12",
      "alpha" : 1,
      "operation" : 1,
      "weights" : {

      },
      "fused_relu" : 0,
      "debug_info" : "pose_estimator\/StatefulPartitionedCall\/StatefulPartitionedCall\/scale_est_1\/scale_est_1ort_solver\/norm_13\/mul",
      "top" : "pose_estimator\/StatefulPartitionedCall\/StatefulPartitionedCall\/scale_est_1\/scale_est_1ort_solver\/norm_13\/mul",
      "type" : "elementwise",
      "name" : "pose_estimator\/StatefulPartitionedCall\/StatefulPartitionedCall\/scale_est_1\/scale_est_1ort_solver\/norm_13\/mul",
      "beta" : 0
    },
    {
      "axis_mode" : 1,
      "bottom" : "pose_estimator\/StatefulPartitionedCall\/StatefulPartitionedCall\/scale_est_1\/scale_est_1ort_solver\/norm_13\/mul",
      "weights" : {

      },
      "mode" : 0,
      "nd_axis" : 0,
      "nd_mode" : true,
      "debug_info" : "pose_estimator\/StatefulPartitionedCall\/StatefulPartitionedCall\/scale_est_1\/scale_est_1ort_solver\/norm_13\/Sum",
      "use_version" : 1,
      "top" : "pose_estimator\/StatefulPartitionedCall\/StatefulPartitionedCall\/scale_est_1\/scale_est_1ort_solver\/norm_13\/Sum",
      "type" : "reduce",
      "name" : "pose_estimator\/StatefulPartitionedCall\/StatefulPartitionedCall\/scale_est_1\/scale_est_1ort_solver\/norm_13\/Sum"
    },
    {
      "bottom" : "pose_estimator\/StatefulPartitionedCall\/StatefulPartitionedCall\/scale_est_1\/scale_est_1ort_solver\/norm_13\/Sum",
      "alpha" : 1,
      "operation" : 11,
      "weights" : {

      },
      "fused_relu" : 0,
      "debug_info" : "pose_estimator\/StatefulPartitionedCall\/StatefulPartitionedCall\/scale_est_1\/scale_est_1ort_solver\/norm_13\/Sqrt",
      "top" : "pose_estimator\/StatefulPartitionedCall\/StatefulPartitionedCall\/scale_est_1\/scale_est_1ort_solver\/norm_13\/Sqrt",
      "type" : "elementwise",
      "name" : "pose_estimator\/StatefulPartitionedCall\/StatefulPartitionedCall\/scale_est_1\/scale_est_1ort_solver\/norm_13\/Sqrt",
      "beta" : 0
    },
    {
      "size_of_axes" : 0,
      "bottom" : "pose_estimator\/StatefulPartitionedCall\/StatefulPartitionedCall\/scale_est_1\/scale_est_1ort_solver\/norm_13\/Sqrt",
      "weights" : {

      },
      "nd_axis" : 0,
      "debug_info" : "pose_estimator\/StatefulPartitionedCall\/StatefulPartitionedCall\/scale_est_1\/scale_est_1ort_solver\/norm_13\/Squeeze",
      "version" : 1,
      "top" : "pose_estimator\/StatefulPartitionedCall\/StatefulPartitionedCall\/scale_est_1\/scale_est_1ort_solver\/norm_13\/Squeeze",
      "type" : "squeeze",
      "name" : "pose_estimator\/StatefulPartitionedCall\/StatefulPartitionedCall\/scale_est_1\/scale_est_1ort_solver\/norm_13\/Squeeze",
      "squeeze_all" : true
    },
    {
      "bottom" : "pose_estimator\/StatefulPartitionedCall\/StatefulPartitionedCall\/scale_est_1\/scale_est_1ort_solver\/Tensordot_12,pose_estimator\/StatefulPartitionedCall\/StatefulPartitionedCall\/scale_est_1\/scale_est_1ort_solver\/norm_13\/Squeeze",
      "alpha" : 1,
      "operation" : 102,
      "weights" : {

      },
      "fused_relu" : 0,
      "debug_info" : "pose_estimator\/StatefulPartitionedCall\/StatefulPartitionedCall\/scale_est_1\/scale_est_1ort_solver\/truediv_14",
      "nd_mode" : true,
      "top" : "pose_estimator\/StatefulPartitionedCall\/StatefulPartitionedCall\/scale_est_1\/scale_est_1ort_solver\/truediv_14",
      "type" : "elementwise",
      "name" : "pose_estimator\/StatefulPartitionedCall\/StatefulPartitionedCall\/scale_est_1\/scale_est_1ort_solver\/truediv_14",
      "beta" : 0
    },
    {
      "name" : "pose_estimator\/StatefulPartitionedCall\/StatefulPartitionedCall\/scale_est_1\/scale_est_1ort_solver\/Tensordot_13\/Reshape",
      "weights" : {

      },
      "dst_w" : 1,
      "version" : 1,
      "dst_n" : 1,
      "dst_nd_rank" : 2,
      "type" : "reshape",
      "dst_h" : 3,
      "mode" : 0,
      "dynamic_shape" : false,
      "bottom" : "pose_estimator\/StatefulPartitionedCall\/StatefulPartitionedCall\/scale_est_1\/scale_est_1ort_solver\/truediv_14",
      "debug_info" : "pose_estimator\/StatefulPartitionedCall\/StatefulPartitionedCall\/scale_est_1\/scale_est_1ort_solver\/Tensordot_13\/Reshape",
      "dst_seq" : 1,
      "dst_k" : 1,
      "top" : "pose_estimator\/StatefulPartitionedCall\/StatefulPartitionedCall\/scale_est_1\/scale_est_1ort_solver\/Tensordot_13\/Reshape"
    },
    {
      "bottom" : "pose_estimator\/StatefulPartitionedCall\/StatefulPartitionedCall\/scale_est_1\/scale_est_1ort_solver\/sub_1,pose_estimator\/StatefulPartitionedCall\/StatefulPartitionedCall\/scale_est_1\/scale_est_1ort_solver\/Tensordot_13\/Reshape",
      "weights" : {

      },
      "debug_info" : "pose_estimator\/StatefulPartitionedCall\/StatefulPartitionedCall\/scale_est_1\/scale_est_1ort_solver\/Tensordot_13\/MatMul",
      "top" : "pose_estimator\/StatefulPartitionedCall\/StatefulPartitionedCall\/scale_est_1\/scale_est_1ort_solver\/Tensordot_13\/MatMul",
      "type" : "batch_matmul",
      "name" : "pose_estimator\/StatefulPartitionedCall\/StatefulPartitionedCall\/scale_est_1\/scale_est_1ort_solver\/Tensordot_13\/MatMul",
      "channel_mode" : false
    },
    {
      "name" : "pose_estimator\/StatefulPartitionedCall\/StatefulPartitionedCall\/scale_est_1\/scale_est_1ort_solver\/Tensordot_13",
      "weights" : {

      },
      "dst_w" : 3,
      "version" : 1,
      "dst_n" : 1,
      "dst_nd_rank" : 1,
      "type" : "reshape",
      "dst_h" : 1,
      "mode" : 0,
      "dynamic_shape" : false,
      "bottom" : "pose_estimator\/StatefulPartitionedCall\/StatefulPartitionedCall\/scale_est_1\/scale_est_1ort_solver\/Tensordot_13\/MatMul",
      "debug_info" : "pose_estimator\/StatefulPartitionedCall\/StatefulPartitionedCall\/scale_est_1\/scale_est_1ort_solver\/Tensordot_13",
      "dst_seq" : 1,
      "dst_k" : 1,
      "top" : "pose_estimator\/StatefulPartitionedCall\/StatefulPartitionedCall\/scale_est_1\/scale_est_1ort_solver\/Tensordot_13"
    },
    {
      "bottom" : "pose_estimator\/StatefulPartitionedCall\/StatefulPartitionedCall\/scale_est_1\/scale_est_1ort_solver\/Tensordot_13,pose_estimator\/StatefulPartitionedCall\/StatefulPartitionedCall\/scale_est_1\/scale_est_1ort_solver\/Tensordot_13",
      "alpha" : 1,
      "operation" : 1,
      "weights" : {

      },
      "fused_relu" : 0,
      "debug_info" : "pose_estimator\/StatefulPartitionedCall\/StatefulPartitionedCall\/scale_est_1\/scale_est_1ort_solver\/norm_14\/mul",
      "top" : "pose_estimator\/StatefulPartitionedCall\/StatefulPartitionedCall\/scale_est_1\/scale_est_1ort_solver\/norm_14\/mul",
      "type" : "elementwise",
      "name" : "pose_estimator\/StatefulPartitionedCall\/StatefulPartitionedCall\/scale_est_1\/scale_est_1ort_solver\/norm_14\/mul",
      "beta" : 0
    },
    {
      "axis_mode" : 1,
      "bottom" : "pose_estimator\/StatefulPartitionedCall\/StatefulPartitionedCall\/scale_est_1\/scale_est_1ort_solver\/norm_14\/mul",
      "weights" : {

      },
      "mode" : 0,
      "nd_axis" : 0,
      "nd_mode" : true,
      "debug_info" : "pose_estimator\/StatefulPartitionedCall\/StatefulPartitionedCall\/scale_est_1\/scale_est_1ort_solver\/norm_14\/Sum",
      "use_version" : 1,
      "top" : "pose_estimator\/StatefulPartitionedCall\/StatefulPartitionedCall\/scale_est_1\/scale_est_1ort_solver\/norm_14\/Sum",
      "type" : "reduce",
      "name" : "pose_estimator\/StatefulPartitionedCall\/StatefulPartitionedCall\/scale_est_1\/scale_est_1ort_solver\/norm_14\/Sum"
    },
    {
      "bottom" : "pose_estimator\/StatefulPartitionedCall\/StatefulPartitionedCall\/scale_est_1\/scale_est_1ort_solver\/norm_14\/Sum",
      "alpha" : 1,
      "operation" : 11,
      "weights" : {

      },
      "fused_relu" : 0,
      "debug_info" : "pose_estimator\/StatefulPartitionedCall\/StatefulPartitionedCall\/scale_est_1\/scale_est_1ort_solver\/norm_14\/Sqrt",
      "top" : "pose_estimator\/StatefulPartitionedCall\/StatefulPartitionedCall\/scale_est_1\/scale_est_1ort_solver\/norm_14\/Sqrt",
      "type" : "elementwise",
      "name" : "pose_estimator\/StatefulPartitionedCall\/StatefulPartitionedCall\/scale_est_1\/scale_est_1ort_solver\/norm_14\/Sqrt",
      "beta" : 0
    },
    {
      "size_of_axes" : 0,
      "bottom" : "pose_estimator\/StatefulPartitionedCall\/StatefulPartitionedCall\/scale_est_1\/scale_est_1ort_solver\/norm_14\/Sqrt",
      "weights" : {

      },
      "nd_axis" : 0,
      "debug_info" : "pose_estimator\/StatefulPartitionedCall\/StatefulPartitionedCall\/scale_est_1\/scale_est_1ort_solver\/norm_14\/Squeeze",
      "version" : 1,
      "top" : "pose_estimator\/StatefulPartitionedCall\/StatefulPartitionedCall\/scale_est_1\/scale_est_1ort_solver\/norm_14\/Squeeze",
      "type" : "squeeze",
      "name" : "pose_estimator\/StatefulPartitionedCall\/StatefulPartitionedCall\/scale_est_1\/scale_est_1ort_solver\/norm_14\/Squeeze",
      "squeeze_all" : true
    },
    {
      "bottom" : "pose_estimator\/StatefulPartitionedCall\/StatefulPartitionedCall\/scale_est_1\/scale_est_1ort_solver\/Tensordot_13,pose_estimator\/StatefulPartitionedCall\/StatefulPartitionedCall\/scale_est_1\/scale_est_1ort_solver\/norm_14\/Squeeze",
      "alpha" : 1,
      "operation" : 102,
      "weights" : {

      },
      "fused_relu" : 0,
      "debug_info" : "pose_estimator\/StatefulPartitionedCall\/StatefulPartitionedCall\/scale_est_1\/scale_est_1ort_solver\/truediv_15",
      "nd_mode" : true,
      "top" : "pose_estimator\/StatefulPartitionedCall\/StatefulPartitionedCall\/scale_est_1\/scale_est_1ort_solver\/truediv_15",
      "type" : "elementwise",
      "name" : "pose_estimator\/StatefulPartitionedCall\/StatefulPartitionedCall\/scale_est_1\/scale_est_1ort_solver\/truediv_15",
      "beta" : 0
    },
    {
      "name" : "pose_estimator\/StatefulPartitionedCall\/StatefulPartitionedCall\/scale_est_1\/scale_est_1ort_solver\/Tensordot_14\/Reshape",
      "weights" : {

      },
      "dst_w" : 1,
      "version" : 1,
      "dst_n" : 1,
      "dst_nd_rank" : 2,
      "type" : "reshape",
      "dst_h" : 3,
      "mode" : 0,
      "dynamic_shape" : false,
      "bottom" : "pose_estimator\/StatefulPartitionedCall\/StatefulPartitionedCall\/scale_est_1\/scale_est_1ort_solver\/truediv_15",
      "debug_info" : "pose_estimator\/StatefulPartitionedCall\/StatefulPartitionedCall\/scale_est_1\/scale_est_1ort_solver\/Tensordot_14\/Reshape",
      "dst_seq" : 1,
      "dst_k" : 1,
      "top" : "pose_estimator\/StatefulPartitionedCall\/StatefulPartitionedCall\/scale_est_1\/scale_est_1ort_solver\/Tensordot_14\/Reshape"
    },
    {
      "bottom" : "pose_estimator\/StatefulPartitionedCall\/StatefulPartitionedCall\/scale_est_1\/scale_est_1ort_solver\/sub_1,pose_estimator\/StatefulPartitionedCall\/StatefulPartitionedCall\/scale_est_1\/scale_est_1ort_solver\/Tensordot_14\/Reshape",
      "weights" : {

      },
      "debug_info" : "pose_estimator\/StatefulPartitionedCall\/StatefulPartitionedCall\/scale_est_1\/scale_est_1ort_solver\/Tensordot_14\/MatMul",
      "top" : "pose_estimator\/StatefulPartitionedCall\/StatefulPartitionedCall\/scale_est_1\/scale_est_1ort_solver\/Tensordot_14\/MatMul",
      "type" : "batch_matmul",
      "name" : "pose_estimator\/StatefulPartitionedCall\/StatefulPartitionedCall\/scale_est_1\/scale_est_1ort_solver\/Tensordot_14\/MatMul",
      "channel_mode" : false
    },
    {
      "name" : "pose_estimator\/StatefulPartitionedCall\/StatefulPartitionedCall\/scale_est_1\/scale_est_1ort_solver\/Tensordot_14",
      "weights" : {

      },
      "dst_w" : 3,
      "version" : 1,
      "dst_n" : 1,
      "dst_nd_rank" : 1,
      "type" : "reshape",
      "dst_h" : 1,
      "mode" : 0,
      "dynamic_shape" : false,
      "bottom" : "pose_estimator\/StatefulPartitionedCall\/StatefulPartitionedCall\/scale_est_1\/scale_est_1ort_solver\/Tensordot_14\/MatMul",
      "debug_info" : "pose_estimator\/StatefulPartitionedCall\/StatefulPartitionedCall\/scale_est_1\/scale_est_1ort_solver\/Tensordot_14",
      "dst_seq" : 1,
      "dst_k" : 1,
      "top" : "pose_estimator\/StatefulPartitionedCall\/StatefulPartitionedCall\/scale_est_1\/scale_est_1ort_solver\/Tensordot_14"
    },
    {
      "bottom" : "pose_estimator\/StatefulPartitionedCall\/StatefulPartitionedCall\/scale_est_1\/scale_est_1ort_solver\/Tensordot_14,pose_estimator\/StatefulPartitionedCall\/StatefulPartitionedCall\/scale_est_1\/scale_est_1ort_solver\/Tensordot_14",
      "alpha" : 1,
      "operation" : 1,
      "weights" : {

      },
      "fused_relu" : 0,
      "debug_info" : "pose_estimator\/StatefulPartitionedCall\/StatefulPartitionedCall\/scale_est_1\/scale_est_1ort_solver\/norm_15\/mul",
      "top" : "pose_estimator\/StatefulPartitionedCall\/StatefulPartitionedCall\/scale_est_1\/scale_est_1ort_solver\/norm_15\/mul",
      "type" : "elementwise",
      "name" : "pose_estimator\/StatefulPartitionedCall\/StatefulPartitionedCall\/scale_est_1\/scale_est_1ort_solver\/norm_15\/mul",
      "beta" : 0
    },
    {
      "axis_mode" : 1,
      "bottom" : "pose_estimator\/StatefulPartitionedCall\/StatefulPartitionedCall\/scale_est_1\/scale_est_1ort_solver\/norm_15\/mul",
      "weights" : {

      },
      "mode" : 0,
      "nd_axis" : 0,
      "nd_mode" : true,
      "debug_info" : "pose_estimator\/StatefulPartitionedCall\/StatefulPartitionedCall\/scale_est_1\/scale_est_1ort_solver\/norm_15\/Sum",
      "use_version" : 1,
      "top" : "pose_estimator\/StatefulPartitionedCall\/StatefulPartitionedCall\/scale_est_1\/scale_est_1ort_solver\/norm_15\/Sum",
      "type" : "reduce",
      "name" : "pose_estimator\/StatefulPartitionedCall\/StatefulPartitionedCall\/scale_est_1\/scale_est_1ort_solver\/norm_15\/Sum"
    },
    {
      "bottom" : "pose_estimator\/StatefulPartitionedCall\/StatefulPartitionedCall\/scale_est_1\/scale_est_1ort_solver\/norm_15\/Sum",
      "alpha" : 1,
      "operation" : 11,
      "weights" : {

      },
      "fused_relu" : 0,
      "debug_info" : "pose_estimator\/StatefulPartitionedCall\/StatefulPartitionedCall\/scale_est_1\/scale_est_1ort_solver\/norm_15\/Sqrt",
      "top" : "pose_estimator\/StatefulPartitionedCall\/StatefulPartitionedCall\/scale_est_1\/scale_est_1ort_solver\/norm_15\/Sqrt",
      "type" : "elementwise",
      "name" : "pose_estimator\/StatefulPartitionedCall\/StatefulPartitionedCall\/scale_est_1\/scale_est_1ort_solver\/norm_15\/Sqrt",
      "beta" : 0
    },
    {
      "size_of_axes" : 0,
      "bottom" : "pose_estimator\/StatefulPartitionedCall\/StatefulPartitionedCall\/scale_est_1\/scale_est_1ort_solver\/norm_15\/Sqrt",
      "weights" : {

      },
      "nd_axis" : 0,
      "debug_info" : "pose_estimator\/StatefulPartitionedCall\/StatefulPartitionedCall\/scale_est_1\/scale_est_1ort_solver\/norm_15\/Squeeze",
      "version" : 1,
      "top" : "pose_estimator\/StatefulPartitionedCall\/StatefulPartitionedCall\/scale_est_1\/scale_est_1ort_solver\/norm_15\/Squeeze",
      "type" : "squeeze",
      "name" : "pose_estimator\/StatefulPartitionedCall\/StatefulPartitionedCall\/scale_est_1\/scale_est_1ort_solver\/norm_15\/Squeeze",
      "squeeze_all" : true
    },
    {
      "bottom" : "pose_estimator\/StatefulPartitionedCall\/StatefulPartitionedCall\/scale_est_1\/scale_est_1ort_solver\/Tensordot_14,pose_estimator\/StatefulPartitionedCall\/StatefulPartitionedCall\/scale_est_1\/scale_est_1ort_solver\/norm_15\/Squeeze",
      "alpha" : 1,
      "operation" : 102,
      "weights" : {

      },
      "fused_relu" : 0,
      "debug_info" : "pose_estimator\/StatefulPartitionedCall\/StatefulPartitionedCall\/scale_est_1\/scale_est_1ort_solver\/truediv_16",
      "nd_mode" : true,
      "top" : "pose_estimator\/StatefulPartitionedCall\/StatefulPartitionedCall\/scale_est_1\/scale_est_1ort_solver\/truediv_16",
      "type" : "elementwise",
      "name" : "pose_estimator\/StatefulPartitionedCall\/StatefulPartitionedCall\/scale_est_1\/scale_est_1ort_solver\/truediv_16",
      "beta" : 0
    },
    {
      "name" : "pose_estimator\/StatefulPartitionedCall\/StatefulPartitionedCall\/scale_est_1\/scale_est_1ort_solver\/Tensordot_15\/Reshape",
      "weights" : {

      },
      "dst_w" : 1,
      "version" : 1,
      "dst_n" : 1,
      "dst_nd_rank" : 2,
      "type" : "reshape",
      "dst_h" : 3,
      "mode" : 0,
      "dynamic_shape" : false,
      "bottom" : "pose_estimator\/StatefulPartitionedCall\/StatefulPartitionedCall\/scale_est_1\/scale_est_1ort_solver\/truediv_16",
      "debug_info" : "pose_estimator\/StatefulPartitionedCall\/StatefulPartitionedCall\/scale_est_1\/scale_est_1ort_solver\/Tensordot_15\/Reshape",
      "dst_seq" : 1,
      "dst_k" : 1,
      "top" : "pose_estimator\/StatefulPartitionedCall\/StatefulPartitionedCall\/scale_est_1\/scale_est_1ort_solver\/Tensordot_15\/Reshape"
    },
    {
      "bottom" : "pose_estimator\/StatefulPartitionedCall\/StatefulPartitionedCall\/scale_est_1\/scale_est_1ort_solver\/sub_1,pose_estimator\/StatefulPartitionedCall\/StatefulPartitionedCall\/scale_est_1\/scale_est_1ort_solver\/Tensordot_15\/Reshape",
      "weights" : {

      },
      "debug_info" : "pose_estimator\/StatefulPartitionedCall\/StatefulPartitionedCall\/scale_est_1\/scale_est_1ort_solver\/Tensordot_15\/MatMul",
      "top" : "pose_estimator\/StatefulPartitionedCall\/StatefulPartitionedCall\/scale_est_1\/scale_est_1ort_solver\/Tensordot_15\/MatMul",
      "type" : "batch_matmul",
      "name" : "pose_estimator\/StatefulPartitionedCall\/StatefulPartitionedCall\/scale_est_1\/scale_est_1ort_solver\/Tensordot_15\/MatMul",
      "channel_mode" : false
    },
    {
      "name" : "pose_estimator\/StatefulPartitionedCall\/StatefulPartitionedCall\/scale_est_1\/scale_est_1ort_solver\/Tensordot_15",
      "weights" : {

      },
      "dst_w" : 3,
      "version" : 1,
      "dst_n" : 1,
      "dst_nd_rank" : 1,
      "type" : "reshape",
      "dst_h" : 1,
      "mode" : 0,
      "dynamic_shape" : false,
      "bottom" : "pose_estimator\/StatefulPartitionedCall\/StatefulPartitionedCall\/scale_est_1\/scale_est_1ort_solver\/Tensordot_15\/MatMul",
      "debug_info" : "pose_estimator\/StatefulPartitionedCall\/StatefulPartitionedCall\/scale_est_1\/scale_est_1ort_solver\/Tensordot_15",
      "dst_seq" : 1,
      "dst_k" : 1,
      "top" : "pose_estimator\/StatefulPartitionedCall\/StatefulPartitionedCall\/scale_est_1\/scale_est_1ort_solver\/Tensordot_15"
    },
    {
      "bottom" : "pose_estimator\/StatefulPartitionedCall\/StatefulPartitionedCall\/scale_est_1\/scale_est_1ort_solver\/Tensordot_15,pose_estimator\/StatefulPartitionedCall\/StatefulPartitionedCall\/scale_est_1\/scale_est_1ort_solver\/Tensordot_15",
      "alpha" : 1,
      "operation" : 1,
      "weights" : {

      },
      "fused_relu" : 0,
      "debug_info" : "pose_estimator\/StatefulPartitionedCall\/StatefulPartitionedCall\/scale_est_1\/scale_est_1ort_solver\/norm_16\/mul",
      "top" : "pose_estimator\/StatefulPartitionedCall\/StatefulPartitionedCall\/scale_est_1\/scale_est_1ort_solver\/norm_16\/mul",
      "type" : "elementwise",
      "name" : "pose_estimator\/StatefulPartitionedCall\/StatefulPartitionedCall\/scale_est_1\/scale_est_1ort_solver\/norm_16\/mul",
      "beta" : 0
    },
    {
      "axis_mode" : 1,
      "bottom" : "pose_estimator\/StatefulPartitionedCall\/StatefulPartitionedCall\/scale_est_1\/scale_est_1ort_solver\/norm_16\/mul",
      "weights" : {

      },
      "mode" : 0,
      "nd_axis" : 0,
      "nd_mode" : true,
      "debug_info" : "pose_estimator\/StatefulPartitionedCall\/StatefulPartitionedCall\/scale_est_1\/scale_est_1ort_solver\/norm_16\/Sum",
      "use_version" : 1,
      "top" : "pose_estimator\/StatefulPartitionedCall\/StatefulPartitionedCall\/scale_est_1\/scale_est_1ort_solver\/norm_16\/Sum",
      "type" : "reduce",
      "name" : "pose_estimator\/StatefulPartitionedCall\/StatefulPartitionedCall\/scale_est_1\/scale_est_1ort_solver\/norm_16\/Sum"
    },
    {
      "bottom" : "pose_estimator\/StatefulPartitionedCall\/StatefulPartitionedCall\/scale_est_1\/scale_est_1ort_solver\/norm_16\/Sum",
      "alpha" : 1,
      "operation" : 11,
      "weights" : {

      },
      "fused_relu" : 0,
      "debug_info" : "pose_estimator\/StatefulPartitionedCall\/StatefulPartitionedCall\/scale_est_1\/scale_est_1ort_solver\/norm_16\/Sqrt",
      "top" : "pose_estimator\/StatefulPartitionedCall\/StatefulPartitionedCall\/scale_est_1\/scale_est_1ort_solver\/norm_16\/Sqrt",
      "type" : "elementwise",
      "name" : "pose_estimator\/StatefulPartitionedCall\/StatefulPartitionedCall\/scale_est_1\/scale_est_1ort_solver\/norm_16\/Sqrt",
      "beta" : 0
    },
    {
      "size_of_axes" : 0,
      "bottom" : "pose_estimator\/StatefulPartitionedCall\/StatefulPartitionedCall\/scale_est_1\/scale_est_1ort_solver\/norm_16\/Sqrt",
      "weights" : {

      },
      "nd_axis" : 0,
      "debug_info" : "pose_estimator\/StatefulPartitionedCall\/StatefulPartitionedCall\/scale_est_1\/scale_est_1ort_solver\/norm_16\/Squeeze",
      "version" : 1,
      "top" : "pose_estimator\/StatefulPartitionedCall\/StatefulPartitionedCall\/scale_est_1\/scale_est_1ort_solver\/norm_16\/Squeeze",
      "type" : "squeeze",
      "name" : "pose_estimator\/StatefulPartitionedCall\/StatefulPartitionedCall\/scale_est_1\/scale_est_1ort_solver\/norm_16\/Squeeze",
      "squeeze_all" : true
    },
    {
      "bottom" : "pose_estimator\/StatefulPartitionedCall\/StatefulPartitionedCall\/scale_est_1\/scale_est_1ort_solver\/Tensordot_15,pose_estimator\/StatefulPartitionedCall\/StatefulPartitionedCall\/scale_est_1\/scale_est_1ort_solver\/norm_16\/Squeeze",
      "alpha" : 1,
      "operation" : 102,
      "weights" : {

      },
      "fused_relu" : 0,
      "debug_info" : "pose_estimator\/StatefulPartitionedCall\/StatefulPartitionedCall\/scale_est_1\/scale_est_1ort_solver\/truediv_17",
      "nd_mode" : true,
      "top" : "pose_estimator\/StatefulPartitionedCall\/StatefulPartitionedCall\/scale_est_1\/scale_est_1ort_solver\/truediv_17",
      "type" : "elementwise",
      "name" : "pose_estimator\/StatefulPartitionedCall\/StatefulPartitionedCall\/scale_est_1\/scale_est_1ort_solver\/truediv_17",
      "beta" : 0
    },
    {
      "name" : "pose_estimator\/StatefulPartitionedCall\/StatefulPartitionedCall\/scale_est_1\/scale_est_1ort_solver\/Tensordot_16\/Reshape",
      "weights" : {

      },
      "dst_w" : 1,
      "version" : 1,
      "dst_n" : 1,
      "dst_nd_rank" : 2,
      "type" : "reshape",
      "dst_h" : 3,
      "mode" : 0,
      "dynamic_shape" : false,
      "bottom" : "pose_estimator\/StatefulPartitionedCall\/StatefulPartitionedCall\/scale_est_1\/scale_est_1ort_solver\/truediv_17",
      "debug_info" : "pose_estimator\/StatefulPartitionedCall\/StatefulPartitionedCall\/scale_est_1\/scale_est_1ort_solver\/Tensordot_16\/Reshape",
      "dst_seq" : 1,
      "dst_k" : 1,
      "top" : "pose_estimator\/StatefulPartitionedCall\/StatefulPartitionedCall\/scale_est_1\/scale_est_1ort_solver\/Tensordot_16\/Reshape"
    },
    {
      "bottom" : "pose_estimator\/StatefulPartitionedCall\/StatefulPartitionedCall\/scale_est_1\/scale_est_1ort_solver\/sub_1,pose_estimator\/StatefulPartitionedCall\/StatefulPartitionedCall\/scale_est_1\/scale_est_1ort_solver\/Tensordot_16\/Reshape",
      "weights" : {

      },
      "debug_info" : "pose_estimator\/StatefulPartitionedCall\/StatefulPartitionedCall\/scale_est_1\/scale_est_1ort_solver\/Tensordot_16\/MatMul",
      "top" : "pose_estimator\/StatefulPartitionedCall\/StatefulPartitionedCall\/scale_est_1\/scale_est_1ort_solver\/Tensordot_16\/MatMul",
      "type" : "batch_matmul",
      "name" : "pose_estimator\/StatefulPartitionedCall\/StatefulPartitionedCall\/scale_est_1\/scale_est_1ort_solver\/Tensordot_16\/MatMul",
      "channel_mode" : false
    },
    {
      "name" : "pose_estimator\/StatefulPartitionedCall\/StatefulPartitionedCall\/scale_est_1\/scale_est_1ort_solver\/Tensordot_16",
      "weights" : {

      },
      "dst_w" : 3,
      "version" : 1,
      "dst_n" : 1,
      "dst_nd_rank" : 1,
      "type" : "reshape",
      "dst_h" : 1,
      "mode" : 0,
      "dynamic_shape" : false,
      "bottom" : "pose_estimator\/StatefulPartitionedCall\/StatefulPartitionedCall\/scale_est_1\/scale_est_1ort_solver\/Tensordot_16\/MatMul",
      "debug_info" : "pose_estimator\/StatefulPartitionedCall\/StatefulPartitionedCall\/scale_est_1\/scale_est_1ort_solver\/Tensordot_16",
      "dst_seq" : 1,
      "dst_k" : 1,
      "top" : "pose_estimator\/StatefulPartitionedCall\/StatefulPartitionedCall\/scale_est_1\/scale_est_1ort_solver\/Tensordot_16"
    },
    {
      "bottom" : "pose_estimator\/StatefulPartitionedCall\/StatefulPartitionedCall\/scale_est_1\/scale_est_1ort_solver\/Tensordot_16,pose_estimator\/StatefulPartitionedCall\/StatefulPartitionedCall\/scale_est_1\/scale_est_1ort_solver\/Tensordot_16",
      "alpha" : 1,
      "operation" : 1,
      "weights" : {

      },
      "fused_relu" : 0,
      "debug_info" : "pose_estimator\/StatefulPartitionedCall\/StatefulPartitionedCall\/scale_est_1\/scale_est_1ort_solver\/norm_17\/mul",
      "top" : "pose_estimator\/StatefulPartitionedCall\/StatefulPartitionedCall\/scale_est_1\/scale_est_1ort_solver\/norm_17\/mul",
      "type" : "elementwise",
      "name" : "pose_estimator\/StatefulPartitionedCall\/StatefulPartitionedCall\/scale_est_1\/scale_est_1ort_solver\/norm_17\/mul",
      "beta" : 0
    },
    {
      "axis_mode" : 1,
      "bottom" : "pose_estimator\/StatefulPartitionedCall\/StatefulPartitionedCall\/scale_est_1\/scale_est_1ort_solver\/norm_17\/mul",
      "weights" : {

      },
      "mode" : 0,
      "nd_axis" : 0,
      "nd_mode" : true,
      "debug_info" : "pose_estimator\/StatefulPartitionedCall\/StatefulPartitionedCall\/scale_est_1\/scale_est_1ort_solver\/norm_17\/Sum",
      "use_version" : 1,
      "top" : "pose_estimator\/StatefulPartitionedCall\/StatefulPartitionedCall\/scale_est_1\/scale_est_1ort_solver\/norm_17\/Sum",
      "type" : "reduce",
      "name" : "pose_estimator\/StatefulPartitionedCall\/StatefulPartitionedCall\/scale_est_1\/scale_est_1ort_solver\/norm_17\/Sum"
    },
    {
      "bottom" : "pose_estimator\/StatefulPartitionedCall\/StatefulPartitionedCall\/scale_est_1\/scale_est_1ort_solver\/norm_17\/Sum",
      "alpha" : 1,
      "operation" : 11,
      "weights" : {

      },
      "fused_relu" : 0,
      "debug_info" : "pose_estimator\/StatefulPartitionedCall\/StatefulPartitionedCall\/scale_est_1\/scale_est_1ort_solver\/norm_17\/Sqrt",
      "top" : "pose_estimator\/StatefulPartitionedCall\/StatefulPartitionedCall\/scale_est_1\/scale_est_1ort_solver\/norm_17\/Sqrt",
      "type" : "elementwise",
      "name" : "pose_estimator\/StatefulPartitionedCall\/StatefulPartitionedCall\/scale_est_1\/scale_est_1ort_solver\/norm_17\/Sqrt",
      "beta" : 0
    },
    {
      "size_of_axes" : 0,
      "bottom" : "pose_estimator\/StatefulPartitionedCall\/StatefulPartitionedCall\/scale_est_1\/scale_est_1ort_solver\/norm_17\/Sqrt",
      "weights" : {

      },
      "nd_axis" : 0,
      "debug_info" : "pose_estimator\/StatefulPartitionedCall\/StatefulPartitionedCall\/scale_est_1\/scale_est_1ort_solver\/norm_17\/Squeeze",
      "version" : 1,
      "top" : "pose_estimator\/StatefulPartitionedCall\/StatefulPartitionedCall\/scale_est_1\/scale_est_1ort_solver\/norm_17\/Squeeze",
      "type" : "squeeze",
      "name" : "pose_estimator\/StatefulPartitionedCall\/StatefulPartitionedCall\/scale_est_1\/scale_est_1ort_solver\/norm_17\/Squeeze",
      "squeeze_all" : true
    },
    {
      "bottom" : "pose_estimator\/StatefulPartitionedCall\/StatefulPartitionedCall\/scale_est_1\/scale_est_1ort_solver\/Tensordot_16,pose_estimator\/StatefulPartitionedCall\/StatefulPartitionedCall\/scale_est_1\/scale_est_1ort_solver\/norm_17\/Squeeze",
      "alpha" : 1,
      "operation" : 102,
      "weights" : {

      },
      "fused_relu" : 0,
      "debug_info" : "pose_estimator\/StatefulPartitionedCall\/StatefulPartitionedCall\/scale_est_1\/scale_est_1ort_solver\/truediv_18",
      "nd_mode" : true,
      "top" : "pose_estimator\/StatefulPartitionedCall\/StatefulPartitionedCall\/scale_est_1\/scale_est_1ort_solver\/truediv_18",
      "type" : "elementwise",
      "name" : "pose_estimator\/StatefulPartitionedCall\/StatefulPartitionedCall\/scale_est_1\/scale_est_1ort_solver\/truediv_18",
      "beta" : 0
    },
    {
      "name" : "pose_estimator\/StatefulPartitionedCall\/StatefulPartitionedCall\/scale_est_1\/scale_est_1ort_solver\/Tensordot_17\/Reshape",
      "weights" : {

      },
      "dst_w" : 1,
      "version" : 1,
      "dst_n" : 1,
      "dst_nd_rank" : 2,
      "type" : "reshape",
      "dst_h" : 3,
      "mode" : 0,
      "dynamic_shape" : false,
      "bottom" : "pose_estimator\/StatefulPartitionedCall\/StatefulPartitionedCall\/scale_est_1\/scale_est_1ort_solver\/truediv_18",
      "debug_info" : "pose_estimator\/StatefulPartitionedCall\/StatefulPartitionedCall\/scale_est_1\/scale_est_1ort_solver\/Tensordot_17\/Reshape",
      "dst_seq" : 1,
      "dst_k" : 1,
      "top" : "pose_estimator\/StatefulPartitionedCall\/StatefulPartitionedCall\/scale_est_1\/scale_est_1ort_solver\/Tensordot_17\/Reshape"
    },
    {
      "bottom" : "pose_estimator\/StatefulPartitionedCall\/StatefulPartitionedCall\/scale_est_1\/scale_est_1ort_solver\/sub_1,pose_estimator\/StatefulPartitionedCall\/StatefulPartitionedCall\/scale_est_1\/scale_est_1ort_solver\/Tensordot_17\/Reshape",
      "weights" : {

      },
      "debug_info" : "pose_estimator\/StatefulPartitionedCall\/StatefulPartitionedCall\/scale_est_1\/scale_est_1ort_solver\/Tensordot_17\/MatMul",
      "top" : "pose_estimator\/StatefulPartitionedCall\/StatefulPartitionedCall\/scale_est_1\/scale_est_1ort_solver\/Tensordot_17\/MatMul",
      "type" : "batch_matmul",
      "name" : "pose_estimator\/StatefulPartitionedCall\/StatefulPartitionedCall\/scale_est_1\/scale_est_1ort_solver\/Tensordot_17\/MatMul",
      "channel_mode" : false
    },
    {
      "name" : "pose_estimator\/StatefulPartitionedCall\/StatefulPartitionedCall\/scale_est_1\/scale_est_1ort_solver\/Tensordot_17",
      "weights" : {

      },
      "dst_w" : 3,
      "version" : 1,
      "dst_n" : 1,
      "dst_nd_rank" : 1,
      "type" : "reshape",
      "dst_h" : 1,
      "mode" : 0,
      "dynamic_shape" : false,
      "bottom" : "pose_estimator\/StatefulPartitionedCall\/StatefulPartitionedCall\/scale_est_1\/scale_est_1ort_solver\/Tensordot_17\/MatMul",
      "debug_info" : "pose_estimator\/StatefulPartitionedCall\/StatefulPartitionedCall\/scale_est_1\/scale_est_1ort_solver\/Tensordot_17",
      "dst_seq" : 1,
      "dst_k" : 1,
      "top" : "pose_estimator\/StatefulPartitionedCall\/StatefulPartitionedCall\/scale_est_1\/scale_est_1ort_solver\/Tensordot_17"
    },
    {
      "bottom" : "pose_estimator\/StatefulPartitionedCall\/StatefulPartitionedCall\/scale_est_1\/scale_est_1ort_solver\/Tensordot_17,pose_estimator\/StatefulPartitionedCall\/StatefulPartitionedCall\/scale_est_1\/scale_est_1ort_solver\/Tensordot_17",
      "alpha" : 1,
      "operation" : 1,
      "weights" : {

      },
      "fused_relu" : 0,
      "debug_info" : "pose_estimator\/StatefulPartitionedCall\/StatefulPartitionedCall\/scale_est_1\/scale_est_1ort_solver\/norm_18\/mul",
      "top" : "pose_estimator\/StatefulPartitionedCall\/StatefulPartitionedCall\/scale_est_1\/scale_est_1ort_solver\/norm_18\/mul",
      "type" : "elementwise",
      "name" : "pose_estimator\/StatefulPartitionedCall\/StatefulPartitionedCall\/scale_est_1\/scale_est_1ort_solver\/norm_18\/mul",
      "beta" : 0
    },
    {
      "axis_mode" : 1,
      "bottom" : "pose_estimator\/StatefulPartitionedCall\/StatefulPartitionedCall\/scale_est_1\/scale_est_1ort_solver\/norm_18\/mul",
      "weights" : {

      },
      "mode" : 0,
      "nd_axis" : 0,
      "nd_mode" : true,
      "debug_info" : "pose_estimator\/StatefulPartitionedCall\/StatefulPartitionedCall\/scale_est_1\/scale_est_1ort_solver\/norm_18\/Sum",
      "use_version" : 1,
      "top" : "pose_estimator\/StatefulPartitionedCall\/StatefulPartitionedCall\/scale_est_1\/scale_est_1ort_solver\/norm_18\/Sum",
      "type" : "reduce",
      "name" : "pose_estimator\/StatefulPartitionedCall\/StatefulPartitionedCall\/scale_est_1\/scale_est_1ort_solver\/norm_18\/Sum"
    },
    {
      "bottom" : "pose_estimator\/StatefulPartitionedCall\/StatefulPartitionedCall\/scale_est_1\/scale_est_1ort_solver\/norm_18\/Sum",
      "alpha" : 1,
      "operation" : 11,
      "weights" : {

      },
      "fused_relu" : 0,
      "debug_info" : "pose_estimator\/StatefulPartitionedCall\/StatefulPartitionedCall\/scale_est_1\/scale_est_1ort_solver\/norm_18\/Sqrt",
      "top" : "pose_estimator\/StatefulPartitionedCall\/StatefulPartitionedCall\/scale_est_1\/scale_est_1ort_solver\/norm_18\/Sqrt",
      "type" : "elementwise",
      "name" : "pose_estimator\/StatefulPartitionedCall\/StatefulPartitionedCall\/scale_est_1\/scale_est_1ort_solver\/norm_18\/Sqrt",
      "beta" : 0
    },
    {
      "size_of_axes" : 0,
      "bottom" : "pose_estimator\/StatefulPartitionedCall\/StatefulPartitionedCall\/scale_est_1\/scale_est_1ort_solver\/norm_18\/Sqrt",
      "weights" : {

      },
      "nd_axis" : 0,
      "debug_info" : "pose_estimator\/StatefulPartitionedCall\/StatefulPartitionedCall\/scale_est_1\/scale_est_1ort_solver\/norm_18\/Squeeze",
      "version" : 1,
      "top" : "pose_estimator\/StatefulPartitionedCall\/StatefulPartitionedCall\/scale_est_1\/scale_est_1ort_solver\/norm_18\/Squeeze",
      "type" : "squeeze",
      "name" : "pose_estimator\/StatefulPartitionedCall\/StatefulPartitionedCall\/scale_est_1\/scale_est_1ort_solver\/norm_18\/Squeeze",
      "squeeze_all" : true
    },
    {
      "bottom" : "pose_estimator\/StatefulPartitionedCall\/StatefulPartitionedCall\/scale_est_1\/scale_est_1ort_solver\/Tensordot_17,pose_estimator\/StatefulPartitionedCall\/StatefulPartitionedCall\/scale_est_1\/scale_est_1ort_solver\/norm_18\/Squeeze",
      "alpha" : 1,
      "operation" : 102,
      "weights" : {

      },
      "fused_relu" : 0,
      "debug_info" : "pose_estimator\/StatefulPartitionedCall\/StatefulPartitionedCall\/scale_est_1\/scale_est_1ort_solver\/truediv_19",
      "nd_mode" : true,
      "top" : "pose_estimator\/StatefulPartitionedCall\/StatefulPartitionedCall\/scale_est_1\/scale_est_1ort_solver\/truediv_19",
      "type" : "elementwise",
      "name" : "pose_estimator\/StatefulPartitionedCall\/StatefulPartitionedCall\/scale_est_1\/scale_est_1ort_solver\/truediv_19",
      "beta" : 0
    },
    {
      "name" : "pose_estimator\/StatefulPartitionedCall\/StatefulPartitionedCall\/scale_est_1\/scale_est_1ort_solver\/Tensordot_18\/Reshape",
      "weights" : {

      },
      "dst_w" : 1,
      "version" : 1,
      "dst_n" : 1,
      "dst_nd_rank" : 2,
      "type" : "reshape",
      "dst_h" : 3,
      "mode" : 0,
      "dynamic_shape" : false,
      "bottom" : "pose_estimator\/StatefulPartitionedCall\/StatefulPartitionedCall\/scale_est_1\/scale_est_1ort_solver\/truediv_19",
      "debug_info" : "pose_estimator\/StatefulPartitionedCall\/StatefulPartitionedCall\/scale_est_1\/scale_est_1ort_solver\/Tensordot_18\/Reshape",
      "dst_seq" : 1,
      "dst_k" : 1,
      "top" : "pose_estimator\/StatefulPartitionedCall\/StatefulPartitionedCall\/scale_est_1\/scale_est_1ort_solver\/Tensordot_18\/Reshape"
    },
    {
      "bottom" : "pose_estimator\/StatefulPartitionedCall\/StatefulPartitionedCall\/scale_est_1\/scale_est_1ort_solver\/sub_1,pose_estimator\/StatefulPartitionedCall\/StatefulPartitionedCall\/scale_est_1\/scale_est_1ort_solver\/Tensordot_18\/Reshape",
      "weights" : {

      },
      "debug_info" : "pose_estimator\/StatefulPartitionedCall\/StatefulPartitionedCall\/scale_est_1\/scale_est_1ort_solver\/Tensordot_18\/MatMul",
      "top" : "pose_estimator\/StatefulPartitionedCall\/StatefulPartitionedCall\/scale_est_1\/scale_est_1ort_solver\/Tensordot_18\/MatMul",
      "type" : "batch_matmul",
      "name" : "pose_estimator\/StatefulPartitionedCall\/StatefulPartitionedCall\/scale_est_1\/scale_est_1ort_solver\/Tensordot_18\/MatMul",
      "channel_mode" : false
    },
    {
      "name" : "pose_estimator\/StatefulPartitionedCall\/StatefulPartitionedCall\/scale_est_1\/scale_est_1ort_solver\/Tensordot_18",
      "weights" : {

      },
      "dst_w" : 3,
      "version" : 1,
      "dst_n" : 1,
      "dst_nd_rank" : 1,
      "type" : "reshape",
      "dst_h" : 1,
      "mode" : 0,
      "dynamic_shape" : false,
      "bottom" : "pose_estimator\/StatefulPartitionedCall\/StatefulPartitionedCall\/scale_est_1\/scale_est_1ort_solver\/Tensordot_18\/MatMul",
      "debug_info" : "pose_estimator\/StatefulPartitionedCall\/StatefulPartitionedCall\/scale_est_1\/scale_est_1ort_solver\/Tensordot_18",
      "dst_seq" : 1,
      "dst_k" : 1,
      "top" : "pose_estimator\/StatefulPartitionedCall\/StatefulPartitionedCall\/scale_est_1\/scale_est_1ort_solver\/Tensordot_18"
    },
    {
      "bottom" : "pose_estimator\/StatefulPartitionedCall\/StatefulPartitionedCall\/scale_est_1\/scale_est_1ort_solver\/Tensordot_18,pose_estimator\/StatefulPartitionedCall\/StatefulPartitionedCall\/scale_est_1\/scale_est_1ort_solver\/Tensordot_18",
      "alpha" : 1,
      "operation" : 1,
      "weights" : {

      },
      "fused_relu" : 0,
      "debug_info" : "pose_estimator\/StatefulPartitionedCall\/StatefulPartitionedCall\/scale_est_1\/scale_est_1ort_solver\/norm_19\/mul",
      "top" : "pose_estimator\/StatefulPartitionedCall\/StatefulPartitionedCall\/scale_est_1\/scale_est_1ort_solver\/norm_19\/mul",
      "type" : "elementwise",
      "name" : "pose_estimator\/StatefulPartitionedCall\/StatefulPartitionedCall\/scale_est_1\/scale_est_1ort_solver\/norm_19\/mul",
      "beta" : 0
    },
    {
      "axis_mode" : 1,
      "bottom" : "pose_estimator\/StatefulPartitionedCall\/StatefulPartitionedCall\/scale_est_1\/scale_est_1ort_solver\/norm_19\/mul",
      "weights" : {

      },
      "mode" : 0,
      "nd_axis" : 0,
      "nd_mode" : true,
      "debug_info" : "pose_estimator\/StatefulPartitionedCall\/StatefulPartitionedCall\/scale_est_1\/scale_est_1ort_solver\/norm_19\/Sum",
      "use_version" : 1,
      "top" : "pose_estimator\/StatefulPartitionedCall\/StatefulPartitionedCall\/scale_est_1\/scale_est_1ort_solver\/norm_19\/Sum",
      "type" : "reduce",
      "name" : "pose_estimator\/StatefulPartitionedCall\/StatefulPartitionedCall\/scale_est_1\/scale_est_1ort_solver\/norm_19\/Sum"
    },
    {
      "bottom" : "pose_estimator\/StatefulPartitionedCall\/StatefulPartitionedCall\/scale_est_1\/scale_est_1ort_solver\/norm_19\/Sum",
      "alpha" : 1,
      "operation" : 11,
      "weights" : {

      },
      "fused_relu" : 0,
      "debug_info" : "pose_estimator\/StatefulPartitionedCall\/StatefulPartitionedCall\/scale_est_1\/scale_est_1ort_solver\/norm_19\/Sqrt",
      "top" : "pose_estimator\/StatefulPartitionedCall\/StatefulPartitionedCall\/scale_est_1\/scale_est_1ort_solver\/norm_19\/Sqrt",
      "type" : "elementwise",
      "name" : "pose_estimator\/StatefulPartitionedCall\/StatefulPartitionedCall\/scale_est_1\/scale_est_1ort_solver\/norm_19\/Sqrt",
      "beta" : 0
    },
    {
      "size_of_axes" : 0,
      "bottom" : "pose_estimator\/StatefulPartitionedCall\/StatefulPartitionedCall\/scale_est_1\/scale_est_1ort_solver\/norm_19\/Sqrt",
      "weights" : {

      },
      "nd_axis" : 0,
      "debug_info" : "pose_estimator\/StatefulPartitionedCall\/StatefulPartitionedCall\/scale_est_1\/scale_est_1ort_solver\/norm_19\/Squeeze",
      "version" : 1,
      "top" : "pose_estimator\/StatefulPartitionedCall\/StatefulPartitionedCall\/scale_est_1\/scale_est_1ort_solver\/norm_19\/Squeeze",
      "type" : "squeeze",
      "name" : "pose_estimator\/StatefulPartitionedCall\/StatefulPartitionedCall\/scale_est_1\/scale_est_1ort_solver\/norm_19\/Squeeze",
      "squeeze_all" : true
    },
    {
      "bottom" : "pose_estimator\/StatefulPartitionedCall\/StatefulPartitionedCall\/scale_est_1\/scale_est_1ort_solver\/Tensordot_18,pose_estimator\/StatefulPartitionedCall\/StatefulPartitionedCall\/scale_est_1\/scale_est_1ort_solver\/norm_19\/Squeeze",
      "alpha" : 1,
      "operation" : 102,
      "weights" : {

      },
      "fused_relu" : 0,
      "debug_info" : "pose_estimator\/StatefulPartitionedCall\/StatefulPartitionedCall\/scale_est_1\/scale_est_1ort_solver\/truediv_20",
      "nd_mode" : true,
      "top" : "pose_estimator\/StatefulPartitionedCall\/StatefulPartitionedCall\/scale_est_1\/scale_est_1ort_solver\/truediv_20",
      "type" : "elementwise",
      "name" : "pose_estimator\/StatefulPartitionedCall\/StatefulPartitionedCall\/scale_est_1\/scale_est_1ort_solver\/truediv_20",
      "beta" : 0
    },
    {
      "name" : "pose_estimator\/StatefulPartitionedCall\/StatefulPartitionedCall\/scale_est_1\/scale_est_1ort_solver\/Tensordot_19\/Reshape",
      "weights" : {

      },
      "dst_w" : 1,
      "version" : 1,
      "dst_n" : 1,
      "dst_nd_rank" : 2,
      "type" : "reshape",
      "dst_h" : 3,
      "mode" : 0,
      "dynamic_shape" : false,
      "bottom" : "pose_estimator\/StatefulPartitionedCall\/StatefulPartitionedCall\/scale_est_1\/scale_est_1ort_solver\/truediv_20",
      "debug_info" : "pose_estimator\/StatefulPartitionedCall\/StatefulPartitionedCall\/scale_est_1\/scale_est_1ort_solver\/Tensordot_19\/Reshape",
      "dst_seq" : 1,
      "dst_k" : 1,
      "top" : "pose_estimator\/StatefulPartitionedCall\/StatefulPartitionedCall\/scale_est_1\/scale_est_1ort_solver\/Tensordot_19\/Reshape"
    },
    {
      "bottom" : "pose_estimator\/StatefulPartitionedCall\/StatefulPartitionedCall\/scale_est_1\/scale_est_1ort_solver\/sub_1,pose_estimator\/StatefulPartitionedCall\/StatefulPartitionedCall\/scale_est_1\/scale_est_1ort_solver\/Tensordot_19\/Reshape",
      "weights" : {

      },
      "debug_info" : "pose_estimator\/StatefulPartitionedCall\/StatefulPartitionedCall\/scale_est_1\/scale_est_1ort_solver\/Tensordot_19\/MatMul",
      "top" : "pose_estimator\/StatefulPartitionedCall\/StatefulPartitionedCall\/scale_est_1\/scale_est_1ort_solver\/Tensordot_19\/MatMul",
      "type" : "batch_matmul",
      "name" : "pose_estimator\/StatefulPartitionedCall\/StatefulPartitionedCall\/scale_est_1\/scale_est_1ort_solver\/Tensordot_19\/MatMul",
      "channel_mode" : false
    },
    {
      "name" : "pose_estimator\/StatefulPartitionedCall\/StatefulPartitionedCall\/scale_est_1\/scale_est_1ort_solver\/Tensordot_19",
      "weights" : {

      },
      "dst_w" : 3,
      "version" : 1,
      "dst_n" : 1,
      "dst_nd_rank" : 1,
      "type" : "reshape",
      "dst_h" : 1,
      "mode" : 0,
      "dynamic_shape" : false,
      "bottom" : "pose_estimator\/StatefulPartitionedCall\/StatefulPartitionedCall\/scale_est_1\/scale_est_1ort_solver\/Tensordot_19\/MatMul",
      "debug_info" : "pose_estimator\/StatefulPartitionedCall\/StatefulPartitionedCall\/scale_est_1\/scale_est_1ort_solver\/Tensordot_19",
      "dst_seq" : 1,
      "dst_k" : 1,
      "top" : "pose_estimator\/StatefulPartitionedCall\/StatefulPartitionedCall\/scale_est_1\/scale_est_1ort_solver\/Tensordot_19"
    },
    {
      "bottom" : "pose_estimator\/StatefulPartitionedCall\/StatefulPartitionedCall\/scale_est_1\/scale_est_1ort_solver\/Tensordot_19,pose_estimator\/StatefulPartitionedCall\/StatefulPartitionedCall\/scale_est_1\/scale_est_1ort_solver\/Tensordot_19",
      "alpha" : 1,
      "operation" : 1,
      "weights" : {

      },
      "fused_relu" : 0,
      "debug_info" : "pose_estimator\/StatefulPartitionedCall\/StatefulPartitionedCall\/scale_est_1\/scale_est_1ort_solver\/norm_20\/mul",
      "top" : "pose_estimator\/StatefulPartitionedCall\/StatefulPartitionedCall\/scale_est_1\/scale_est_1ort_solver\/norm_20\/mul",
      "type" : "elementwise",
      "name" : "pose_estimator\/StatefulPartitionedCall\/StatefulPartitionedCall\/scale_est_1\/scale_est_1ort_solver\/norm_20\/mul",
      "beta" : 0
    },
    {
      "axis_mode" : 1,
      "bottom" : "pose_estimator\/StatefulPartitionedCall\/StatefulPartitionedCall\/scale_est_1\/scale_est_1ort_solver\/norm_20\/mul",
      "weights" : {

      },
      "mode" : 0,
      "nd_axis" : 0,
      "nd_mode" : true,
      "debug_info" : "pose_estimator\/StatefulPartitionedCall\/StatefulPartitionedCall\/scale_est_1\/scale_est_1ort_solver\/norm_20\/Sum",
      "use_version" : 1,
      "top" : "pose_estimator\/StatefulPartitionedCall\/StatefulPartitionedCall\/scale_est_1\/scale_est_1ort_solver\/norm_20\/Sum",
      "type" : "reduce",
      "name" : "pose_estimator\/StatefulPartitionedCall\/StatefulPartitionedCall\/scale_est_1\/scale_est_1ort_solver\/norm_20\/Sum"
    },
    {
      "bottom" : "pose_estimator\/StatefulPartitionedCall\/StatefulPartitionedCall\/scale_est_1\/scale_est_1ort_solver\/norm_20\/Sum",
      "alpha" : 1,
      "operation" : 11,
      "weights" : {

      },
      "fused_relu" : 0,
      "debug_info" : "pose_estimator\/StatefulPartitionedCall\/StatefulPartitionedCall\/scale_est_1\/scale_est_1ort_solver\/norm_20\/Sqrt",
      "top" : "pose_estimator\/StatefulPartitionedCall\/StatefulPartitionedCall\/scale_est_1\/scale_est_1ort_solver\/norm_20\/Sqrt",
      "type" : "elementwise",
      "name" : "pose_estimator\/StatefulPartitionedCall\/StatefulPartitionedCall\/scale_est_1\/scale_est_1ort_solver\/norm_20\/Sqrt",
      "beta" : 0
    },
    {
      "size_of_axes" : 0,
      "bottom" : "pose_estimator\/StatefulPartitionedCall\/StatefulPartitionedCall\/scale_est_1\/scale_est_1ort_solver\/norm_20\/Sqrt",
      "weights" : {

      },
      "nd_axis" : 0,
      "debug_info" : "pose_estimator\/StatefulPartitionedCall\/StatefulPartitionedCall\/scale_est_1\/scale_est_1ort_solver\/norm_20\/Squeeze",
      "version" : 1,
      "top" : "pose_estimator\/StatefulPartitionedCall\/StatefulPartitionedCall\/scale_est_1\/scale_est_1ort_solver\/norm_20\/Squeeze",
      "type" : "squeeze",
      "name" : "pose_estimator\/StatefulPartitionedCall\/StatefulPartitionedCall\/scale_est_1\/scale_est_1ort_solver\/norm_20\/Squeeze",
      "squeeze_all" : true
    },
    {
      "bottom" : "pose_estimator\/StatefulPartitionedCall\/StatefulPartitionedCall\/scale_est_1\/scale_est_1ort_solver\/Tensordot_19,pose_estimator\/StatefulPartitionedCall\/StatefulPartitionedCall\/scale_est_1\/scale_est_1ort_solver\/norm_20\/Squeeze",
      "alpha" : 1,
      "operation" : 102,
      "weights" : {

      },
      "fused_relu" : 0,
      "debug_info" : "pose_estimator\/StatefulPartitionedCall\/StatefulPartitionedCall\/scale_est_1\/scale_est_1ort_solver\/truediv_21",
      "nd_mode" : true,
      "top" : "pose_estimator\/StatefulPartitionedCall\/StatefulPartitionedCall\/scale_est_1\/scale_est_1ort_solver\/truediv_21",
      "type" : "elementwise",
      "name" : "pose_estimator\/StatefulPartitionedCall\/StatefulPartitionedCall\/scale_est_1\/scale_est_1ort_solver\/truediv_21",
      "beta" : 0
    },
    {
      "name" : "pose_estimator\/StatefulPartitionedCall\/StatefulPartitionedCall\/scale_est_1\/scale_est_1ort_solver\/Tensordot_20\/Reshape",
      "weights" : {

      },
      "dst_w" : 1,
      "version" : 1,
      "dst_n" : 1,
      "dst_nd_rank" : 2,
      "type" : "reshape",
      "dst_h" : 3,
      "mode" : 0,
      "dynamic_shape" : false,
      "bottom" : "pose_estimator\/StatefulPartitionedCall\/StatefulPartitionedCall\/scale_est_1\/scale_est_1ort_solver\/truediv_21",
      "debug_info" : "pose_estimator\/StatefulPartitionedCall\/StatefulPartitionedCall\/scale_est_1\/scale_est_1ort_solver\/Tensordot_20\/Reshape",
      "dst_seq" : 1,
      "dst_k" : 1,
      "top" : "pose_estimator\/StatefulPartitionedCall\/StatefulPartitionedCall\/scale_est_1\/scale_est_1ort_solver\/Tensordot_20\/Reshape"
    },
    {
      "bottom" : "pose_estimator\/StatefulPartitionedCall\/StatefulPartitionedCall\/scale_est_1\/scale_est_1ort_solver\/sub_1,pose_estimator\/StatefulPartitionedCall\/StatefulPartitionedCall\/scale_est_1\/scale_est_1ort_solver\/Tensordot_20\/Reshape",
      "weights" : {

      },
      "debug_info" : "pose_estimator\/StatefulPartitionedCall\/StatefulPartitionedCall\/scale_est_1\/scale_est_1ort_solver\/Tensordot_20\/MatMul",
      "top" : "pose_estimator\/StatefulPartitionedCall\/StatefulPartitionedCall\/scale_est_1\/scale_est_1ort_solver\/Tensordot_20\/MatMul",
      "type" : "batch_matmul",
      "name" : "pose_estimator\/StatefulPartitionedCall\/StatefulPartitionedCall\/scale_est_1\/scale_est_1ort_solver\/Tensordot_20\/MatMul",
      "channel_mode" : false
    },
    {
      "name" : "pose_estimator\/StatefulPartitionedCall\/StatefulPartitionedCall\/scale_est_1\/scale_est_1ort_solver\/Tensordot_20",
      "weights" : {

      },
      "dst_w" : 3,
      "version" : 1,
      "dst_n" : 1,
      "dst_nd_rank" : 1,
      "type" : "reshape",
      "dst_h" : 1,
      "mode" : 0,
      "dynamic_shape" : false,
      "bottom" : "pose_estimator\/StatefulPartitionedCall\/StatefulPartitionedCall\/scale_est_1\/scale_est_1ort_solver\/Tensordot_20\/MatMul",
      "debug_info" : "pose_estimator\/StatefulPartitionedCall\/StatefulPartitionedCall\/scale_est_1\/scale_est_1ort_solver\/Tensordot_20",
      "dst_seq" : 1,
      "dst_k" : 1,
      "top" : "pose_estimator\/StatefulPartitionedCall\/StatefulPartitionedCall\/scale_est_1\/scale_est_1ort_solver\/Tensordot_20"
    },
    {
      "bottom" : "pose_estimator\/StatefulPartitionedCall\/StatefulPartitionedCall\/scale_est_1\/scale_est_1ort_solver\/Tensordot_20,pose_estimator\/StatefulPartitionedCall\/StatefulPartitionedCall\/scale_est_1\/scale_est_1ort_solver\/Tensordot_20",
      "alpha" : 1,
      "operation" : 1,
      "weights" : {

      },
      "fused_relu" : 0,
      "debug_info" : "pose_estimator\/StatefulPartitionedCall\/StatefulPartitionedCall\/scale_est_1\/scale_est_1ort_solver\/norm_21\/mul",
      "top" : "pose_estimator\/StatefulPartitionedCall\/StatefulPartitionedCall\/scale_est_1\/scale_est_1ort_solver\/norm_21\/mul",
      "type" : "elementwise",
      "name" : "pose_estimator\/StatefulPartitionedCall\/StatefulPartitionedCall\/scale_est_1\/scale_est_1ort_solver\/norm_21\/mul",
      "beta" : 0
    },
    {
      "axis_mode" : 1,
      "bottom" : "pose_estimator\/StatefulPartitionedCall\/StatefulPartitionedCall\/scale_est_1\/scale_est_1ort_solver\/norm_21\/mul",
      "weights" : {

      },
      "mode" : 0,
      "nd_axis" : 0,
      "nd_mode" : true,
      "debug_info" : "pose_estimator\/StatefulPartitionedCall\/StatefulPartitionedCall\/scale_est_1\/scale_est_1ort_solver\/norm_21\/Sum",
      "use_version" : 1,
      "top" : "pose_estimator\/StatefulPartitionedCall\/StatefulPartitionedCall\/scale_est_1\/scale_est_1ort_solver\/norm_21\/Sum",
      "type" : "reduce",
      "name" : "pose_estimator\/StatefulPartitionedCall\/StatefulPartitionedCall\/scale_est_1\/scale_est_1ort_solver\/norm_21\/Sum"
    },
    {
      "bottom" : "pose_estimator\/StatefulPartitionedCall\/StatefulPartitionedCall\/scale_est_1\/scale_est_1ort_solver\/norm_21\/Sum",
      "alpha" : 1,
      "operation" : 11,
      "weights" : {

      },
      "fused_relu" : 0,
      "debug_info" : "pose_estimator\/StatefulPartitionedCall\/StatefulPartitionedCall\/scale_est_1\/scale_est_1ort_solver\/norm_21\/Sqrt",
      "top" : "pose_estimator\/StatefulPartitionedCall\/StatefulPartitionedCall\/scale_est_1\/scale_est_1ort_solver\/norm_21\/Sqrt",
      "type" : "elementwise",
      "name" : "pose_estimator\/StatefulPartitionedCall\/StatefulPartitionedCall\/scale_est_1\/scale_est_1ort_solver\/norm_21\/Sqrt",
      "beta" : 0
    },
    {
      "size_of_axes" : 0,
      "bottom" : "pose_estimator\/StatefulPartitionedCall\/StatefulPartitionedCall\/scale_est_1\/scale_est_1ort_solver\/norm_21\/Sqrt",
      "weights" : {

      },
      "nd_axis" : 0,
      "debug_info" : "pose_estimator\/StatefulPartitionedCall\/StatefulPartitionedCall\/scale_est_1\/scale_est_1ort_solver\/norm_21\/Squeeze",
      "version" : 1,
      "top" : "pose_estimator\/StatefulPartitionedCall\/StatefulPartitionedCall\/scale_est_1\/scale_est_1ort_solver\/norm_21\/Squeeze",
      "type" : "squeeze",
      "name" : "pose_estimator\/StatefulPartitionedCall\/StatefulPartitionedCall\/scale_est_1\/scale_est_1ort_solver\/norm_21\/Squeeze",
      "squeeze_all" : true
    },
    {
      "bottom" : "pose_estimator\/StatefulPartitionedCall\/StatefulPartitionedCall\/scale_est_1\/scale_est_1ort_solver\/Tensordot_20,pose_estimator\/StatefulPartitionedCall\/StatefulPartitionedCall\/scale_est_1\/scale_est_1ort_solver\/norm_21\/Squeeze",
      "alpha" : 1,
      "operation" : 102,
      "weights" : {

      },
      "fused_relu" : 0,
      "debug_info" : "pose_estimator\/StatefulPartitionedCall\/StatefulPartitionedCall\/scale_est_1\/scale_est_1ort_solver\/truediv_22",
      "nd_mode" : true,
      "top" : "pose_estimator\/StatefulPartitionedCall\/StatefulPartitionedCall\/scale_est_1\/scale_est_1ort_solver\/truediv_22",
      "type" : "elementwise",
      "name" : "pose_estimator\/StatefulPartitionedCall\/StatefulPartitionedCall\/scale_est_1\/scale_est_1ort_solver\/truediv_22",
      "beta" : 0
    },
    {
      "name" : "pose_estimator\/StatefulPartitionedCall\/StatefulPartitionedCall\/scale_est_1\/scale_est_1ort_solver\/Tensordot_21\/Reshape",
      "weights" : {

      },
      "dst_w" : 1,
      "version" : 1,
      "dst_n" : 1,
      "dst_nd_rank" : 2,
      "type" : "reshape",
      "dst_h" : 3,
      "mode" : 0,
      "dynamic_shape" : false,
      "bottom" : "pose_estimator\/StatefulPartitionedCall\/StatefulPartitionedCall\/scale_est_1\/scale_est_1ort_solver\/truediv_22",
      "debug_info" : "pose_estimator\/StatefulPartitionedCall\/StatefulPartitionedCall\/scale_est_1\/scale_est_1ort_solver\/Tensordot_21\/Reshape",
      "dst_seq" : 1,
      "dst_k" : 1,
      "top" : "pose_estimator\/StatefulPartitionedCall\/StatefulPartitionedCall\/scale_est_1\/scale_est_1ort_solver\/Tensordot_21\/Reshape"
    },
    {
      "name" : "pose_estimator\/StatefulPartitionedCall\/StatefulPartitionedCall\/scale_est_1\/scale_est_1ort_solver\/Tensordot_21\/Reshape_1",
      "weights" : {

      },
      "dst_w" : 3,
      "version" : 1,
      "dst_n" : 1,
      "dst_nd_rank" : 2,
      "type" : "reshape",
      "dst_h" : 1,
      "mode" : 0,
      "dynamic_shape" : false,
      "bottom" : "pose_estimator\/StatefulPartitionedCall\/StatefulPartitionedCall\/scale_est_1\/scale_est_1ort_solver\/truediv_22",
      "debug_info" : "pose_estimator\/StatefulPartitionedCall\/StatefulPartitionedCall\/scale_est_1\/scale_est_1ort_solver\/Tensordot_21\/Reshape_1",
      "dst_seq" : 1,
      "dst_k" : 1,
      "top" : "pose_estimator\/StatefulPartitionedCall\/StatefulPartitionedCall\/scale_est_1\/scale_est_1ort_solver\/Tensordot_21\/Reshape_1"
    },
    {
      "bottom" : "pose_estimator\/StatefulPartitionedCall\/StatefulPartitionedCall\/scale_est_1\/scale_est_1ort_solver\/Tensordot_21\/Reshape,pose_estimator\/StatefulPartitionedCall\/StatefulPartitionedCall\/scale_est_1\/scale_est_1ort_solver\/Tensordot_21\/Reshape_1",
      "weights" : {

      },
      "debug_info" : "pose_estimator\/StatefulPartitionedCall\/StatefulPartitionedCall\/scale_est_1\/scale_est_1ort_solver\/Tensordot_21\/MatMul",
      "top" : "pose_estimator\/StatefulPartitionedCall\/StatefulPartitionedCall\/scale_est_1\/scale_est_1ort_solver\/Tensordot_21\/MatMul",
      "type" : "batch_matmul",
      "name" : "pose_estimator\/StatefulPartitionedCall\/StatefulPartitionedCall\/scale_est_1\/scale_est_1ort_solver\/Tensordot_21\/MatMul",
      "channel_mode" : false
    },
    {
      "bottom" : "pose_estimator\/StatefulPartitionedCall\/StatefulPartitionedCall\/scale_est_1\/scale_est_1ort_solver\/Tensordot_21\/MatMul,pose_estimator\/StatefulPartitionedCall\/StatefulPartitionedCall\/scale_est_1\/scale_est_1ort_solver\/norm_21\/Squeeze",
      "alpha" : 1,
      "operation" : 1,
      "weights" : {

      },
      "fused_relu" : 0,
      "debug_info" : "pose_estimator\/StatefulPartitionedCall\/StatefulPartitionedCall\/scale_est_1\/scale_est_1ort_solver\/mul_5",
      "top" : "pose_estimator\/StatefulPartitionedCall\/StatefulPartitionedCall\/scale_est_1\/scale_est_1ort_solver\/mul_5",
      "type" : "elementwise",
      "name" : "pose_estimator\/StatefulPartitionedCall\/StatefulPartitionedCall\/scale_est_1\/scale_est_1ort_solver\/mul_5",
      "beta" : 0
    },
    {
      "alpha" : -1,
…
      },
      "pose_estimator\/StatefulPartitionedCall\/StatefulPartitionedCall\/scale_est_1\/scale_est_1ort_solver\/strided_slice_33" : {
        "k" : 1,
        "w" : 1,
        "n" : 1,
        "_rank" : 0,
        "h" : 1
      },
      "pose_estimator\/StatefulPartitionedCall\/StatefulPartitionedCall\/wort_1\/Tensordot_20\/MatMul" : {
        "k" : 1,
        "w" : 1,
        "n" : 1,
        "_rank" : 2,
        "h" : 3
      },
      "pose_estimator\/StatefulPartitionedCall\/StatefulPartitionedCall\/scale_est_1\/scale_est_1ort_solver\/matmul_6" : {
        "k" : 1,
        "w" : 468,
        "n" : 1,
        "_rank" : 2,
        "h" : 3
      },
      "pose_estimator\/StatefulPartitionedCall\/StatefulPartitionedCall\/unproj_2\/strided_slice_4" : {
        "k" : 1,
        "w" : 468,
        "n" : 1,
        "_rank" : 1,
        "h" : 1
      },
      "pose_estimator\/StatefulPartitionedCall\/StatefulPartitionedCall\/scale_est_1\/scale_est_1ort_solver\/Less_load_constant_352" : {
        "k" : 1,
        "w" : 1,
        "n" : 1,
        "h" : 1
      },
      "pose_estimator\/StatefulPartitionedCall\/StatefulPartitionedCall\/scale_est_1\/scale_est_1ort_solver\/norm_21\/mul" : {
        "k" : 1,
        "w" : 3,
        "n" : 1,
        "_rank" : 1,
        "h" : 1
      },
      "pose_estimator\/StatefulPartitionedCall\/StatefulPartitionedCall\/scale_est_2\/scale_est_2ort_solver\/truediv_5" : {
        "k" : 1,
        "w" : 3,
        "n" : 1,
        "_rank" : 1,
        "h" : 1
      },
      "pose_estimator\/StatefulPartitionedCall\/StatefulPartitionedCall\/scale_est_2\/scale_est_2ort_solver\/Tensordot_16\/MatMul" : {
        "k" : 1,
        "w" : 1,
        "n" : 1,
        "_rank" : 2,
        "h" : 3
      },
      "pose_estimator\/StatefulPartitionedCall\/StatefulPartitionedCall\/scale_est_1\/scale_est_1ort_solver\/norm_17\/mul" : {
        "k" : 1,
        "w" : 3,
        "n" : 1,
        "_rank" : 1,
        "h" : 1
      },
      "_neg_y_pose_estimator\/StatefulPartitionedCall\/StatefulPartitionedCall\/scale_est_1\/scale_est_1ort_solver\/sub_4" : {
        "k" : 1,
        "w" : 1,
        "n" : 1,
        "_rank" : 0,
        "h" : 1
      },
      "pose_estimator\/StatefulPartitionedCall\/StatefulPartitionedCall\/scale_est_1\/scale_est_1ort_solver\/Tensordot_14\/Reshape" : {
        "k" : 1,
        "w" : 1,
        "n" : 1,
        "_rank" : 2,
        "h" : 3
      },
      "pose_estimator\/StatefulPartitionedCall\/StatefulPartitionedCall\/scale_est_2\/scale_est_2ort_solver\/norm_14\/Sum" : {
        "k" : 1,
        "w" : 1,
        "n" : 1,
        "_rank" : 1,
        "h" : 1
      },
      "pose_estimator\/StatefulPartitionedCall\/StatefulPartitionedCall\/scale_est_1\/scale_est_1ort_solver\/strided_slice_24" : {
        "k" : 1,
        "w" : 1,
        "n" : 1,
        "_rank" : 0,
        "h" : 1
      },
      "pose_estimator\/StatefulPartitionedCall\/StatefulPartitionedCall\/wort_1\/norm_13\/Sum" : {
        "k" : 1,
        "w" : 1,
        "n" : 1,
        "_rank" : 1,
        "h" : 1
      },
      "pose_estimator\/StatefulPartitionedCall\/StatefulPartitionedCall\/scale_est_2\/scale_est_2ort_solver\/norm_31\/Squeeze" : {
        "k" : 1,
        "w" : 1,
        "n" : 1,
        "_rank" : 1,
        "h" : 1
      },
      "pose_estimator\/StatefulPartitionedCall\/StatefulPartitionedCall\/wort_1\/norm_24\/Squeeze" : {
        "k" : 1,
        "w" : 1,
        "n" : 1,
        "_rank" : 1,
        "h" : 1
      },
      "pose_estimator\/StatefulPartitionedCall\/StatefulPartitionedCall\/scale_est_1\/scale_est_1ort_solver\/truediv_17" : {
        "k" : 1,
        "w" : 3,
        "n" : 1,
        "_rank" : 1,
        "h" : 1
      },
      "pose_estimator\/StatefulPartitionedCall\/StatefulPartitionedCall\/wort_1\/truediv_28" : {
        "k" : 1,
        "w" : 3,
        "n" : 1,
        "_rank" : 1,
        "h" : 1
      },
      "pose_estimator\/StatefulPartitionedCall\/StatefulPartitionedCall\/scale_est_1\/scale_est_1ort_solver\/strided_slice_15" : {
        "k" : 1,
        "w" : 1,
        "n" : 1,
        "_rank" : 0,
        "h" : 1
      },
      "pose_estimator\/StatefulPartitionedCall\/StatefulPartitionedCall\/proj_1\/strided_slice" : {
        "k" : 1,
        "w" : 468,
        "n" : 1,
        "_rank" : 1,
        "h" : 1
      },
      "pose_estimator\/StatefulPartitionedCall\/StatefulPartitionedCall\/scale_est_2\/scale_est_2ort_solver\/mul_13" : {
        "k" : 1,
        "w" : 1,
        "n" : 1,
        "_rank" : 0,
        "h" : 1
      },
      "pose_estimator\/StatefulPartitionedCall\/StatefulPartitionedCall\/scale_est_1\/scale_est_1ort_solver\/truediv_36" : {
        "k" : 1,
        "w" : 3,
        "n" : 1,
        "_rank" : 1,
        "h" : 1
      },
      "pose_estimator\/StatefulPartitionedCall\/StatefulPartitionedCall\/scale_est_1\/scale_est_1ort_solver\/mul_21" : {
        "k" : 1,
        "w" : 1,
        "n" : 1,
        "_rank" : 0,
        "h" : 1
      },
      "pose_estimator\/StatefulPartitionedCall\/StatefulPartitionedCall\/wort_1\/norm_29\/Sum" : {
        "k" : 1,
        "w" : 1,
        "n" : 1,
        "_rank" : 1,
        "h" : 1
      },
      "pose_estimator\/StatefulPartitionedCall\/StatefulPartitionedCall\/unproj_1\/strided_slice_1" : {
        "k" : 1,
        "w" : 468,
        "n" : 1,
        "_rank" : 1,
        "h" : 1
      },
      "pose_estimator\/StatefulPartitionedCall\/StatefulPartitionedCall\/scale_est_1\/scale_est_1ort_solver\/truediv_5" : {
        "k" : 1,
        "w" : 3,
        "n" : 1,
        "_rank" : 1,
        "h" : 1
      },
      "pose_estimator\/StatefulPartitionedCall\/StatefulPartitionedCall\/scale_est_1\/scale_est_1ort_solver\/norm_30\/Sum" : {
        "k" : 1,
        "w" : 1,
        "n" : 1,
        "_rank" : 1,
        "h" : 1
      },
      "pose_estimator\/StatefulPartitionedCall\/StatefulPartitionedCall\/wort_1\/norm_25\/Squeeze" : {
        "k" : 1,
        "w" : 1,
        "n" : 1,
        "_rank" : 1,
        "h" : 1
      },
      "pose_estimator\/StatefulPartitionedCall\/StatefulPartitionedCall\/scale_est_1\/scale_est_1ort_solver\/norm_26\/Sum" : {
        "k" : 1,
        "w" : 1,
        "n" : 1,
        "_rank" : 1,
        "h" : 1
      },
      "pose_estimator\/StatefulPartitionedCall\/StatefulPartitionedCall\/scale_est_1\/scale_est_1ort_solver\/Tensordot_6\/MatMul" : {
        "k" : 1,
        "w" : 1,
        "n" : 1,
        "_rank" : 2,
        "h" : 3
      },
      "pose_estimator\/StatefulPartitionedCall\/StatefulPartitionedCall\/wort_1\/mul_7" : {
        "k" : 1,
        "w" : 1,
        "n" : 1,
        "_rank" : 0,
        "h" : 1
      },
      "pose_estimator\/StatefulPartitionedCall\/StatefulPartitionedCall\/scale_est_2\/scale_est_2ort_solver\/Tensordot_24" : {
        "k" : 1,
        "w" : 3,
        "n" : 1,
        "_rank" : 1,
        "h" : 1
      },
      "pose_estimator\/StatefulPartitionedCall\/StatefulPartitionedCall\/scale_est_2\/scale_est_2ort_solver\/mul_26__reduction_axis__1" : {
        "k" : 1,
        "w" : 468,
        "n" : 1,
        "_rank" : 2,
        "h" : 1
      },
      "pose_estimator\/StatefulPartitionedCall\/StatefulPartitionedCall\/wort_1\/truediv_33" : {
        "k" : 1,
        "w" : 3,
        "n" : 1,
        "_rank" : 1,
        "h" : 1
      },
      "pose_estimator\/StatefulPartitionedCall\/StatefulPartitionedCall\/wort_1\/norm_13\/Sqrt" : {
        "k" : 1,
        "w" : 1,
        "n" : 1,
        "_rank" : 1,
        "h" : 1
      },
      "pose_estimator\/StatefulPartitionedCall\/StatefulPartitionedCall\/scale_est_1\/scale_est_1ort_solver\/Tensordot_15\/Reshape" : {
        "k" : 1,
        "w" : 1,
        "n" : 1,
        "_rank" : 2,
        "h" : 3
      },
      "pose_estimator\/StatefulPartitionedCall\/StatefulPartitionedCall\/wort_1\/mul_20" : {
        "k" : 1,
        "w" : 1,
        "n" : 1,
        "_rank" : 0,
        "h" : 1
      },
      "pose_estimator\/StatefulPartitionedCall\/StatefulPartitionedCall\/scale_est_1\/scale_est_1ort_solver\/Tensordot_17" : {
        "k" : 1,
        "w" : 3,
        "n" : 1,
        "_rank" : 1,
        "h" : 1
      },
      "pose_estimator\/StatefulPartitionedCall\/StatefulPartitionedCall\/scale_est_2\/scale_est_2ort_solver\/norm_6\/Squeeze" : {
        "k" : 1,
        "w" : 1,
        "n" : 1,
        "_rank" : 1,
        "h" : 1
      },
      "pose_estimator\/StatefulPartitionedCall\/StatefulPartitionedCall\/wort_1\/norm_10\/Squeeze" : {
        "k" : 1,
        "w" : 1,
        "n" : 1,
        "_rank" : 1,
        "h" : 1
      },
      "pose_estimator\/StatefulPartitionedCall\/StatefulPartitionedCall\/scale_est_2\/scale_est_2ort_solver\/add_1" : {
        "k" : 1,
        "w" : 1,
        "n" : 1,
        "_rank" : 0,
        "h" : 1
      },
      "pose_estimator\/StatefulPartitionedCall\/StatefulPartitionedCall\/scale_est_2\/scale_est_2ort_solver\/Tensordot_2" : {
        "k" : 1,
        "w" : 3,
        "n" : 1,
        "_rank" : 1,
        "h" : 1
      },
      "pose_estimator\/StatefulPartitionedCall\/StatefulPartitionedCall\/scale_est_1\/scale_est_1ort_solver\/Tensordot_25\/MatMul" : {
        "k" : 1,
        "w" : 1,
        "n" : 1,
        "_rank" : 2,
        "h" : 3
      },
      "pose_estimator\/StatefulPartitionedCall\/StatefulPartitionedCall\/wort_1\/truediv_3" : {
        "k" : 1,
        "w" : 3,
        "n" : 1,
        "_rank" : 1,
        "h" : 1
      },
      "pose_estimator\/StatefulPartitionedCall\/StatefulPartitionedCall\/wort_1\/strided_slice_34" : {
        "k" : 1,
        "w" : 1,
        "n" : 1,
        "_rank" : 0,
        "h" : 1
      },
      "pose_estimator\/StatefulPartitionedCall\/StatefulPartitionedCall\/wort_1\/norm_24\/Sqrt" : {
        "k" : 1,
        "w" : 1,
        "n" : 1,
        "_rank" : 1,
        "h" : 1
      },
      "args_0" : {
        "k" : 1,
        "w" : 468,
        "n" : 1,
        "_rank" : 3,
        "h" : 3
      },
      "pose_estimator\/StatefulPartitionedCall\/StatefulPartitionedCall\/scale_est_2\/scale_est_2ort_solver\/Sum_1_presqueeze" : {
        "k" : 1,
        "w" : 1,
        "n" : 1,
        "_rank" : 2,
        "h" : 1
      },
      "pose_estimator\/StatefulPartitionedCall\/StatefulPartitionedCall\/scale_est_2\/scale_est_2ort_solver\/Tensordot_21\/Reshape_1" : {
        "k" : 1,
        "w" : 3,
        "n" : 1,
        "_rank" : 2,
        "h" : 1
      },
      "_neg_y_pose_estimator\/StatefulPartitionedCall\/StatefulPartitionedCall\/proj_1\/sub" : {
        "k" : 1,
        "w" : 468,
        "n" : 1,
        "_rank" : 1,
        "h" : 1
      },
      "pose_estimator\/StatefulPartitionedCall\/StatefulPartitionedCall\/scale_est_1\/scale_est_1ort_solver\/Tensordot_6" : {
        "k" : 1,
        "w" : 3,
        "n" : 1,
        "_rank" : 1,
        "h" : 1
      },
      "pose_estimator\/StatefulPartitionedCall\/StatefulPartitionedCall\/wort_1\/truediv_10" : {
        "k" : 1,
        "w" : 3,
        "n" : 1,
        "_rank" : 1,
        "h" : 1
      },
      "pose_estimator\/StatefulPartitionedCall\/StatefulPartitionedCall\/proj_1\/sub" : {
        "k" : 1,
        "w" : 468,
        "n" : 1,
        "_rank" : 1,
        "h" : 1
      },
      "pose_estimator\/StatefulPartitionedCall\/StatefulPartitionedCall\/wort_1\/norm_31\/Sum" : {
        "k" : 1,
        "w" : 1,
        "n" : 1,
        "_rank" : 1,
        "h" : 1
      },
      "pose_estimator\/StatefulPartitionedCall\/StatefulPartitionedCall\/wort_1\/norm_2\/Sqrt" : {
        "k" : 1,
        "w" : 1,
        "n" : 1,
        "_rank" : 1,
        "h" : 1
      },
      "pose_estimator\/StatefulPartitionedCall\/StatefulPartitionedCall\/scale_est_2\/scale_est_2ort_solver\/truediv_14" : {
        "k" : 1,
        "w" : 3,
        "n" : 1,
        "_rank" : 1,
        "h" : 1
      },
      "pose_estimator\/StatefulPartitionedCall\/StatefulPartitionedCall\/scale_est_1\/scale_est_1ort_solver\/strided_slice_28" : {
        "k" : 1,
        "w" : 1,
        "n" : 1,
        "_rank" : 0,
        "h" : 1
      },
      "pose_estimator\/StatefulPartitionedCall\/StatefulPartitionedCall\/scale_est_2\/scale_est_2ort_solver\/norm_14\/mul" : {
        "k" : 1,
        "w" : 3,
        "n" : 1,
        "_rank" : 1,
        "h" : 1
      },
      "pose_estimator\/StatefulPartitionedCall\/StatefulPartitionedCall\/scale_est_2\/scale_est_2ort_solver\/truediv_33" : {
        "k" : 1,
        "w" : 3,
        "n" : 1,
        "_rank" : 1,
        "h" : 1
      },
      "pose_estimator\/StatefulPartitionedCall\/StatefulPartitionedCall\/scale_est_1\/scale_est_1ort_solver\/Tensordot_4\/MatMul" : {
        "k" : 1,
        "w" : 1,
        "n" : 1,
        "_rank" : 2,
        "h" : 3
      },
      "_neg_y_pose_estimator\/StatefulPartitionedCall\/StatefulPartitionedCall\/scale_est_2\/scale_est_2ort_solver\/sub_12" : {
        "k" : 1,
        "w" : 468,
        "n" : 1,
        "_rank" : 2,
        "h" : 3
      },
      "pose_estimator\/StatefulPartitionedCall\/StatefulPartitionedCall\/scale_est_1\/scale_est_1ort_solver\/sub_10" : {
        "k" : 1,
        "w" : 1,
        "n" : 1,
        "_rank" : 0,
        "h" : 1
      },
      "pose_estimator\/StatefulPartitionedCall\/StatefulPartitionedCall\/scale_est_1\/scale_est_1ort_solver\/norm_9\/Squeeze" : {
        "k" : 1,
        "w" : 1,
        "n" : 1,
        "_rank" : 1,
        "h" : 1
      },
      "pose_estimator\/StatefulPartitionedCall\/StatefulPartitionedCall\/scale_est_1\/scale_est_1ort_solver\/Tensordot_16\/Reshape" : {
        "k" : 1,
        "w" : 1,
        "n" : 1,
        "_rank" : 2,
        "h" : 3
      },
      "pose_estimator\/StatefulPartitionedCall\/StatefulPartitionedCall\/scale_est_2\/scale_est_2ort_solver\/Tensordot_24\/Reshape" : {
        "k" : 1,
        "w" : 1,
        "n" : 1,
        "_rank" : 2,
        "h" : 3
      },
      "pose_estimator\/StatefulPartitionedCall\/StatefulPartitionedCall\/scale_est_2\/scale_est_2ort_solver\/matmul_4" : {
        "k" : 1,
        "w" : 3,
        "n" : 1,
        "_rank" : 2,
        "h" : 3
      },
      "pose_estimator\/StatefulPartitionedCall\/StatefulPartitionedCall\/scale_est_1\/scale_est_1ort_solver\/norm_7\/mul" : {
        "k" : 1,
        "w" : 3,
        "n" : 1,
        "_rank" : 1,
        "h" : 1
      },
      "pose_estimator\/StatefulPartitionedCall\/StatefulPartitionedCall\/scale_est_1\/scale_est_1ort_solver\/strided_slice_19" : {
        "k" : 1,
        "w" : 1,
        "n" : 1,
        "_rank" : 0,
        "h" : 1
      },
      "pose_estimator\/StatefulPartitionedCall\/StatefulPartitionedCall\/scale_est_2\/scale_est_2ort_solver\/mul_14" : {
        "k" : 1,
        "w" : 1,
        "n" : 1,
        "_rank" : 0,
        "h" : 1
      },
      "pose_estimator\/StatefulPartitionedCall\/StatefulPartitionedCall\/scale_est_1\/scale_est_1ort_solver\/mul_22" : {
        "k" : 1,
        "w" : 1,
        "n" : 1,
        "_rank" : 0,
        "h" : 1
      },
      "pose_estimator\/StatefulPartitionedCall\/StatefulPartitionedCall\/wort_1\/norm_3\/mul" : {
        "k" : 1,
        "w" : 3,
        "n" : 1,
        "_rank" : 1,
        "h" : 1
      },
      "pose_estimator\/StatefulPartitionedCall\/StatefulPartitionedCall\/wort_1\/strided_slice_22" : {
        "k" : 1,
        "w" : 1,
        "n" : 1,
        "_rank" : 0,
        "h" : 1
      },
      "pose_estimator\/StatefulPartitionedCall\/StatefulPartitionedCall\/wort_1\/GatherV2_1" : {
        "k" : 1,
        "w" : 3,
        "n" : 1,
        "_rank" : 2,
        "h" : 3
      },
      "pose_estimator\/StatefulPartitionedCall\/StatefulPartitionedCall\/scale_est_2\/scale_est_2ort_solver\/Tensordot_11" : {
        "k" : 1,
        "w" : 3,
        "n" : 1,
        "_rank" : 1,
        "h" : 1
      },
      "pose_estimator\/StatefulPartitionedCall\/StatefulPartitionedCall\/scale_est_1\/scale_est_1ort_solver\/norm_4\/mul" : {
        "k" : 1,
        "w" : 3,
        "n" : 1,
        "_rank" : 1,
        "h" : 1
      },
      "pose_estimator\/StatefulPartitionedCall\/StatefulPartitionedCall\/scale_est_1\/scale_est_1ort_solver\/norm_1\/mul" : {
        "k" : 1,
        "w" : 3,
        "n" : 1,
        "_rank" : 1,
        "h" : 1
      },
      "pose_estimator\/StatefulPartitionedCall\/StatefulPartitionedCall\/scale_est_1\/scale_est_1ort_solver\/norm_1\/Squeeze" : {
        "k" : 1,
        "w" : 1,
        "n" : 1,
        "_rank" : 1,
        "h" : 1
      },
      "pose_estimator\/StatefulPartitionedCall\/StatefulPartitionedCall\/wort_1\/Tensordot_14\/MatMul" : {
        "k" : 1,
        "w" : 1,
        "n" : 1,
        "_rank" : 2,
        "h" : 3
      },
      "pose_estimator\/StatefulPartitionedCall\/StatefulPartitionedCall\/scale_est_1\/scale_est_1ort_solver\/norm_30\/mul" : {
        "k" : 1,
        "w" : 3,
        "n" : 1,
        "_rank" : 1,
        "h" : 1
      },
      "pose_estimator\/StatefulPartitionedCall\/StatefulPartitionedCall\/scale_est_1\/scale_est_1ort_solver\/Tensordot_29" : {
        "k" : 1,
        "w" : 3,
        "n" : 1,
        "_rank" : 1,
        "h" : 1
      },
      "pose_estimator\/StatefulPartitionedCall\/StatefulPartitionedCall\/move_rescale_1\/Reshape_1" : {
        "k" : 1,
        "w" : 1,
        "n" : 1,
        "_rank" : 2,
        "h" : 1
      },
      "pose_estimator\/StatefulPartitionedCall\/StatefulPartitionedCall\/wort_1\/norm_17\/mul" : {
        "k" : 1,
        "w" : 3,
        "n" : 1,
        "_rank" : 1,
        "h" : 1
      },
      "pose_estimator\/StatefulPartitionedCall\/StatefulPartitionedCall\/scale_est_2\/scale_est_2ort_solver\/mul_28" : {
        "k" : 1,
        "w" : 3,
        "n" : 1,
        "_rank" : 2,
        "h" : 3
      },
      "pose_estimator\/StatefulPartitionedCall\/StatefulPartitionedCall\/scale_est_1\/scale_est_1ort_solver\/Tensordot_23\/MatMul" : {
        "k" : 1,
        "w" : 1,
        "n" : 1,
        "_rank" : 2,
        "h" : 3
      },
      "pose_estimator\/StatefulPartitionedCall\/StatefulPartitionedCall\/scale_est_1\/scale_est_1ort_solver\/norm_26\/mul" : {
        "k" : 1,
        "w" : 3,
        "n" : 1,
        "_rank" : 1,
        "h" : 1
      },
      "pose_estimator\/StatefulPartitionedCall\/StatefulPartitionedCall\/scale_est_2\/scale_est_2ort_solver\/norm_23\/Sum" : {
        "k" : 1,
        "w" : 1,
        "n" : 1,
        "_rank" : 1,
        "h" : 1
      },
      "pose_estimator\/StatefulPartitionedCall\/StatefulPartitionedCall\/scale_est_2\/scale_est_2ort_solver\/cond_@ssa_version_2" : {
        "k" : 1,
        "w" : 3,
        "n" : 1,
        "_rank" : 2,
        "h" : 3
      },
      "pose_estimator\/StatefulPartitionedCall\/StatefulPartitionedCall\/wort_1\/Tensordot_31" : {
        "k" : 1,
        "w" : 3,
        "n" : 1,
        "_rank" : 1,
        "h" : 1
      },
      "pose_estimator\/StatefulPartitionedCall\/StatefulPartitionedCall\/wort_1\/mul_18" : {
        "k" : 1,
        "w" : 1,
        "n" : 1,
        "_rank" : 0,
        "h" : 1
      },
      "pose_estimator\/StatefulPartitionedCall\/StatefulPartitionedCall\/wort_1\/norm_10\/mul" : {
        "k" : 1,
        "w" : 3,
        "n" : 1,
        "_rank" : 1,
        "h" : 1
      },
      "pose_estimator\/StatefulPartitionedCall\/StatefulPartitionedCall\/wort_1\/norm_4\/Squeeze" : {
        "k" : 1,
        "w" : 1,
        "n" : 1,
        "_rank" : 1,
        "h" : 1
      },
      "pose_estimator\/StatefulPartitionedCall\/StatefulPartitionedCall\/scale_est_2\/scale_est_2ort_solver\/norm_19\/Sum" : {
        "k" : 1,
        "w" : 1,
        "n" : 1,
        "_rank" : 1,
        "h" : 1
      },
      "pose_estimator\/StatefulPartitionedCall\/StatefulPartitionedCall\/wort_1\/norm_12\/Sqrt" : {
        "k" : 1,
        "w" : 1,
        "n" : 1,
        "_rank" : 1,
        "h" : 1
      },
      "pose_estimator\/StatefulPartitionedCall\/StatefulPartitionedCall\/wort_1\/matmul_3" : {
        "k" : 1,
        "w" : 3,
        "n" : 1,
        "_rank" : 2,
        "h" : 3
      },
      "pose_estimator\/StatefulPartitionedCall\/StatefulPartitionedCall\/scale_est_2\/scale_est_2ort_solver\/Tensordot_25\/Reshape" : {
        "k" : 1,
        "w" : 1,
        "n" : 1,
        "_rank" : 2,
        "h" : 3
      },
      "pose_estimator\/StatefulPartitionedCall\/StatefulPartitionedCall\/scale_est_1\/scale_est_1ort_solver\/matmul_1" : {
        "k" : 1,
        "w" : 3,
        "n" : 1,
        "_rank" : 2,
        "h" : 3
      },
      "pose_estimator\/StatefulPartitionedCall\/StatefulPartitionedCall\/scale_est_1\/scale_est_1ort_solver\/norm_12\/Squeeze" : {
        "k" : 1,
        "w" : 1,
        "n" : 1,
        "_rank" : 1,
        "h" : 1
      },
      "pose_estimator\/StatefulPartitionedCall\/StatefulPartitionedCall\/scale_est_2\/scale_est_2ort_solver\/Tensordot_1\/Reshape" : {
        "k" : 1,
        "w" : 1,
        "n" : 1,
        "_rank" : 2,
        "h" : 3
      },
      "_neg_y_pose_estimator\/StatefulPartitionedCall\/StatefulPartitionedCall\/scale_est_2\/scale_est_2ort_solver\/sub_2" : {
        "k" : 1,
        "w" : 3,
        "n" : 1,
        "_rank" : 2,
        "h" : 3
      },
      "pose_estimator\/StatefulPartitionedCall\/StatefulPartitionedCall\/scale_est_1\/scale_est_1ort_solver\/sub_1" : {
        "k" : 1,
        "w" : 3,
        "n" : 1,
        "_rank" : 2,
        "h" : 3
      },
      "pose_estimator\/StatefulPartitionedCall\/StatefulPartitionedCall\/scale_est_1\/scale_est_1ort_solver\/truediv_13" : {
        "k" : 1,
        "w" : 3,
        "n" : 1,
        "_rank" : 1,
        "h" : 1
      },
      "pose_estimator\/StatefulPartitionedCall\/StatefulPartitionedCall\/wort_1\/norm_23\/Sqrt" : {
        "k" : 1,
        "w" : 1,
        "n" : 1,
        "_rank" : 1,
        "h" : 1
      },
      "pose_estimator\/StatefulPartitionedCall\/StatefulPartitionedCall\/wort_1\/truediv_18" : {
        "k" : 1,
        "w" : 3,
        "n" : 1,
        "_rank" : 1,
        "h" : 1
      },
      "pose_estimator\/StatefulPartitionedCall\/StatefulPartitionedCall\/wort_1\/norm_26\/mul" : {
        "k" : 1,
        "w" : 3,
        "n" : 1,
        "_rank" : 1,
        "h" : 1
      },
      "pose_estimator\/StatefulPartitionedCall\/StatefulPartitionedCall\/scale_est_1\/scale_est_1ort_solver\/norm_16\/Squeeze" : {
        "k" : 1,
        "w" : 1,
        "n" : 1,
        "_rank" : 1,
        "h" : 1
      },
      "pose_estimator\/StatefulPartitionedCall\/StatefulPartitionedCall\/scale_est_1\/scale_est_1ort_solver\/truediv_32" : {
        "k" : 1,
        "w" : 3,
        "n" : 1,
        "_rank" : 1,
        "h" : 1
      },
      "pose_estimator\/StatefulPartitionedCall\/StatefulPartitionedCall\/unproj_1\/mul" : {
        "k" : 1,
        "w" : 468,
        "n" : 1,
        "_rank" : 1,
        "h" : 1
      },
      "pose_estimator\/StatefulPartitionedCall\/StatefulPartitionedCall\/scale_est_1\/scale_est_1ort_solver\/norm_13\/Sum" : {
        "k" : 1,
        "w" : 1,
        "n" : 1,
        "_rank" : 1,
        "h" : 1
      },
      "pose_estimator\/StatefulPartitionedCall\/StatefulPartitionedCall\/wort_1\/cond" : {
        "k" : 1,
        "w" : 3,
        "n" : 1,
        "_rank" : 2,
        "h" : 3
      },
      "pose_estimator\/StatefulPartitionedCall\/StatefulPartitionedCall\/scale_est_2\/scale_est_2ort_solver\/truediv_8" : {
        "k" : 1,
        "w" : 3,
        "n" : 1,
        "_rank" : 1,
        "h" : 1
      },
      "pose_estimator\/StatefulPartitionedCall\/StatefulPartitionedCall\/scale_est_2\/scale_est_2ort_solver\/Tensordot_2\/MatMul" : {
        "k" : 1,
        "w" : 1,
        "n" : 1,
        "_rank" : 2,
        "h" : 3
      },
      "pose_estimator\/StatefulPartitionedCall\/StatefulPartitionedCall\/scale_est_1\/scale_est_1ort_solver\/norm_28\/Sqrt" : {
        "k" : 1,
        "w" : 1,
        "n" : 1,
        "_rank" : 1,
        "h" : 1
      },
      "pose_estimator\/StatefulPartitionedCall\/StatefulPartitionedCall\/scale_est_1\/scale_est_1ort_solver\/norm_30\/Sqrt" : {
        "k" : 1,
        "w" : 1,
        "n" : 1,
        "_rank" : 1,
        "h" : 1
      },
      "pose_estimator\/StatefulPartitionedCall\/StatefulPartitionedCall\/wort_1\/Tensordot_20\/Reshape" : {
        "k" : 1,
        "w" : 1,
        "n" : 1,
        "_rank" : 2,
        "h" : 3
      },
      "pose_estimator\/StatefulPartitionedCall\/StatefulPartitionedCall\/scale_est_2\/scale_est_2ort_solver\/Tensordot_20\/Reshape" : {
        "k" : 1,
        "w" : 1,
        "n" : 1,
        "_rank" : 2,
        "h" : 3
      },
      "pose_estimator\/StatefulPartitionedCall\/StatefulPartitionedCall\/scale_est_1\/scale_est_1ort_solver\/sub_11" : {
        "k" : 1,
        "w" : 1,
        "n" : 1,
        "_rank" : 0,
        "h" : 1
      },
      "pose_estimator\/StatefulPartitionedCall\/StatefulPartitionedCall\/scale_est_2\/scale_est_2ort_solver\/Tensordot_23\/MatMul" : {
        "k" : 1,
        "w" : 1,
        "n" : 1,
        "_rank" : 2,
        "h" : 3
      },
      "pose_estimator\/StatefulPartitionedCall\/StatefulPartitionedCall\/scale_est_2\/scale_est_2ort_solver\/Tensordot_18\/MatMul" : {
        "k" : 1,
        "w" : 1,
        "n" : 1,
        "_rank" : 2,
        "h" : 3
      },
      "pose_estimator\/StatefulPartitionedCall\/StatefulPartitionedCall\/scale_est_2\/scale_est_2ort_solver\/Tensordot_23" : {
        "k" : 1,
        "w" : 3,
        "n" : 1,
        "_rank" : 1,
        "h" : 1
      },
      "pose_estimator\/StatefulPartitionedCall\/StatefulPartitionedCall\/scale_est_2\/scale_est_2ort_solver\/norm_1\/Sqrt" : {
        "k" : 1,
        "w" : 1,
        "n" : 1,
        "_rank" : 1,
        "h" : 1
      },
      "pose_estimator\/StatefulPartitionedCall\/StatefulPartitionedCall\/wort_1\/Tensordot_29\/MatMul" : {
        "k" : 1,
        "w" : 1,
        "n" : 1,
        "_rank" : 2,
        "h" : 3
      },
      "pose_estimator\/StatefulPartitionedCall\/StatefulPartitionedCall\/wort_1\/truediv_6" : {
        "k" : 1,
        "w" : 3,
        "n" : 1,
        "_rank" : 1,
        "h" : 1
      },
      "pose_estimator\/StatefulPartitionedCall\/StatefulPartitionedCall\/scale_est_2\/scale_est_2ort_solver\/mul_15" : {
        "k" : 1,
        "w" : 1,
        "n" : 1,
        "_rank" : 0,
        "h" : 1
      },
      "pose_estimator\/StatefulPartitionedCall\/StatefulPartitionedCall\/scale_est_2\/scale_est_2ort_solver\/norm_24\/Sqrt" : {
        "k" : 1,
        "w" : 1,
        "n" : 1,
        "_rank" : 1,
        "h" : 1
      },
      "pose_estimator\/StatefulPartitionedCall\/StatefulPartitionedCall\/scale_est_2\/scale_est_2ort_solver\/Tensordot_26\/Reshape" : {
        "k" : 1,
        "w" : 1,
        "n" : 1,
        "_rank" : 2,
        "h" : 3
      },
      "pose_estimator\/StatefulPartitionedCall\/StatefulPartitionedCall\/scale_est_1\/scale_est_1ort_solver\/mul_23" : {
        "k" : 1,
        "w" : 1,
        "n" : 1,
        "_rank" : 0,
        "h" : 1
      },
      "pose_estimator\/StatefulPartitionedCall\/StatefulPartitionedCall\/scale_est_1\/scale_est_1ort_solver\/Tensordot_16" : {
        "k" : 1,
        "w" : 3,
        "n" : 1,
        "_rank" : 1,
        "h" : 1
      },
      "pose_estimator\/StatefulPartitionedCall\/StatefulPartitionedCall\/scale_est_1\/scale_est_1ort_solver\/sub_2" : {
        "k" : 1,
        "w" : 3,
        "n" : 1,
        "_rank" : 2,
        "h" : 3
      },
      "pose_estimator\/StatefulPartitionedCall\/StatefulPartitionedCall\/scale_est_2\/scale_est_2ort_solver\/truediv_27" : {
        "k" : 1,
        "w" : 3,
        "n" : 1,
        "_rank" : 1,
        "h" : 1
      },
      "pose_estimator\/StatefulPartitionedCall\/StatefulPartitionedCall\/wort_1\/Tensordot_6\/Reshape" : {
        "k" : 1,
        "w" : 1,
        "n" : 1,
        "_rank" : 2,
        "h" : 3
      },
      "pose_estimator\/StatefulPartitionedCall\/StatefulPartitionedCall\/scale_est_1\/scale_est_1ort_solver\/norm_19\/Sqrt" : {
        "k" : 1,
        "w" : 1,
        "n" : 1,
        "_rank" : 1,
        "h" : 1
      },
      "pose_estimator\/StatefulPartitionedCall\/StatefulPartitionedCall\/scale_est_1\/scale_est_1ort_solver\/norm_21\/Sqrt" : {
        "k" : 1,
        "w" : 1,
        "n" : 1,
        "_rank" : 1,
        "h" : 1
      },
      "_neg_y_pose_estimator\/StatefulPartitionedCall\/StatefulPartitionedCall\/wort_1\/sub_2" : {
        "k" : 1,
        "w" : 3,
        "n" : 1,
        "_rank" : 2,
        "h" : 3
      },
      "pose_estimator\/StatefulPartitionedCall\/StatefulPartitionedCall\/scale_est_1\/scale_est_1ort_solver\/Tensordot_20\/Reshape" : {
        "k" : 1,
        "w" : 1,
        "n" : 1,
        "_rank" : 2,
        "h" : 3
      },
      "pose_estimator\/StatefulPartitionedCall\/StatefulPartitionedCall\/scale_est_1\/scale_est_1ort_solver\/Tensordot_4" : {
        "k" : 1,
        "w" : 3,
        "n" : 1,
        "_rank" : 1,
        "h" : 1
      },
      "pose_estimator\/StatefulPartitionedCall\/StatefulPartitionedCall\/scale_est_1\/scale_est_1ort_solver\/truediv_8" : {
        "k" : 1,
        "w" : 3,
        "n" : 1,
        "_rank" : 1,
        "h" : 1
      },
      "pose_estimator\/StatefulPartitionedCall\/StatefulPartitionedCall\/scale_est_2\/scale_est_2ort_solver\/norm_8\/Sqrt" : {
        "k" : 1,
        "w" : 1,
        "n" : 1,
        "_rank" : 1,
        "h" : 1
      },
      "pose_estimator\/StatefulPartitionedCall\/StatefulPartitionedCall\/scale_est_2\/scale_est_2ort_solver\/mul_29" : {
        "k" : 1,
        "w" : 468,
        "n" : 1,
        "_rank" : 2,
        "h" : 3
      },
      "pose_estimator\/StatefulPartitionedCall\/StatefulPartitionedCall\/wort_1\/norm_8\/Squeeze" : {
        "k" : 1,
        "w" : 1,
        "n" : 1,
        "_rank" : 1,
        "h" : 1
      },
      "pose_estimator\/StatefulPartitionedCall\/StatefulPartitionedCall\/scale_est_2\/scale_est_2ort_solver\/norm_15\/Sqrt" : {
        "k" : 1,
        "w" : 1,
        "n" : 1,
        "_rank" : 1,
        "h" : 1
      },
      "pose_estimator\/StatefulPartitionedCall\/StatefulPartitionedCall\/scale_est_2\/scale_est_2ort_solver\/Tensordot_5\/Reshape" : {
        "k" : 1,
        "w" : 1,
        "n" : 1,
        "_rank" : 2,
        "h" : 3
      },
      "pose_estimator\/StatefulPartitionedCall\/StatefulPartitionedCall\/scale_est_2\/scale_est_2ort_solver\/norm_10\/Squeeze" : {
        "k" : 1,
        "w" : 1,
        "n" : 1,
        "_rank" : 1,
        "h" : 1
      },
      "pose_estimator\/StatefulPartitionedCall\/StatefulPartitionedCall\/wort_1\/Tensordot_16\/MatMul" : {
        "k" : 1,
        "w" : 1,
        "n" : 1,
        "_rank" : 2,
        "h" : 3
      },
      "pose_estimator\/StatefulPartitionedCall\/StatefulPartitionedCall\/scale_est_2\/scale_est_2ort_solver\/norm_23\/mul" : {
        "k" : 1,
        "w" : 3,
        "n" : 1,
        "_rank" : 1,
        "h" : 1
      },
      "pose_estimator\/StatefulPartitionedCall\/StatefulPartitionedCall\/scale_est_2\/scale_est_2ort_solver\/truediv_10" : {
        "k" : 1,
        "w" : 3,
        "n" : 1,
        "_rank" : 1,
        "h" : 1
      },
      "pose_estimator\/StatefulPartitionedCall\/StatefulPartitionedCall\/scale_est_2\/scale_est_2ort_solver\/Tensordot_21\/Reshape" : {
        "k" : 1,
        "w" : 1,
        "n" : 1,
        "_rank" : 2,
        "h" : 3
      },
      "pose_estimator\/StatefulPartitionedCall\/StatefulPartitionedCall\/scale_est_1\/scale_est_1ort_solver\/norm_20\/Squeeze" : {
        "k" : 1,
        "w" : 1,
        "n" : 1,
        "_rank" : 1,
        "h" : 1
      },
      "pose_estimator\/StatefulPartitionedCall\/StatefulPartitionedCall\/scale_est_2\/scale_est_2ort_solver\/norm_19\/mul" : {
        "k" : 1,
        "w" : 3,
        "n" : 1,
        "_rank" : 1,
        "h" : 1
      },
      "pose_estimator\/StatefulPartitionedCall\/StatefulPartitionedCall\/wort_1\/norm_3\/Sum" : {
        "k" : 1,
        "w" : 1,
        "n" : 1,
        "_rank" : 1,
        "h" : 1
      },
      "pose_estimator\/StatefulPartitionedCall\/StatefulPartitionedCall\/scale_est_1\/scale_est_1ort_solver\/norm_12\/Sqrt" : {
        "k" : 1,
        "w" : 1,
        "n" : 1,
        "_rank" : 1,
        "h" : 1
      },
      "pose_estimator\/StatefulPartitionedCall\/StatefulPartitionedCall\/change_handedness_1\/mul" : {
        "k" : 1,
        "w" : 468,
        "n" : 1,
        "_rank" : 2,
        "h" : 3
      },
      "pose_estimator\/StatefulPartitionedCall\/StatefulPartitionedCall\/wort_1\/Tensordot_30\/Reshape" : {
        "k" : 1,
        "w" : 1,
        "n" : 1,
        "_rank" : 2,
        "h" : 3
      },
      "pose_estimator\/StatefulPartitionedCall\/StatefulPartitionedCall\/wort_1\/Sum_1" : {
        "k" : 1,
        "w" : 1,
        "n" : 1,
        "_rank" : 1,
        "h" : 1
      },
      "pose_estimator\/StatefulPartitionedCall\/StatefulPartitionedCall\/scale_est_2\/scale_est_2ort_solver\/norm_14\/Squeeze" : {
        "k" : 1,
        "w" : 1,
        "n" : 1,
        "_rank" : 1,
        "h" : 1
      },
      "pose_estimator\/StatefulPartitionedCall\/StatefulPartitionedCall\/scale_est_2\/scale_est_2ort_solver\/Tensordot_27\/Reshape" : {
        "k" : 1,
        "w" : 1,
        "n" : 1,
        "_rank" : 2,
        "h" : 3
      },
      "pose_estimator\/StatefulPartitionedCall\/StatefulPartitionedCall\/scale_est_1\/scale_est_1ort_solver\/norm_7\/Sqrt" : {
        "k" : 1,
        "w" : 1,
        "n" : 1,
        "_rank" : 1,
        "h" : 1
      },
      "pose_estimator\/StatefulPartitionedCall\/StatefulPartitionedCall\/scale_est_1\/scale_est_1ort_solver\/norm_24\/Squeeze" : {
        "k" : 1,
        "w" : 1,
        "n" : 1,
        "_rank" : 1,
        "h" : 1
      },
      "pose_estimator\/StatefulPartitionedCall\/StatefulPartitionedCall\/unproj_1\/stack" : {
        "k" : 1,
        "w" : 468,
        "n" : 1,
        "_rank" : 2,
        "h" : 3
      },
      "pose_estimator\/StatefulPartitionedCall\/StatefulPartitionedCall\/scale_est_1\/scale_est_1ort_solver\/Tensordot_27\/MatMul" : {
        "k" : 1,
        "w" : 1,
        "n" : 1,
        "_rank" : 2,
        "h" : 3
      },
      "pose_estimator\/StatefulPartitionedCall\/StatefulPartitionedCall\/scale_est_2\/scale_est_2ort_solver\/norm_18\/Squeeze" : {
        "k" : 1,
        "w" : 1,
        "n" : 1,
        "_rank" : 1,
        "h" : 1
      },
      "pose_estimator\/StatefulPartitionedCall\/StatefulPartitionedCall\/scale_est_1\/scale_est_1ort_solver\/norm_13\/mul" : {
        "k" : 1,
        "w" : 3,
        "n" : 1,
        "_rank" : 1,
        "h" : 1
      },
      "pose_estimator\/StatefulPartitionedCall\/StatefulPartitionedCall\/scale_est_1\/scale_est_1ort_solver\/Tensordot_21\/Reshape" : {
        "k" : 1,
        "w" : 1,
        "n" : 1,
        "_rank" : 2,
        "h" : 3
      },
      "pose_estimator\/StatefulPartitionedCall\/StatefulPartitionedCall\/wort_1\/norm_23\/Squeeze" : {
        "k" : 1,
        "w" : 1,
        "n" : 1,
        "_rank" : 1,
        "h" : 1
      },
      "pose_estimator\/StatefulPartitionedCall\/StatefulPartitionedCall\/scale_est_1\/scale_est_1ort_solver\/mul_10" : {
        "k" : 1,
        "w" : 1,
        "n" : 1,
        "_rank" : 0,
        "h" : 1
      },
      "pose_estimator\/StatefulPartitionedCall\/StatefulPartitionedCall\/scale_est_1\/scale_est_1ort_solver\/norm_28\/Squeeze" : {
        "k" : 1,
        "w" : 1,
        "n" : 1,
        "_rank" : 1,
        "h" : 1
      },
      "pose_estimator\/StatefulPartitionedCall\/StatefulPartitionedCall\/wort_1\/Tensordot_20" : {
        "k" : 1,
        "w" : 3,
        "n" : 1,
        "_rank" : 1,
        "h" : 1
      },
      "pose_estimator\/StatefulPartitionedCall\/StatefulPartitionedCall\/scale_est_1\/scale_est_1ort_solver\/concat" : {
        "k" : 1,
        "w" : 4,
        "n" : 1,
        "_rank" : 2,
        "h" : 3
      },
      "pose_estimator\/StatefulPartitionedCall\/StatefulPartitionedCall\/scale_est_1\/scale_est_1ort_solver\/Tensordot_8\/MatMul" : {
        "k" : 1,
        "w" : 1,
        "n" : 1,
        "_rank" : 2,
        "h" : 3
      },
      "pose_estimator\/StatefulPartitionedCall\/StatefulPartitionedCall\/scale_est_2\/scale_est_2ort_solver\/Tensordot_21\/MatMul" : {
        "k" : 1,
        "w" : 3,
        "n" : 1,
        "_rank" : 2,
        "h" : 3
      },
      "pose_estimator\/StatefulPartitionedCall\/StatefulPartitionedCall\/scale_est_2\/scale_est_2ort_solver\/norm_10\/Sum" : {
        "k" : 1,
        "w" : 1,
        "n" : 1,
        "_rank" : 1,
        "h" : 1
      },
      "pose_estimator\/StatefulPartitionedCall\/StatefulPartitionedCall\/wort_1\/norm_16\/Sum" : {
        "k" : 1,
        "w" : 1,
        "n" : 1,
        "_rank" : 1,
        "h" : 1
      },
      "pose_estimator\/StatefulPartitionedCall\/StatefulPartitionedCall\/scale_est_2\/scale_est_2ort_solver\/norm_7\/mul" : {
        "k" : 1,
        "w" : 3,
        "n" : 1,
        "_rank" : 1,
        "h" : 1
      },
      "pose_estimator\/StatefulPartitionedCall\/StatefulPartitionedCall\/scale_est_1\/scale_est_1ort_solver\/sub_12" : {
        "k" : 1,
        "w" : 468,
        "n" : 1,
        "_rank" : 2,
        "h" : 3
      },
      "pose_estimator\/StatefulPartitionedCall\/StatefulPartitionedCall\/scale_est_1\/scale_est_1ort_solver\/truediv_26" : {
        "k" : 1,
        "w" : 3,
        "n" : 1,
        "_rank" : 1,
        "h" : 1
      },
      "pose_estimator\/StatefulPartitionedCall\/StatefulPartitionedCall\/scale_est_1\/scale_est_1ort_solver\/Tensordot_28" : {
        "k" : 1,
        "w" : 3,
        "n" : 1,
        "_rank" : 1,
        "h" : 1
      },
      "pose_estimator\/StatefulPartitionedCall\/StatefulPartitionedCall\/scale_est_2\/scale_est_2ort_solver\/norm_32\/Sum" : {
        "k" : 1,
        "w" : 1,
        "n" : 1,
        "_rank" : 1,
        "h" : 1
      },
      "pose_estimator\/StatefulPartitionedCall\/StatefulPartitionedCall\/scale_est_2\/scale_est_2ort_solver\/norm_4\/mul" : {
        "k" : 1,
        "w" : 3,
        "n" : 1,
        "_rank" : 1,
        "h" : 1
      },
      "pose_estimator\/StatefulPartitionedCall\/StatefulPartitionedCall\/scale_est_2\/scale_est_2ort_solver\/strided_slice_31" : {
        "k" : 1,
        "w" : 1,
        "n" : 1,
        "_rank" : 0,
        "h" : 1
      },
      "pose_estimator\/StatefulPartitionedCall\/StatefulPartitionedCall\/wort_1\/strided_slice_25" : {
        "k" : 1,
        "w" : 1,
        "n" : 1,
        "_rank" : 0,
        "h" : 1
      },
      "pose_estimator\/StatefulPartitionedCall\/StatefulPartitionedCall\/scale_est_2\/scale_est_2ort_solver\/norm_28\/Sum" : {
        "k" : 1,
        "w" : 1,
        "n" : 1,
        "_rank" : 1,
        "h" : 1
      },
      "pose_estimator\/StatefulPartitionedCall\/StatefulPartitionedCall\/scale_est_2\/scale_est_2ort_solver\/mul_16" : {
        "k" : 1,
        "w" : 1,
        "n" : 1,
        "_rank" : 0,
        "h" : 1
      },
      "pose_estimator\/StatefulPartitionedCall\/StatefulPartitionedCall\/scale_est_2\/scale_est_2ort_solver\/norm_1\/mul" : {
        "k" : 1,
        "w" : 3,
        "n" : 1,
        "_rank" : 1,
        "h" : 1
      },
      "pose_estimator\/StatefulPartitionedCall\/StatefulPartitionedCall\/scale_est_1\/scale_est_1ort_solver\/mul_24" : {
        "k" : 1,
        "w" : 1,
        "n" : 1,
        "_rank" : 0,
        "h" : 1
      },
      "pose_estimator\/StatefulPartitionedCall\/StatefulPartitionedCall\/scale_est_1\/scale_est_1ort_solver\/sub_4" : {
        "k" : 1,
        "w" : 1,
        "n" : 1,
        "_rank" : 0,
        "h" : 1
      },
      "pose_estimator\/StatefulPartitionedCall\/StatefulPartitionedCall\/wort_1\/mul_16" : {
        "k" : 1,
        "w" : 1,
        "n" : 1,
        "_rank" : 0,
        "h" : 1
      },
      "_neg_y_pose_estimator\/StatefulPartitionedCall\/StatefulPartitionedCall\/scale_est_1\/scale_est_1ort_solver\/sub_2" : {
        "k" : 1,
        "w" : 3,
        "n" : 1,
        "_rank" : 2,
        "h" : 3
      },
      "pose_estimator\/StatefulPartitionedCall\/StatefulPartitionedCall\/scale_est_2\/scale_est_2ort_solver\/Tensordot_28\/Reshape" : {
        "k" : 1,
        "w" : 1,
        "n" : 1,
        "_rank" : 2,
        "h" : 3
      },
      "pose_estimator\/StatefulPartitionedCall\/StatefulPartitionedCall\/scale_est_2\/scale_est_2ort_solver\/strided_slice_22" : {
        "k" : 1,
        "w" : 1,
        "n" : 1,
        "_rank" : 0,
        "h" : 1
      },
      "pose_estimator\/StatefulPartitionedCall\/StatefulPartitionedCall\/wort_1\/norm_9\/Sqrt" : {
        "k" : 1,
        "w" : 1,
        "n" : 1,
        "_rank" : 1,
        "h" : 1
      },
      "_neg_y_pose_estimator\/StatefulPartitionedCall\/StatefulPartitionedCall\/wort_1\/sub_4" : {
        "k" : 1,
        "w" : 1,
        "n" : 1,
        "_rank" : 0,
        "h" : 1
      },
      "transpose_1" : {
        "k" : 1,
        "w" : 3,
        "n" : 1,
        "_rank" : 2,
        "h" : 3
      },
      "_neg_y_pose_estimator\/StatefulPartitionedCall\/StatefulPartitionedCall\/scale_est_2\/scale_est_2ort_solver\/sub_1" : {
        "k" : 1,
        "w" : 3,
        "n" : 1,
        "_rank" : 2,
        "h" : 3
      },
      "pose_estimator\/StatefulPartitionedCall\/StatefulPartitionedCall\/wort_1\/norm_25\/Sum" : {
        "k" : 1,
        "w" : 1,
        "n" : 1,
        "_rank" : 1,
        "h" : 1
      },
      "pose_estimator\/StatefulPartitionedCall\/StatefulPartitionedCall\/scale_est_2\/scale_est_2ort_solver\/Tensordot_9\/Reshape" : {
        "k" : 1,
        "w" : 1,
        "n" : 1,
        "_rank" : 2,
        "h" : 3
      },
      "pose_estimator\/StatefulPartitionedCall\/StatefulPartitionedCall\/scale_est_2\/scale_est_2ort_solver\/strided_slice_13" : {
        "k" : 1,
        "w" : 1,
        "n" : 1,
        "_rank" : 0,
        "h" : 1
      },
      "pose_estimator\/StatefulPartitionedCall\/StatefulPartitionedCall\/scale_est_1\/scale_est_1ort_solver\/norm_18\/Sum" : {
        "k" : 1,
        "w" : 1,
        "n" : 1,
        "_rank" : 1,
        "h" : 1
      },
      "pose_estimator\/StatefulPartitionedCall\/StatefulPartitionedCall\/Mean_presqueeze" : {
        "k" : 1,
        "w" : 1,
        "n" : 1,
        "_rank" : 1,
        "h" : 1
      },
      "pose_estimator\/StatefulPartitionedCall\/StatefulPartitionedCall\/scale_est_2\/scale_est_2ort_solver\/strided_slice_8" : {
        "k" : 1,
        "w" : 1,
        "n" : 1,
        "_rank" : 0,
        "h" : 1
      },
      "pose_estimator\/StatefulPartitionedCall\/StatefulPartitionedCall\/wort_1\/truediv_36" : {
        "k" : 1,
        "w" : 3,
        "n" : 1,
        "_rank" : 1,
        "h" : 1
      },
      "pose_estimator\/StatefulPartitionedCall\/StatefulPartitionedCall\/scale_est_2\/scale_est_2ort_solver\/norm_7\/Squeeze" : {
        "k" : 1,
        "w" : 1,
        "n" : 1,
        "_rank" : 1,
        "h" : 1
      },
      "pose_estimator\/StatefulPartitionedCall\/StatefulPartitionedCall\/scale_est_1\/scale_est_1ort_solver\/strided_slice_7" : {
        "k" : 1,
        "w" : 1,
        "n" : 1,
        "_rank" : 0,
        "h" : 1
      },
      "pose_estimator\/StatefulPartitionedCall\/StatefulPartitionedCall\/scale_est_2\/scale_est_2ort_solver\/Tensordot_23\/Reshape" : {
        "k" : 1,
        "w" : 1,
        "n" : 1,
        "_rank" : 2,
        "h" : 3
      },
      "pose_estimator\/StatefulPartitionedCall\/StatefulPartitionedCall\/wort_1\/norm_6\/mul" : {
        "k" : 1,
        "w" : 3,
        "n" : 1,
        "_rank" : 1,
        "h" : 1
      },
      "pose_estimator\/StatefulPartitionedCall\/StatefulPartitionedCall\/scale_est_1\/scale_est_1ort_solver\/Tensordot_30\/MatMul" : {
        "k" : 1,
        "w" : 1,
        "n" : 1,
        "_rank" : 2,
        "h" : 3
      },
      "pose_estimator\/StatefulPartitionedCall\/StatefulPartitionedCall\/scale_est_1\/scale_est_1ort_solver\/norm_32\/Squeeze" : {
        "k" : 1,
        "w" : 1,
        "n" : 1,
        "_rank" : 1,
        "h" : 1
      },
      "pose_estimator\/StatefulPartitionedCall\/StatefulPartitionedCall\/wort_1\/truediv_9" : {
        "k" : 1,
        "w" : 3,
        "n" : 1,
        "_rank" : 1,
        "h" : 1
      },
      "pose_estimator\/StatefulPartitionedCall\/StatefulPartitionedCall\/wort_1\/Tensordot_4" : {
        "k" : 1,
        "w" : 3,
        "n" : 1,
        "_rank" : 1,
        "h" : 1
      },
      "pose_estimator\/StatefulPartitionedCall\/StatefulPartitionedCall\/scale_est_1\/scale_est_1ort_solver\/sub_5" : {
        "k" : 1,
        "w" : 1,
        "n" : 1,
        "_rank" : 0,
        "h" : 1
      },
      "pose_estimator\/StatefulPartitionedCall\/StatefulPartitionedCall\/wort_1\/strided_slice_13" : {
        "k" : 1,
        "w" : 1,
        "n" : 1,
        "_rank" : 0,
        "h" : 1
      },
      "pose_estimator\/StatefulPartitionedCall\/StatefulPartitionedCall\/move_rescale_2\/zeros" : {
        "k" : 1,
        "w" : 1,
        "n" : 1,
        "_rank" : 2,
        "h" : 2
      },
      "pose_estimator\/StatefulPartitionedCall\/StatefulPartitionedCall\/scale_est_2\/scale_est_2ort_solver\/Tensordot_22" : {
        "k" : 1,
        "w" : 3,
        "n" : 1,
        "_rank" : 1,
        "h" : 1
      },
      "pose_estimator\/StatefulPartitionedCall\/StatefulPartitionedCall\/scale_est_2\/scale_est_2ort_solver\/Tensordot_29\/Reshape" : {
        "k" : 1,
        "w" : 1,
        "n" : 1,
        "_rank" : 2,
        "h" : 3
      },
      "pose_estimator\/StatefulPartitionedCall\/StatefulPartitionedCall\/scale_est_1\/scale_est_1ort_solver\/Tensordot_15" : {
        "k" : 1,
        "w" : 3,
        "n" : 1,
        "_rank" : 1,
        "h" : 1
      },
      "pose_estimator\/StatefulPartitionedCall\/StatefulPartitionedCall\/wort_1\/truediv_13" : {
        "k" : 1,
        "w" : 3,
        "n" : 1,
        "_rank" : 1,
        "h" : 1
      },
      "pose_estimator\/StatefulPartitionedCall\/StatefulPartitionedCall\/scale_est_2\/scale_est_2ort_solver\/norm_26\/Squeeze" : {
        "k" : 1,
        "w" : 1,
        "n" : 1,
        "_rank" : 1,
        "h" : 1
      },
      "pose_estimator\/StatefulPartitionedCall\/StatefulPartitionedCall\/wort_1\/mul_29" : {
        "k" : 1,
        "w" : 468,
        "n" : 1,
        "_rank" : 2,
        "h" : 3
      },
      "pose_estimator\/StatefulPartitionedCall\/StatefulPartitionedCall\/wort_1\/norm_10\/Sqrt" : {
        "k" : 1,
        "w" : 1,
        "n" : 1,
        "_rank" : 1,
        "h" : 1
      },
      "pose_estimator\/StatefulPartitionedCall\/StatefulPartitionedCall\/wort_1\/Tensordot_19\/Reshape" : {
        "k" : 1,
        "w" : 1,
        "n" : 1,
        "_rank" : 2,
        "h" : 3
      },
      "pose_estimator\/StatefulPartitionedCall\/StatefulPartitionedCall\/scale_est_1\/scale_est_1ort_solver\/mul_11" : {
        "k" : 1,
        "w" : 1,
        "n" : 1,
        "_rank" : 0,
        "h" : 1
      },
      "pose_estimator\/StatefulPartitionedCall\/StatefulPartitionedCall\/wort_1\/Tensordot_22" : {
        "k" : 1,
        "w" : 3,
        "n" : 1,
        "_rank" : 1,
        "h" : 1
      },
      "pose_estimator\/StatefulPartitionedCall\/StatefulPartitionedCall\/move_rescale_2\/concat_1" : {
        "k" : 1,
        "w" : 1,
        "n" : 1,
        "_rank" : 2,
        "h" : 3
      },
      "pose_estimator\/StatefulPartitionedCall\/StatefulPartitionedCall\/scale_est_1\/scale_est_1ort_solver\/Tensordot_4\/Reshape" : {
        "k" : 1,
        "w" : 1,
        "n" : 1,
        "_rank" : 2,
        "h" : 3
      },
      "pose_estimator\/StatefulPartitionedCall\/StatefulPartitionedCall\/scale_est_1\/scale_est_1ort_solver\/Tensordot_23\/Reshape" : {
        "k" : 1,
        "w" : 1,
        "n" : 1,
        "_rank" : 2,
        "h" : 3
      },
      "pose_estimator\/StatefulPartitionedCall\/StatefulPartitionedCall\/scale_est_2\/scale_est_2ort_solver\/norm_10\/mul" : {
        "k" : 1,
        "w" : 3,
        "n" : 1,
        "_rank" : 1,
        "h" : 1
      },
      "pose_estimator\/StatefulPartitionedCall\/StatefulPartitionedCall\/scale_est_1\/scale_est_1ort_solver\/Tensordot_2" : {
        "k" : 1,
        "w" : 3,
        "n" : 1,
        "_rank" : 1,
        "h" : 1
      },
      "pose_estimator\/StatefulPartitionedCall\/StatefulPartitionedCall\/wort_1\/norm_21\/Sqrt" : {
        "k" : 1,
        "w" : 1,
        "n" : 1,
        "_rank" : 1,
        "h" : 1
      },
      "pose_estimator\/StatefulPartitionedCall\/StatefulPartitionedCall\/unproj_1\/strided_slice_4" : {
        "k" : 1,
        "w" : 468,
        "n" : 1,
        "_rank" : 1,
        "h" : 1
      },
      "pose_estimator\/StatefulPartitionedCall\/StatefulPartitionedCall\/wort_1\/Tensordot_22\/MatMul" : {
        "k" : 1,
        "w" : 1,
        "n" : 1,
        "_rank" : 2,
        "h" : 3
      },
      "pose_estimator\/StatefulPartitionedCall\/StatefulPartitionedCall\/scale_est_2\/scale_est_2ort_solver\/strided_slice_35" : {
        "k" : 1,
        "w" : 1,
        "n" : 1,
        "_rank" : 0,
        "h" : 1
      },
      "pose_estimator\/StatefulPartitionedCall\/StatefulPartitionedCall\/scale_est_2\/scale_est_2ort_solver\/norm_32\/mul" : {
        "k" : 1,
        "w" : 3,
        "n" : 1,
        "_rank" : 1,
        "h" : 1
      },
      "pose_estimator\/StatefulPartitionedCall\/StatefulPartitionedCall\/scale_est_2\/scale_est_2ort_solver\/mul_17" : {
        "k" : 1,
        "w" : 1,
        "n" : 1,
        "_rank" : 0,
        "h" : 1
      },
      "pose_estimator\/StatefulPartitionedCall\/StatefulPartitionedCall\/scale_est_1\/scale_est_1ort_solver\/mul_25" : {
        "k" : 1,
        "w" : 1,
        "n" : 1,
        "_rank" : 0,
        "h" : 1
      }
    },
    "global_shapes" : {

    }
  },
  "subnetworks" : {

  }
}