{
  "layers" : [
    {
      "top" : "model\/tf_op_layer_Pad\/Pad\/paddings",
      "w" : 2,
      "h" : 4,
      "name" : "model\/tf_op_layer_Pad\/Pad\/paddings",
      "nd_rank" : 2,
      "type" : "load_constant",
      "k" : 1,
      "bottom" : "",
      "debug_info" : "model\/tf_op_layer_Pad\/Pad\/paddings",
      "n" : 1,
      "weights" : {

      },
      "constant_blob" : 1
    },
    {
      "top" : "model\/tf_op_layer_Pad_1\/Pad_1\/paddings",
      "w" : 2,
      "h" : 4,
      "name" : "model\/tf_op_layer_Pad_1\/Pad_1\/paddings",
      "nd_rank" : 2,
      "type" : "load_constant",
      "k" : 1,
      "bottom" : "",
      "debug_info" : "model\/tf_op_layer_Pad_1\/Pad_1\/paddings",
      "n" : 1,
      "weights" : {

      },
      "constant_blob" : 3
    },
    {
      "top" : "model\/tf_op_layer_Pad_2\/Pad_2\/paddings",
      "w" : 2,
      "h" : 4,
      "name" : "model\/tf_op_layer_Pad_2\/Pad_2\/paddings",
      "nd_rank" : 2,
      "type" : "load_constant",
      "k" : 1,
      "bottom" : "",
      "debug_info" : "model\/tf_op_layer_Pad_2\/Pad_2\/paddings",
      "n" : 1,
      "weights" : {

      },
      "constant_blob" : 5
    },
    {
      "top" : "model\/tf_op_layer_Pad_3\/Pad_3\/paddings",
      "w" : 2,
      "h" : 4,
      "name" : "model\/tf_op_layer_Pad_3\/Pad_3\/paddings",
      "nd_rank" : 2,
      "type" : "load_constant",
      "k" : 1,
      "bottom" : "",
      "debug_info" : "model\/tf_op_layer_Pad_3\/Pad_3\/paddings",
      "n" : 1,
      "weights" : {

      },
      "constant_blob" : 7
    },
    {
      "top" : "model\/tf_op_layer_Pad_4\/Pad_4\/paddings",
      "w" : 2,
      "h" : 4,
      "name" : "model\/tf_op_layer_Pad_4\/Pad_4\/paddings",
      "nd_rank" : 2,
      "type" : "load_constant",
      "k" : 1,
      "bottom" : "",
      "debug_info" : "model\/tf_op_layer_Pad_4\/Pad_4\/paddings",
      "n" : 1,
      "weights" : {

      },
      "constant_blob" : 9
    },
    {
      "top" : "model\/tf_op_layer_Pad_5\/Pad_5\/paddings",
      "w" : 2,
      "h" : 4,
      "name" : "model\/tf_op_layer_Pad_5\/Pad_5\/paddings",
      "nd_rank" : 2,
      "type" : "load_constant",
      "k" : 1,
      "bottom" : "",
      "debug_info" : "model\/tf_op_layer_Pad_5\/Pad_5\/paddings",
      "n" : 1,
      "weights" : {

      },
      "constant_blob" : 11
    },
    {
      "top" : "model\/tf_op_layer_Pad_6\/Pad_6\/paddings",
      "w" : 2,
      "h" : 4,
      "name" : "model\/tf_op_layer_Pad_6\/Pad_6\/paddings",
      "nd_rank" : 2,
      "type" : "load_constant",
      "k" : 1,
      "bottom" : "",
      "debug_info" : "model\/tf_op_layer_Pad_6\/Pad_6\/paddings",
      "n" : 1,
      "weights" : {

      },
      "constant_blob" : 13
    },
    {
      "top" : "model\/tf_op_layer_Pad_7\/Pad_7\/paddings",
      "w" : 2,
      "h" : 4,
      "name" : "model\/tf_op_layer_Pad_7\/Pad_7\/paddings",
      "nd_rank" : 2,
      "type" : "load_constant",
      "k" : 1,
      "bottom" : "",
      "debug_info" : "model\/tf_op_layer_Pad_7\/Pad_7\/paddings",
      "n" : 1,
      "weights" : {

      },
      "constant_blob" : 15
    },
    {
      "top" : "model\/tf_op_layer_Pad_8\/Pad_8\/paddings",
      "w" : 2,
      "h" : 4,
      "name" : "model\/tf_op_layer_Pad_8\/Pad_8\/paddings",
      "nd_rank" : 2,
      "type" : "load_constant",
      "k" : 1,
      "bottom" : "",
      "debug_info" : "model\/tf_op_layer_Pad_8\/Pad_8\/paddings",
      "n" : 1,
      "weights" : {

      },
      "constant_blob" : 17
    },
    {
      "top" : "model\/tf_op_layer_Pad_9\/Pad_9\/paddings",
      "w" : 2,
      "h" : 4,
      "name" : "model\/tf_op_layer_Pad_9\/Pad_9\/paddings",
      "nd_rank" : 2,
      "type" : "load_constant",
      "k" : 1,
      "bottom" : "",
      "debug_info" : "model\/tf_op_layer_Pad_9\/Pad_9\/paddings",
      "n" : 1,
      "weights" : {

      },
      "constant_blob" : 19
    },
    {
      "top" : "model\/tf_op_layer_AddV2\/AddV2\/y",
      "w" : 2,
      "h" : 1,
      "name" : "model\/tf_op_layer_AddV2\/AddV2\/y",
      "nd_rank" : 4,
      "type" : "load_constant",
      "k" : 16,
      "bottom" : "",
      "debug_info" : "model\/tf_op_layer_AddV2\/AddV2\/y",
      "n" : 16,
      "weights" : {

      },
      "constant_blob" : 21
    },
    {
      "top" : "model\/tf_op_layer_AddV2_1\/AddV2_1\/y",
      "w" : 12,
      "h" : 1,
      "name" : "model\/tf_op_layer_AddV2_1\/AddV2_1\/y",
      "nd_rank" : 4,
      "type" : "load_constant",
      "k" : 16,
      "bottom" : "",
      "debug_info" : "model\/tf_op_layer_AddV2_1\/AddV2_1\/y",
      "n" : 16,
      "weights" : {

      },
      "constant_blob" : 23
    },
    {
      "top" : "model\/tf_op_layer_Pad_10\/Pad_10\/paddings",
      "w" : 2,
      "h" : 4,
      "name" : "model\/tf_op_layer_Pad_10\/Pad_10\/paddings",
      "nd_rank" : 2,
      "type" : "load_constant",
      "k" : 1,
      "bottom" : "",
      "debug_info" : "model\/tf_op_layer_Pad_10\/Pad_10\/paddings",
      "n" : 1,
      "weights" : {

      },
      "constant_blob" : 25
    },
    {
      "top" : "model\/tf_op_layer_AddV2_2\/AddV2_2\/y",
      "w" : 2,
      "h" : 1,
      "name" : "model\/tf_op_layer_AddV2_2\/AddV2_2\/y",
      "nd_rank" : 4,
      "type" : "load_constant",
      "k" : 8,
      "bottom" : "",
      "debug_info" : "model\/tf_op_layer_AddV2_2\/AddV2_2\/y",
      "n" : 8,
      "weights" : {

      },
      "constant_blob" : 27
    },
    {
      "top" : "model\/tf_op_layer_AddV2_3\/AddV2_3\/y",
      "w" : 12,
      "h" : 1,
      "name" : "model\/tf_op_layer_AddV2_3\/AddV2_3\/y",
      "nd_rank" : 4,
      "type" : "load_constant",
      "k" : 8,
      "bottom" : "",
      "debug_info" : "model\/tf_op_layer_AddV2_3\/AddV2_3\/y",
      "n" : 8,
      "weights" : {

      },
      "constant_blob" : 29
    },
    {
      "top" : "model\/tf_op_layer_Minimum\/Minimum\/y",
      "w" : 1,
      "h" : 1,
      "name" : "model\/tf_op_layer_Minimum\/Minimum\/y",
      "nd_rank" : 1,
      "type" : "load_constant",
      "k" : 1,
      "bottom" : "",
      "debug_info" : "model\/tf_op_layer_Minimum\/Minimum\/y",
      "n" : 1,
      "weights" : {

      },
      "constant_blob" : 31
    },
    {
      "top" : "model\/tf_op_layer_Maximum\/Maximum\/y",
      "w" : 1,
      "h" : 1,
      "name" : "model\/tf_op_layer_Maximum\/Maximum\/y",
      "nd_rank" : 1,
      "type" : "load_constant",
      "k" : 1,
      "bottom" : "",
      "debug_info" : "model\/tf_op_layer_Maximum\/Maximum\/y",
      "n" : 1,
      "weights" : {

      },
      "constant_blob" : 33
    },
    {
      "pad_r" : 0,
      "fused_relu" : 1,
      "fused_tanh" : 0,
      "debug_info" : "model\/conv2d\/Conv2D",
      "pad_fill_mode" : 0,
      "pad_b" : 0,
      "pad_l" : 0,
      "top" : "model\/re_lu\/Relu",
      "blob_weights" : 37,
      "K" : 3,
      "blob_biases" : 35,
      "stride_x" : 2,
      "name" : "model\/conv2d\/Conv2D",
      "has_batch_norm" : 0,
      "type" : "convolution",
      "n_groups" : 1,
      "pad_t" : 0,
      "stride_y" : 2,
      "has_biases" : 1,
      "C" : 24,
      "bottom" : "input_image",
      "weights" : {

      },
      "Nx" : 5,
      "pad_mode" : 1,
      "pad_value" : 0,
      "Ny" : 5,
      "n_parallel" : 1
    },
    {
      "pad_r" : 0,
      "fused_relu" : 0,
      "fused_tanh" : 0,
      "debug_info" : "model\/depthwise_conv2d\/depthwise",
      "pad_fill_mode" : 0,
      "pad_b" : 0,
      "pad_l" : 0,
      "top" : "model\/depthwise_conv2d\/depthwise",
      "blob_weights" : 41,
      "K" : 24,
      "blob_biases" : 39,
      "name" : "model\/depthwise_conv2d\/depthwise",
      "has_batch_norm" : 0,
      "type" : "convolution",
      "n_groups" : 24,
      "pad_t" : 0,
      "has_biases" : 1,
      "C" : 24,
      "bottom" : "model\/re_lu\/Relu",
      "weights" : {

      },
      "Nx" : 3,
      "pad_mode" : 1,
      "pad_value" : 0,
      "Ny" : 3,
      "n_parallel" : 1
    },
    {
      "pad_r" : 0,
      "fused_relu" : 0,
      "fused_tanh" : 0,
      "debug_info" : "model\/conv2d_1\/Conv2D",
      "pad_fill_mode" : 0,
      "pad_b" : 0,
      "pad_l" : 0,
      "top" : "model\/conv2d_1\/Conv2D",
      "blob_weights" : 45,
      "K" : 24,
      "blob_biases" : 43,
      "name" : "model\/conv2d_1\/Conv2D",
      "has_batch_norm" : 0,
      "type" : "convolution",
      "n_groups" : 1,
      "pad_t" : 0,
      "has_biases" : 1,
      "C" : 24,
      "bottom" : "model\/depthwise_conv2d\/depthwise",
      "weights" : {

      },
      "Nx" : 1,
      "pad_mode" : 0,
      "pad_value" : 0,
      "Ny" : 1,
      "n_parallel" : 1
    },
    {
      "bottom" : "model\/conv2d_1\/Conv2D,model\/re_lu\/Relu",
      "alpha" : 1,
      "operation" : 0,
      "weights" : {

      },
      "fused_relu" : 0,
      "debug_info" : "model\/add\/add",
      "top" : "model\/add\/add",
      "type" : "elementwise",
      "name" : "model\/add\/add",
      "beta" : 0
    },
    {
      "bottom" : "model\/add\/add",
      "weights" : {

      },
      "mode" : 0,
      "debug_info" : "model\/re_lu_1\/Relu",
      "top" : "model\/re_lu_1\/Relu",
      "type" : "activation",
      "name" : "model\/re_lu_1\/Relu"
    },
    {
      "pad_r" : 0,
      "fused_relu" : 0,
      "fused_tanh" : 0,
      "debug_info" : "model\/depthwise_conv2d_1\/depthwise",
      "pad_fill_mode" : 0,
      "pad_b" : 0,
      "pad_l" : 0,
      "top" : "model\/depthwise_conv2d_1\/depthwise",
      "blob_weights" : 49,
      "K" : 24,
      "blob_biases" : 47,
      "name" : "model\/depthwise_conv2d_1\/depthwise",
      "has_batch_norm" : 0,
      "type" : "convolution",
      "n_groups" : 24,
      "pad_t" : 0,
      "has_biases" : 1,
      "C" : 24,
      "bottom" : "model\/re_lu_1\/Relu",
      "weights" : {

      },
      "Nx" : 3,
      "pad_mode" : 1,
      "pad_value" : 0,
      "Ny" : 3,
      "n_parallel" : 1
    },
    {
      "pads_0" : 0,
      "top" : "model\/tf_op_layer_Pad\/Pad",
      "debug_info" : "model\/tf_op_layer_Pad\/Pad",
      "pads_2" : 0,
      "pads_4" : 0,
      "type" : "tensor_zero_pad",
      "pads_6" : 0,
      "pads_8" : 0,
      "pads_10" : 0,
      "value" : 0,
      "pads_11" : 0,
      "pads_12" : 0,
      "pads_13" : 0,
      "pads_20" : 0,
      "pads_14" : 0,
      "name" : "model\/tf_op_layer_Pad\/Pad",
      "pads_22" : 0,
      "pads_21" : 0,
      "pads_23" : 0,
      "nd_mode" : true,
      "pads_24" : 0,
      "pads_17" : 0,
      "pads_32" : 0,
      "pads_18" : 0,
      "pads_33" : 0,
      "pads_19" : 0,
      "pads_34" : 0,
      "pads_27" : 0,
      "pads_28" : 0,
      "pads_42" : 0,
      "pads_43" : 0,
      "pads_29" : 0,
      "pads_37" : 0,
      "pads_41" : 0,
      "pads_38" : 0,
      "pads_31" : 0,
      "pads_39" : 0,
      "pads_36" : 0,
      "pads_40" : 0,
      "pads_26" : 0,
      "pads_16" : 0,
      "pads_30" : 0,
      "pads_45" : 0,
      "pads_35" : 0,
      "pads_25" : 0,
      "pads_15" : 0,
      "pads_1" : 0,
      "pads_44" : 0,
      "pads_46" : 0,
      "pads_3" : 0,
      "pads_47" : 0,
      "pads_48" : 0,
      "pads_5" : 0,
      "pads_49" : 0,
      "pads_50" : 0,
      "pads_7" : 0,
      "pads_51" : 0,
      "pads_52" : 0,
      "pads_9" : 0,
      "pads_53" : 0,
      "pads_54" : 0,
      "pads_55" : 0,
      "pads_56" : 0,
      "pads_57" : 0,
      "pads_58" : 0,
      "pads_59" : 0,
      "pads_60" : 0,
      "pads_61" : 0,
      "pads_62" : 0,
      "pads_63" : 0,
      "weights" : {

      },
      "bottom" : "model\/re_lu_1\/Relu,model\/tf_op_layer_Pad\/Pad\/paddings"
    },
    {
      "pad_r" : 0,
      "fused_relu" : 0,
      "fused_tanh" : 0,
      "debug_info" : "model\/conv2d_2\/Conv2D",
      "pad_fill_mode" : 0,
      "pad_b" : 0,
      "pad_l" : 0,
      "top" : "model\/conv2d_2\/Conv2D",
      "blob_weights" : 53,
      "K" : 24,
      "blob_biases" : 51,
      "name" : "model\/conv2d_2\/Conv2D",
      "has_batch_norm" : 0,
      "type" : "convolution",
      "n_groups" : 1,
      "pad_t" : 0,
      "has_biases" : 1,
      "C" : 28,
      "bottom" : "model\/depthwise_conv2d_1\/depthwise",
      "weights" : {

      },
      "Nx" : 1,
      "pad_mode" : 0,
      "pad_value" : 0,
      "Ny" : 1,
      "n_parallel" : 1
    },
    {
      "bottom" : "model\/conv2d_2\/Conv2D,model\/tf_op_layer_Pad\/Pad",
      "alpha" : 1,
      "operation" : 0,
      "weights" : {

      },
      "fused_relu" : 0,
      "debug_info" : "model\/add_1\/add",
      "top" : "model\/add_1\/add",
      "type" : "elementwise",
      "name" : "model\/add_1\/add",
      "beta" : 0
    },
    {
      "bottom" : "model\/add_1\/add",
      "weights" : {

      },
      "mode" : 0,
      "debug_info" : "model\/re_lu_2\/Relu",
      "top" : "model\/re_lu_2\/Relu",
      "type" : "activation",
      "name" : "model\/re_lu_2\/Relu"
    },
    {
      "pad_r" : 0,
      "fused_relu" : 0,
      "fused_tanh" : 0,
      "debug_info" : "model\/depthwise_conv2d_2\/depthwise",
      "pad_fill_mode" : 0,
      "pad_b" : 0,
      "pad_l" : 0,
      "top" : "model\/depthwise_conv2d_2\/depthwise",
      "blob_weights" : 57,
      "K" : 28,
      "blob_biases" : 55,
      "stride_x" : 2,
      "name" : "model\/depthwise_conv2d_2\/depthwise",
      "has_batch_norm" : 0,
      "type" : "convolution",
      "n_groups" : 28,
      "pad_t" : 0,
      "stride_y" : 2,
      "has_biases" : 1,
      "C" : 28,
      "bottom" : "model\/re_lu_2\/Relu",
      "weights" : {

      },
      "Nx" : 3,
      "pad_mode" : 1,
      "pad_value" : 0,
      "Ny" : 3,
      "n_parallel" : 1
    },
    {
      "pad_r" : 0,
      "debug_info" : "model\/max_pooling2d\/MaxPool",
      "pad_fill_mode" : 0,
      "pad_b" : 0,
      "pad_l" : 0,
      "size_x" : 2,
      "top" : "model\/max_pooling2d\/MaxPool",
      "top_shape_style" : 0,
      "stride_x" : 2,
      "avg_or_max" : 1,
      "average_count_exclude_padding" : 1,
      "type" : "pool",
      "name" : "model\/max_pooling2d\/MaxPool",
      "pad_t" : 0,
      "stride_y" : 2,
      "bottom" : "model\/re_lu_2\/Relu",
      "weights" : {

      },
      "pad_mode" : 2,
      "size_y" : 2,
      "pad_value" : 0
    },
    {
      "pad_r" : 0,
      "fused_relu" : 0,
      "fused_tanh" : 0,
      "debug_info" : "model\/conv2d_3\/Conv2D",
      "pad_fill_mode" : 0,
      "pad_b" : 0,
      "pad_l" : 0,
      "top" : "model\/conv2d_3\/Conv2D",
      "blob_weights" : 61,
      "K" : 28,
      "blob_biases" : 59,
      "name" : "model\/conv2d_3\/Conv2D",
      "has_batch_norm" : 0,
      "type" : "convolution",
      "n_groups" : 1,
      "pad_t" : 0,
      "has_biases" : 1,
      "C" : 32,
      "bottom" : "model\/depthwise_conv2d_2\/depthwise",
      "weights" : {

      },
      "Nx" : 1,
      "pad_mode" : 0,
      "pad_value" : 0,
      "Ny" : 1,
      "n_parallel" : 1
    },
    {
      "pads_0" : 0,
      "top" : "model\/tf_op_layer_Pad_1\/Pad_1",
      "debug_info" : "model\/tf_op_layer_Pad_1\/Pad_1",
      "pads_2" : 0,
      "pads_4" : 0,
      "type" : "tensor_zero_pad",
      "pads_6" : 0,
      "pads_8" : 0,
      "pads_10" : 0,
      "value" : 0,
      "pads_11" : 0,
      "pads_12" : 0,
      "pads_13" : 0,
      "pads_20" : 0,
      "pads_14" : 0,
      "name" : "model\/tf_op_layer_Pad_1\/Pad_1",
      "pads_22" : 0,
      "pads_21" : 0,
      "pads_23" : 0,
      "nd_mode" : true,
      "pads_24" : 0,
      "pads_17" : 0,
      "pads_32" : 0,
      "pads_18" : 0,
      "pads_33" : 0,
      "pads_19" : 0,
      "pads_34" : 0,
      "pads_27" : 0,
      "pads_28" : 0,
      "pads_42" : 0,
      "pads_43" : 0,
      "pads_29" : 0,
      "pads_37" : 0,
      "pads_41" : 0,
      "pads_38" : 0,
      "pads_31" : 0,
      "pads_39" : 0,
      "pads_36" : 0,
      "pads_40" : 0,
      "pads_26" : 0,
      "pads_16" : 0,
      "pads_30" : 0,
      "pads_45" : 0,
      "pads_35" : 0,
      "pads_25" : 0,
      "pads_15" : 0,
      "pads_1" : 0,
      "pads_44" : 0,
      "pads_46" : 0,
      "pads_3" : 0,
      "pads_47" : 0,
      "pads_48" : 0,
      "pads_5" : 0,
      "pads_49" : 0,
      "pads_50" : 0,
      "pads_7" : 0,
      "pads_51" : 0,
      "pads_52" : 0,
      "pads_9" : 0,
      "pads_53" : 0,
      "pads_54" : 0,
      "pads_55" : 0,
      "pads_56" : 0,
      "pads_57" : 0,
      "pads_58" : 0,
      "pads_59" : 0,
      "pads_60" : 0,
      "pads_61" : 0,
      "pads_62" : 0,
      "pads_63" : 0,
      "weights" : {

      },
      "bottom" : "model\/max_pooling2d\/MaxPool,model\/tf_op_layer_Pad_1\/Pad_1\/paddings"
    },
    {
      "bottom" : "model\/conv2d_3\/Conv2D,model\/tf_op_layer_Pad_1\/Pad_1",
      "alpha" : 1,
      "operation" : 0,
      "weights" : {

      },
      "fused_relu" : 0,
      "debug_info" : "model\/add_2\/add",
      "top" : "model\/add_2\/add",
      "type" : "elementwise",
      "name" : "model\/add_2\/add",
      "beta" : 0
    },
    {
      "bottom" : "model\/add_2\/add",
      "weights" : {

      },
      "mode" : 0,
      "debug_info" : "model\/re_lu_3\/Relu",
      "top" : "model\/re_lu_3\/Relu",
      "type" : "activation",
      "name" : "model\/re_lu_3\/Relu"
    },
    {
      "pad_r" : 0,
      "fused_relu" : 0,
      "fused_tanh" : 0,
      "debug_info" : "model\/depthwise_conv2d_3\/depthwise",
      "pad_fill_mode" : 0,
      "pad_b" : 0,
      "pad_l" : 0,
      "top" : "model\/depthwise_conv2d_3\/depthwise",
      "blob_weights" : 65,
      "K" : 32,
      "blob_biases" : 63,
      "name" : "model\/depthwise_conv2d_3\/depthwise",
      "has_batch_norm" : 0,
      "type" : "convolution",
      "n_groups" : 32,
      "pad_t" : 0,
      "has_biases" : 1,
      "C" : 32,
      "bottom" : "model\/re_lu_3\/Relu",
      "weights" : {

      },
      "Nx" : 3,
      "pad_mode" : 1,
      "pad_value" : 0,
      "Ny" : 3,
      "n_parallel" : 1
    },
    {
      "pads_0" : 0,
      "top" : "model\/tf_op_layer_Pad_2\/Pad_2",
      "debug_info" : "model\/tf_op_layer_Pad_2\/Pad_2",
      "pads_2" : 0,
      "pads_4" : 0,
      "type" : "tensor_zero_pad",
      "pads_6" : 0,
      "pads_8" : 0,
      "pads_10" : 0,
      "value" : 0,
      "pads_11" : 0,
      "pads_12" : 0,
      "pads_13" : 0,
      "pads_20" : 0,
      "pads_14" : 0,
      "name" : "model\/tf_op_layer_Pad_2\/Pad_2",
      "pads_22" : 0,
      "pads_21" : 0,
      "pads_23" : 0,
      "nd_mode" : true,
      "pads_24" : 0,
      "pads_17" : 0,
      "pads_32" : 0,
      "pads_18" : 0,
      "pads_33" : 0,
      "pads_19" : 0,
      "pads_34" : 0,
      "pads_27" : 0,
      "pads_28" : 0,
      "pads_42" : 0,
      "pads_43" : 0,
      "pads_29" : 0,
      "pads_37" : 0,
      "pads_41" : 0,
      "pads_38" : 0,
      "pads_31" : 0,
      "pads_39" : 0,
      "pads_36" : 0,
      "pads_40" : 0,
      "pads_26" : 0,
      "pads_16" : 0,
      "pads_30" : 0,
      "pads_45" : 0,
      "pads_35" : 0,
      "pads_25" : 0,
      "pads_15" : 0,
      "pads_1" : 0,
      "pads_44" : 0,
      "pads_46" : 0,
      "pads_3" : 0,
      "pads_47" : 0,
      "pads_48" : 0,
      "pads_5" : 0,
      "pads_49" : 0,
      "pads_50" : 0,
      "pads_7" : 0,
      "pads_51" : 0,
      "pads_52" : 0,
      "pads_9" : 0,
      "pads_53" : 0,
      "pads_54" : 0,
      "pads_55" : 0,
      "pads_56" : 0,
      "pads_57" : 0,
      "pads_58" : 0,
      "pads_59" : 0,
      "pads_60" : 0,
      "pads_61" : 0,
      "pads_62" : 0,
      "pads_63" : 0,
      "weights" : {

      },
      "bottom" : "model\/re_lu_3\/Relu,model\/tf_op_layer_Pad_2\/Pad_2\/paddings"
    },
    {
      "pad_r" : 0,
      "fused_relu" : 0,
      "fused_tanh" : 0,
      "debug_info" : "model\/conv2d_4\/Conv2D",
      "pad_fill_mode" : 0,
      "pad_b" : 0,
      "pad_l" : 0,
      "top" : "model\/conv2d_4\/Conv2D",
      "blob_weights" : 69,
      "K" : 32,
      "blob_biases" : 67,
      "name" : "model\/conv2d_4\/Conv2D",
      "has_batch_norm" : 0,
      "type" : "convolution",
      "n_groups" : 1,
      "pad_t" : 0,
      "has_biases" : 1,
      "C" : 36,
      "bottom" : "model\/depthwise_conv2d_3\/depthwise",
      "weights" : {

      },
      "Nx" : 1,
      "pad_mode" : 0,
      "pad_value" : 0,
      "Ny" : 1,
      "n_parallel" : 1
    },
    {
      "bottom" : "model\/conv2d_4\/Conv2D,model\/tf_op_layer_Pad_2\/Pad_2",
      "alpha" : 1,
      "operation" : 0,
      "weights" : {

      },
      "fused_relu" : 0,
      "debug_info" : "model\/add_3\/add",
      "top" : "model\/add_3\/add",
      "type" : "elementwise",
      "name" : "model\/add_3\/add",
      "beta" : 0
    },
    {
      "bottom" : "model\/add_3\/add",
      "weights" : {

      },
      "mode" : 0,
      "debug_info" : "model\/re_lu_4\/Relu",
      "top" : "model\/re_lu_4\/Relu",
      "type" : "activation",
      "name" : "model\/re_lu_4\/Relu"
    },
    {
      "pad_r" : 0,
      "fused_relu" : 0,
      "fused_tanh" : 0,
      "debug_info" : "model\/depthwise_conv2d_4\/depthwise",
      "pad_fill_mode" : 0,
      "pad_b" : 0,
      "pad_l" : 0,
      "top" : "model\/depthwise_conv2d_4\/depthwise",
      "blob_weights" : 73,
      "K" : 36,
      "blob_biases" : 71,
      "name" : "model\/depthwise_conv2d_4\/depthwise",
      "has_batch_norm" : 0,
      "type" : "convolution",
      "n_groups" : 36,
      "pad_t" : 0,
      "has_biases" : 1,
      "C" : 36,
      "bottom" : "model\/re_lu_4\/Relu",
      "weights" : {

      },
      "Nx" : 3,
      "pad_mode" : 1,
      "pad_value" : 0,
      "Ny" : 3,
      "n_parallel" : 1
    },
    {
      "pads_0" : 0,
      "top" : "model\/tf_op_layer_Pad_3\/Pad_3",
      "debug_info" : "model\/tf_op_layer_Pad_3\/Pad_3",
      "pads_2" : 0,
      "pads_4" : 0,
      "type" : "tensor_zero_pad",
      "pads_6" : 0,
      "pads_8" : 0,
      "pads_10" : 0,
      "value" : 0,
      "pads_11" : 0,
      "pads_12" : 0,
      "pads_13" : 0,
      "pads_20" : 0,
      "pads_14" : 0,
      "name" : "model\/tf_op_layer_Pad_3\/Pad_3",
      "pads_22" : 0,
      "pads_21" : 0,
      "pads_23" : 0,
      "nd_mode" : true,
      "pads_24" : 0,
      "pads_17" : 0,
      "pads_32" : 0,
      "pads_18" : 0,
      "pads_33" : 0,
      "pads_19" : 0,
      "pads_34" : 0,
      "pads_27" : 0,
      "pads_28" : 0,
      "pads_42" : 0,
      "pads_43" : 0,
      "pads_29" : 0,
      "pads_37" : 0,
      "pads_41" : 0,
      "pads_38" : 0,
      "pads_31" : 0,
      "pads_39" : 0,
      "pads_36" : 0,
      "pads_40" : 0,
      "pads_26" : 0,
      "pads_16" : 0,
      "pads_30" : 0,
      "pads_45" : 0,
      "pads_35" : 0,
      "pads_25" : 0,
      "pads_15" : 0,
      "pads_1" : 0,
      "pads_44" : 0,
      "pads_46" : 0,
      "pads_3" : 0,
      "pads_47" : 0,
      "pads_48" : 0,
      "pads_5" : 0,
      "pads_49" : 0,
      "pads_50" : 0,
      "pads_7" : 0,
      "pads_51" : 0,
      "pads_52" : 0,
      "pads_9" : 0,
      "pads_53" : 0,
      "pads_54" : 0,
      "pads_55" : 0,
      "pads_56" : 0,
      "pads_57" : 0,
      "pads_58" : 0,
      "pads_59" : 0,
      "pads_60" : 0,
      "pads_61" : 0,
      "pads_62" : 0,
      "pads_63" : 0,
      "weights" : {

      },
      "bottom" : "model\/re_lu_4\/Relu,model\/tf_op_layer_Pad_3\/Pad_3\/paddings"
    },
    {
      "pad_r" : 0,
      "fused_relu" : 0,
      "fused_tanh" : 0,
      "debug_info" : "model\/conv2d_5\/Conv2D",
      "pad_fill_mode" : 0,
      "pad_b" : 0,
      "pad_l" : 0,
      "top" : "model\/conv2d_5\/Conv2D",
      "blob_weights" : 77,
      "K" : 36,
      "blob_biases" : 75,
      "name" : "model\/conv2d_5\/Conv2D",
      "has_batch_norm" : 0,
      "type" : "convolution",
      "n_groups" : 1,
      "pad_t" : 0,
      "has_biases" : 1,
      "C" : 42,
      "bottom" : "model\/depthwise_conv2d_4\/depthwise",
      "weights" : {

      },
      "Nx" : 1,
      "pad_mode" : 0,
      "pad_value" : 0,
      "Ny" : 1,
      "n_parallel" : 1
    },
    {
      "bottom" : "model\/conv2d_5\/Conv2D,model\/tf_op_layer_Pad_3\/Pad_3",
      "alpha" : 1,
      "operation" : 0,
      "weights" : {

      },
      "fused_relu" : 0,
      "debug_info" : "model\/add_4\/add",
      "top" : "model\/add_4\/add",
      "type" : "elementwise",
      "name" : "model\/add_4\/add",
      "beta" : 0
    },
    {
      "bottom" : "model\/add_4\/add",
      "weights" : {

      },
      "mode" : 0,
      "debug_info" : "model\/re_lu_5\/Relu",
      "top" : "model\/re_lu_5\/Relu",
      "type" : "activation",
      "name" : "model\/re_lu_5\/Relu"
    },
    {
      "pad_r" : 0,
      "fused_relu" : 0,
      "fused_tanh" : 0,
      "debug_info" : "model\/depthwise_conv2d_5\/depthwise",
      "pad_fill_mode" : 0,
      "pad_b" : 0,
      "pad_l" : 0,
      "top" : "model\/depthwise_conv2d_5\/depthwise",
      "blob_weights" : 81,
      "K" : 42,
      "blob_biases" : 79,
      "stride_x" : 2,
      "name" : "model\/depthwise_conv2d_5\/depthwise",
      "has_batch_norm" : 0,
      "type" : "convolution",
      "n_groups" : 42,
      "pad_t" : 0,
      "stride_y" : 2,
      "has_biases" : 1,
      "C" : 42,
      "bottom" : "model\/re_lu_5\/Relu",
      "weights" : {

      },
      "Nx" : 3,
      "pad_mode" : 1,
      "pad_value" : 0,
      "Ny" : 3,
      "n_parallel" : 1
    },
    {
      "pad_r" : 0,
      "debug_info" : "model\/max_pooling2d_1\/MaxPool",
      "pad_fill_mode" : 0,
      "pad_b" : 0,
      "pad_l" : 0,
      "size_x" : 2,
      "top" : "model\/max_pooling2d_1\/MaxPool",
      "top_shape_style" : 0,
      "stride_x" : 2,
      "avg_or_max" : 1,
      "average_count_exclude_padding" : 1,
      "type" : "pool",
      "name" : "model\/max_pooling2d_1\/MaxPool",
      "pad_t" : 0,
      "stride_y" : 2,
      "bottom" : "model\/re_lu_5\/Relu",
      "weights" : {

      },
      "pad_mode" : 2,
      "size_y" : 2,
      "pad_value" : 0
    },
    {
      "pad_r" : 0,
      "fused_relu" : 0,
      "fused_tanh" : 0,
      "debug_info" : "model\/conv2d_6\/Conv2D",
      "pad_fill_mode" : 0,
      "pad_b" : 0,
      "pad_l" : 0,
      "top" : "model\/conv2d_6\/Conv2D",
      "blob_weights" : 85,
      "K" : 42,
      "blob_biases" : 83,
      "name" : "model\/conv2d_6\/Conv2D",
      "has_batch_norm" : 0,
      "type" : "convolution",
      "n_groups" : 1,
      "pad_t" : 0,
      "has_biases" : 1,
      "C" : 48,
      "bottom" : "model\/depthwise_conv2d_5\/depthwise",
      "weights" : {

      },
      "Nx" : 1,
      "pad_mode" : 0,
      "pad_value" : 0,
      "Ny" : 1,
      "n_parallel" : 1
    },
    {
      "pads_0" : 0,
      "top" : "model\/tf_op_layer_Pad_4\/Pad_4",
      "debug_info" : "model\/tf_op_layer_Pad_4\/Pad_4",
      "pads_2" : 0,
      "pads_4" : 0,
      "type" : "tensor_zero_pad",
      "pads_6" : 0,
      "pads_8" : 0,
      "pads_10" : 0,
      "value" : 0,
      "pads_11" : 0,
      "pads_12" : 0,
      "pads_13" : 0,
      "pads_20" : 0,
      "pads_14" : 0,
      "name" : "model\/tf_op_layer_Pad_4\/Pad_4",
      "pads_22" : 0,
      "pads_21" : 0,
      "pads_23" : 0,
      "nd_mode" : true,
      "pads_24" : 0,
      "pads_17" : 0,
      "pads_32" : 0,
      "pads_18" : 0,
      "pads_33" : 0,
      "pads_19" : 0,
      "pads_34" : 0,
      "pads_27" : 0,
      "pads_28" : 0,
      "pads_42" : 0,
      "pads_43" : 0,
      "pads_29" : 0,
      "pads_37" : 0,
      "pads_41" : 0,
      "pads_38" : 0,
      "pads_31" : 0,
      "pads_39" : 0,
      "pads_36" : 0,
      "pads_40" : 0,
      "pads_26" : 0,
      "pads_16" : 0,
      "pads_30" : 0,
      "pads_45" : 0,
      "pads_35" : 0,
      "pads_25" : 0,
      "pads_15" : 0,
      "pads_1" : 0,
      "pads_44" : 0,
      "pads_46" : 0,
      "pads_3" : 0,
      "pads_47" : 0,
      "pads_48" : 0,
      "pads_5" : 0,
      "pads_49" : 0,
      "pads_50" : 0,
      "pads_7" : 0,
      "pads_51" : 0,
      "pads_52" : 0,
      "pads_9" : 0,
      "pads_53" : 0,
      "pads_54" : 0,
      "pads_55" : 0,
      "pads_56" : 0,
      "pads_57" : 0,
      "pads_58" : 0,
      "pads_59" : 0,
      "pads_60" : 0,
      "pads_61" : 0,
      "pads_62" : 0,
      "pads_63" : 0,
      "weights" : {

      },
      "bottom" : "model\/max_pooling2d_1\/MaxPool,model\/tf_op_layer_Pad_4\/Pad_4\/paddings"
    },
    {
      "bottom" : "model\/conv2d_6\/Conv2D,model\/tf_op_layer_Pad_4\/Pad_4",
      "alpha" : 1,
      "operation" : 0,
      "weights" : {

      },
      "fused_relu" : 0,
      "debug_info" : "model\/add_5\/add",
      "top" : "model\/add_5\/add",
      "type" : "elementwise",
      "name" : "model\/add_5\/add",
      "beta" : 0
    },
    {
      "bottom" : "model\/add_5\/add",
      "weights" : {

      },
      "mode" : 0,
      "debug_info" : "model\/re_lu_6\/Relu",
      "top" : "model\/re_lu_6\/Relu",
      "type" : "activation",
      "name" : "model\/re_lu_6\/Relu"
    },
    {
      "pad_r" : 0,
      "fused_relu" : 0,
      "fused_tanh" : 0,
      "debug_info" : "model\/depthwise_conv2d_6\/depthwise",
      "pad_fill_mode" : 0,
      "pad_b" : 0,
      "pad_l" : 0,
      "top" : "model\/depthwise_conv2d_6\/depthwise",
      "blob_weights" : 89,
      "K" : 48,
      "blob_biases" : 87,
      "name" : "model\/depthwise_conv2d_6\/depthwise",
      "has_batch_norm" : 0,
      "type" : "convolution",
      "n_groups" : 48,
      "pad_t" : 0,
      "has_biases" : 1,
      "C" : 48,
      "bottom" : "model\/re_lu_6\/Relu",
      "weights" : {

      },
      "Nx" : 3,
      "pad_mode" : 1,
      "pad_value" : 0,
      "Ny" : 3,
      "n_parallel" : 1
    },
    {
      "pads_0" : 0,
      "top" : "model\/tf_op_layer_Pad_5\/Pad_5",
      "debug_info" : "model\/tf_op_layer_Pad_5\/Pad_5",
      "pads_2" : 0,
      "pads_4" : 0,
      "type" : "tensor_zero_pad",
      "pads_6" : 0,
      "pads_8" : 0,
      "pads_10" : 0,
      "value" : 0,
      "pads_11" : 0,
      "pads_12" : 0,
      "pads_13" : 0,
      "pads_20" : 0,
      "pads_14" : 0,
      "name" : "model\/tf_op_layer_Pad_5\/Pad_5",
      "pads_22" : 0,
      "pads_21" : 0,
      "pads_23" : 0,
      "nd_mode" : true,
      "pads_24" : 0,
      "pads_17" : 0,
      "pads_32" : 0,
      "pads_18" : 0,
      "pads_33" : 0,
      "pads_19" : 0,
      "pads_34" : 0,
      "pads_27" : 0,
      "pads_28" : 0,
      "pads_42" : 0,
      "pads_43" : 0,
      "pads_29" : 0,
      "pads_37" : 0,
      "pads_41" : 0,
      "pads_38" : 0,
      "pads_31" : 0,
      "pads_39" : 0,
      "pads_36" : 0,
      "pads_40" : 0,
      "pads_26" : 0,
      "pads_16" : 0,
      "pads_30" : 0,
      "pads_45" : 0,
      "pads_35" : 0,
      "pads_25" : 0,
      "pads_15" : 0,
      "pads_1" : 0,
      "pads_44" : 0,
      "pads_46" : 0,
      "pads_3" : 0,
      "pads_47" : 0,
      "pads_48" : 0,
      "pads_5" : 0,
      "pads_49" : 0,
      "pads_50" : 0,
      "pads_7" : 0,
      "pads_51" : 0,
      "pads_52" : 0,
      "pads_9" : 0,
      "pads_53" : 0,
      "pads_54" : 0,
      "pads_55" : 0,
      "pads_56" : 0,
      "pads_57" : 0,
      "pads_58" : 0,
      "pads_59" : 0,
      "pads_60" : 0,
      "pads_61" : 0,
      "pads_62" : 0,
      "pads_63" : 0,
      "weights" : {

      },
      "bottom" : "model\/re_lu_6\/Relu,model\/tf_op_layer_Pad_5\/Pad_5\/paddings"
    },
    {
      "pad_r" : 0,
      "fused_relu" : 0,
      "fused_tanh" : 0,
      "debug_info" : "model\/conv2d_7\/Conv2D",
      "pad_fill_mode" : 0,
      "pad_b" : 0,
      "pad_l" : 0,
      "top" : "model\/conv2d_7\/Conv2D",
      "blob_weights" : 93,
      "K" : 48,
      "blob_biases" : 91,
      "name" : "model\/conv2d_7\/Conv2D",
      "has_batch_norm" : 0,
      "type" : "convolution",
      "n_groups" : 1,
      "pad_t" : 0,
      "has_biases" : 1,
      "C" : 56,
      "bottom" : "model\/depthwise_conv2d_6\/depthwise",
      "weights" : {

      },
      "Nx" : 1,
      "pad_mode" : 0,
      "pad_value" : 0,
      "Ny" : 1,
      "n_parallel" : 1
    },
    {
      "bottom" : "model\/conv2d_7\/Conv2D,model\/tf_op_layer_Pad_5\/Pad_5",
      "alpha" : 1,
      "operation" : 0,
      "weights" : {

      },
      "fused_relu" : 0,
      "debug_info" : "model\/add_6\/add",
      "top" : "model\/add_6\/add",
      "type" : "elementwise",
      "name" : "model\/add_6\/add",
      "beta" : 0
    },
    {
      "bottom" : "model\/add_6\/add",
      "weights" : {

      },
      "mode" : 0,
      "debug_info" : "model\/re_lu_7\/Relu",
      "top" : "model\/re_lu_7\/Relu",
      "type" : "activation",
      "name" : "model\/re_lu_7\/Relu"
    },
    {
      "pad_r" : 0,
      "fused_relu" : 0,
      "fused_tanh" : 0,
      "debug_info" : "model\/depthwise_conv2d_7\/depthwise",
      "pad_fill_mode" : 0,
      "pad_b" : 0,
      "pad_l" : 0,
      "top" : "model\/depthwise_conv2d_7\/depthwise",
      "blob_weights" : 97,
      "K" : 56,
      "blob_biases" : 95,
      "name" : "model\/depthwise_conv2d_7\/depthwise",
      "has_batch_norm" : 0,
      "type" : "convolution",
      "n_groups" : 56,
      "pad_t" : 0,
      "has_biases" : 1,
      "C" : 56,
      "bottom" : "model\/re_lu_7\/Relu",
      "weights" : {

      },
      "Nx" : 3,
      "pad_mode" : 1,
      "pad_value" : 0,
      "Ny" : 3,
      "n_parallel" : 1
    },
    {
      "pads_0" : 0,
      "top" : "model\/tf_op_layer_Pad_6\/Pad_6",
      "debug_info" : "model\/tf_op_layer_Pad_6\/Pad_6",
      "pads_2" : 0,
      "pads_4" : 0,
      "type" : "tensor_zero_pad",
      "pads_6" : 0,
      "pads_8" : 0,
      "pads_10" : 0,
      "value" : 0,
      "pads_11" : 0,
      "pads_12" : 0,
      "pads_13" : 0,
      "pads_20" : 0,
      "pads_14" : 0,
      "name" : "model\/tf_op_layer_Pad_6\/Pad_6",
      "pads_22" : 0,
      "pads_21" : 0,
      "pads_23" : 0,
      "nd_mode" : true,
      "pads_24" : 0,
      "pads_17" : 0,
      "pads_32" : 0,
      "pads_18" : 0,
      "pads_33" : 0,
      "pads_19" : 0,
      "pads_34" : 0,
      "pads_27" : 0,
      "pads_28" : 0,
      "pads_42" : 0,
      "pads_43" : 0,
      "pads_29" : 0,
      "pads_37" : 0,
      "pads_41" : 0,
      "pads_38" : 0,
      "pads_31" : 0,
      "pads_39" : 0,
      "pads_36" : 0,
      "pads_40" : 0,
      "pads_26" : 0,
      "pads_16" : 0,
      "pads_30" : 0,
      "pads_45" : 0,
      "pads_35" : 0,
      "pads_25" : 0,
      "pads_15" : 0,
      "pads_1" : 0,
      "pads_44" : 0,
      "pads_46" : 0,
      "pads_3" : 0,
      "pads_47" : 0,
      "pads_48" : 0,
      "pads_5" : 0,
      "pads_49" : 0,
      "pads_50" : 0,
      "pads_7" : 0,
      "pads_51" : 0,
      "pads_52" : 0,
      "pads_9" : 0,
      "pads_53" : 0,
      "pads_54" : 0,
      "pads_55" : 0,
      "pads_56" : 0,
      "pads_57" : 0,
      "pads_58" : 0,
      "pads_59" : 0,
      "pads_60" : 0,
      "pads_61" : 0,
      "pads_62" : 0,
      "pads_63" : 0,
      "weights" : {

      },
      "bottom" : "model\/re_lu_7\/Relu,model\/tf_op_layer_Pad_6\/Pad_6\/paddings"
    },
    {
      "pad_r" : 0,
      "fused_relu" : 0,
      "fused_tanh" : 0,
      "debug_info" : "model\/conv2d_8\/Conv2D",
      "pad_fill_mode" : 0,
      "pad_b" : 0,
      "pad_l" : 0,
      "top" : "model\/conv2d_8\/Conv2D",
      "blob_weights" : 101,
      "K" : 56,
      "blob_biases" : 99,
      "name" : "model\/conv2d_8\/Conv2D",
      "has_batch_norm" : 0,
      "type" : "convolution",
      "n_groups" : 1,
      "pad_t" : 0,
      "has_biases" : 1,
      "C" : 64,
      "bottom" : "model\/depthwise_conv2d_7\/depthwise",
      "weights" : {

      },
      "Nx" : 1,
      "pad_mode" : 0,
      "pad_value" : 0,
      "Ny" : 1,
      "n_parallel" : 1
    },
    {
      "bottom" : "model\/conv2d_8\/Conv2D,model\/tf_op_layer_Pad_6\/Pad_6",
      "alpha" : 1,
      "operation" : 0,
      "weights" : {

      },
      "fused_relu" : 0,
      "debug_info" : "model\/add_7\/add",
      "top" : "model\/add_7\/add",
      "type" : "elementwise",
      "name" : "model\/add_7\/add",
      "beta" : 0
    },
    {
      "bottom" : "model\/add_7\/add",
      "weights" : {

      },
      "mode" : 0,
      "debug_info" : "model\/re_lu_8\/Relu",
      "top" : "model\/re_lu_8\/Relu",
      "type" : "activation",
      "name" : "model\/re_lu_8\/Relu"
    },
    {
      "pad_r" : 0,
      "fused_relu" : 0,
      "fused_tanh" : 0,
      "debug_info" : "model\/depthwise_conv2d_8\/depthwise",
      "pad_fill_mode" : 0,
      "pad_b" : 0,
      "pad_l" : 0,
      "top" : "model\/depthwise_conv2d_8\/depthwise",
      "blob_weights" : 105,
      "K" : 64,
      "blob_biases" : 103,
      "name" : "model\/depthwise_conv2d_8\/depthwise",
      "has_batch_norm" : 0,
      "type" : "convolution",
      "n_groups" : 64,
      "pad_t" : 0,
      "has_biases" : 1,
      "C" : 64,
      "bottom" : "model\/re_lu_8\/Relu",
      "weights" : {

      },
      "Nx" : 3,
      "pad_mode" : 1,
      "pad_value" : 0,
      "Ny" : 3,
      "n_parallel" : 1
    },
    {
      "pads_0" : 0,
      "top" : "model\/tf_op_layer_Pad_7\/Pad_7",
      "debug_info" : "model\/tf_op_layer_Pad_7\/Pad_7",
      "pads_2" : 0,
      "pads_4" : 0,
      "type" : "tensor_zero_pad",
      "pads_6" : 0,
      "pads_8" : 0,
      "pads_10" : 0,
      "value" : 0,
      "pads_11" : 0,
      "pads_12" : 0,
      "pads_13" : 0,
      "pads_20" : 0,
      "pads_14" : 0,
      "name" : "model\/tf_op_layer_Pad_7\/Pad_7",
      "pads_22" : 0,
      "pads_21" : 0,
      "pads_23" : 0,
      "nd_mode" : true,
      "pads_24" : 0,
      "pads_17" : 0,
      "pads_32" : 0,
      "pads_18" : 0,
      "pads_33" : 0,
      "pads_19" : 0,
      "pads_34" : 0,
      "pads_27" : 0,
      "pads_28" : 0,
      "pads_42" : 0,
      "pads_43" : 0,
      "pads_29" : 0,
      "pads_37" : 0,
      "pads_41" : 0,
      "pads_38" : 0,
      "pads_31" : 0,
      "pads_39" : 0,
      "pads_36" : 0,
      "pads_40" : 0,
      "pads_26" : 0,
      "pads_16" : 0,
      "pads_30" : 0,
      "pads_45" : 0,
      "pads_35" : 0,
      "pads_25" : 0,
      "pads_15" : 0,
      "pads_1" : 0,
      "pads_44" : 0,
      "pads_46" : 0,
      "pads_3" : 0,
      "pads_47" : 0,
      "pads_48" : 0,
      "pads_5" : 0,
      "pads_49" : 0,
      "pads_50" : 0,
      "pads_7" : 0,
      "pads_51" : 0,
      "pads_52" : 0,
      "pads_9" : 0,
      "pads_53" : 0,
      "pads_54" : 0,
      "pads_55" : 0,
      "pads_56" : 0,
      "pads_57" : 0,
      "pads_58" : 0,
      "pads_59" : 0,
      "pads_60" : 0,
      "pads_61" : 0,
      "pads_62" : 0,
      "pads_63" : 0,
      "weights" : {

      },
      "bottom" : "model\/re_lu_8\/Relu,model\/tf_op_layer_Pad_7\/Pad_7\/paddings"
    },
    {
      "pad_r" : 0,
      "fused_relu" : 0,
      "fused_tanh" : 0,
      "debug_info" : "model\/conv2d_9\/Conv2D",
      "pad_fill_mode" : 0,
      "pad_b" : 0,
      "pad_l" : 0,
      "top" : "model\/conv2d_9\/Conv2D",
      "blob_weights" : 109,
      "K" : 64,
      "blob_biases" : 107,
      "name" : "model\/conv2d_9\/Conv2D",
      "has_batch_norm" : 0,
      "type" : "convolution",
      "n_groups" : 1,
      "pad_t" : 0,
      "has_biases" : 1,
      "C" : 72,
      "bottom" : "model\/depthwise_conv2d_8\/depthwise",
      "weights" : {

      },
      "Nx" : 1,
      "pad_mode" : 0,
      "pad_value" : 0,
      "Ny" : 1,
      "n_parallel" : 1
    },
    {
      "bottom" : "model\/conv2d_9\/Conv2D,model\/tf_op_layer_Pad_7\/Pad_7",
      "alpha" : 1,
      "operation" : 0,
      "weights" : {

      },
      "fused_relu" : 0,
      "debug_info" : "model\/add_8\/add",
      "top" : "model\/add_8\/add",
      "type" : "elementwise",
      "name" : "model\/add_8\/add",
      "beta" : 0
    },
    {
      "bottom" : "model\/add_8\/add",
      "weights" : {

      },
      "mode" : 0,
      "debug_info" : "model\/re_lu_9\/Relu",
      "top" : "model\/re_lu_9\/Relu",
      "type" : "activation",
      "name" : "model\/re_lu_9\/Relu"
    },
    {
      "pad_r" : 0,
      "fused_relu" : 0,
      "fused_tanh" : 0,
      "debug_info" : "model\/depthwise_conv2d_9\/depthwise",
      "pad_fill_mode" : 0,
      "pad_b" : 0,
      "pad_l" : 0,
      "top" : "model\/depthwise_conv2d_9\/depthwise",
      "blob_weights" : 113,
      "K" : 72,
      "blob_biases" : 111,
      "name" : "model\/depthwise_conv2d_9\/depthwise",
      "has_batch_norm" : 0,
      "type" : "convolution",
      "n_groups" : 72,
      "pad_t" : 0,
      "has_biases" : 1,
      "C" : 72,
      "bottom" : "model\/re_lu_9\/Relu",
      "weights" : {

      },
      "Nx" : 3,
      "pad_mode" : 1,
      "pad_value" : 0,
      "Ny" : 3,
      "n_parallel" : 1
    },
    {
      "pads_0" : 0,
      "top" : "model\/tf_op_layer_Pad_8\/Pad_8",
      "debug_info" : "model\/tf_op_layer_Pad_8\/Pad_8",
      "pads_2" : 0,
      "pads_4" : 0,
      "type" : "tensor_zero_pad",
      "pads_6" : 0,
      "pads_8" : 0,
      "pads_10" : 0,
      "value" : 0,
      "pads_11" : 0,
      "pads_12" : 0,
      "pads_13" : 0,
      "pads_20" : 0,
      "pads_14" : 0,
      "name" : "model\/tf_op_layer_Pad_8\/Pad_8",
      "pads_22" : 0,
      "pads_21" : 0,
      "pads_23" : 0,
      "nd_mode" : true,
      "pads_24" : 0,
      "pads_17" : 0,
      "pads_32" : 0,
      "pads_18" : 0,
      "pads_33" : 0,
      "pads_19" : 0,
      "pads_34" : 0,
      "pads_27" : 0,
      "pads_28" : 0,
      "pads_42" : 0,
      "pads_43" : 0,
      "pads_29" : 0,
      "pads_37" : 0,
      "pads_41" : 0,
      "pads_38" : 0,
      "pads_31" : 0,
      "pads_39" : 0,
      "pads_36" : 0,
      "pads_40" : 0,
      "pads_26" : 0,
      "pads_16" : 0,
      "pads_30" : 0,
      "pads_45" : 0,
      "pads_35" : 0,
      "pads_25" : 0,
      "pads_15" : 0,
      "pads_1" : 0,
      "pads_44" : 0,
      "pads_46" : 0,
      "pads_3" : 0,
      "pads_47" : 0,
      "pads_48" : 0,
      "pads_5" : 0,
      "pads_49" : 0,
      "pads_50" : 0,
      "pads_7" : 0,
      "pads_51" : 0,
      "pads_52" : 0,
      "pads_9" : 0,
      "pads_53" : 0,
      "pads_54" : 0,
      "pads_55" : 0,
      "pads_56" : 0,
      "pads_57" : 0,
      "pads_58" : 0,
      "pads_59" : 0,
      "pads_60" : 0,
      "pads_61" : 0,
      "pads_62" : 0,
      "pads_63" : 0,
      "weights" : {

      },
      "bottom" : "model\/re_lu_9\/Relu,model\/tf_op_layer_Pad_8\/Pad_8\/paddings"
    },
    {
      "pad_r" : 0,
      "fused_relu" : 0,
      "fused_tanh" : 0,
      "debug_info" : "model\/conv2d_10\/Conv2D",
      "pad_fill_mode" : 0,
      "pad_b" : 0,
      "pad_l" : 0,
      "top" : "model\/conv2d_10\/Conv2D",
      "blob_weights" : 117,
      "K" : 72,
      "blob_biases" : 115,
      "name" : "model\/conv2d_10\/Conv2D",
      "has_batch_norm" : 0,
      "type" : "convolution",
      "n_groups" : 1,
      "pad_t" : 0,
      "has_biases" : 1,
      "C" : 80,
      "bottom" : "model\/depthwise_conv2d_9\/depthwise",
      "weights" : {

      },
      "Nx" : 1,
      "pad_mode" : 0,
      "pad_value" : 0,
      "Ny" : 1,
      "n_parallel" : 1
    },
    {
      "bottom" : "model\/conv2d_10\/Conv2D,model\/tf_op_layer_Pad_8\/Pad_8",
      "alpha" : 1,
      "operation" : 0,
      "weights" : {

      },
      "fused_relu" : 0,
      "debug_info" : "model\/add_9\/add",
      "top" : "model\/add_9\/add",
      "type" : "elementwise",
      "name" : "model\/add_9\/add",
      "beta" : 0
    },
    {
      "bottom" : "model\/add_9\/add",
      "weights" : {

      },
      "mode" : 0,
      "debug_info" : "model\/re_lu_10\/Relu",
      "top" : "model\/re_lu_10\/Relu",
      "type" : "activation",
      "name" : "model\/re_lu_10\/Relu"
    },
    {
      "pad_r" : 0,
      "fused_relu" : 0,
      "fused_tanh" : 0,
      "debug_info" : "model\/depthwise_conv2d_10\/depthwise",
      "pad_fill_mode" : 0,
      "pad_b" : 0,
      "pad_l" : 0,
      "top" : "model\/depthwise_conv2d_10\/depthwise",
      "blob_weights" : 121,
      "K" : 80,
      "blob_biases" : 119,
      "name" : "model\/depthwise_conv2d_10\/depthwise",
      "has_batch_norm" : 0,
      "type" : "convolution",
      "n_groups" : 80,
      "pad_t" : 0,
      "has_biases" : 1,
      "C" : 80,
      "bottom" : "model\/re_lu_10\/Relu",
      "weights" : {

      },
      "Nx" : 3,
      "pad_mode" : 1,
      "pad_value" : 0,
      "Ny" : 3,
      "n_parallel" : 1
    },
    {
      "pads_0" : 0,
      "top" : "model\/tf_op_layer_Pad_9\/Pad_9",
      "debug_info" : "model\/tf_op_layer_Pad_9\/Pad_9",
      "pads_2" : 0,
      "pads_4" : 0,
      "type" : "tensor_zero_pad",
      "pads_6" : 0,
      "pads_8" : 0,
      "pads_10" : 0,
      "value" : 0,
      "pads_11" : 0,
      "pads_12" : 0,
      "pads_13" : 0,
      "pads_20" : 0,
      "pads_14" : 0,
      "name" : "model\/tf_op_layer_Pad_9\/Pad_9",
      "pads_22" : 0,
      "pads_21" : 0,
      "pads_23" : 0,
      "nd_mode" : true,
      "pads_24" : 0,
      "pads_17" : 0,
      "pads_32" : 0,
      "pads_18" : 0,
      "pads_33" : 0,
      "pads_19" : 0,
      "pads_34" : 0,
      "pads_27" : 0,
      "pads_28" : 0,
      "pads_42" : 0,
      "pads_43" : 0,
      "pads_29" : 0,
      "pads_37" : 0,
      "pads_41" : 0,
      "pads_38" : 0,
      "pads_31" : 0,
      "pads_39" : 0,
      "pads_36" : 0,
      "pads_40" : 0,
      "pads_26" : 0,
      "pads_16" : 0,
      "pads_30" : 0,
      "pads_45" : 0,
      "pads_35" : 0,
      "pads_25" : 0,
      "pads_15" : 0,
      "pads_1" : 0,
      "pads_44" : 0,
      "pads_46" : 0,
      "pads_3" : 0,
      "pads_47" : 0,
      "pads_48" : 0,
      "pads_5" : 0,
      "pads_49" : 0,
      "pads_50" : 0,
      "pads_7" : 0,
      "pads_51" : 0,
      "pads_52" : 0,
      "pads_9" : 0,
      "pads_53" : 0,
      "pads_54" : 0,
      "pads_55" : 0,
      "pads_56" : 0,
      "pads_57" : 0,
      "pads_58" : 0,
      "pads_59" : 0,
      "pads_60" : 0,
      "pads_61" : 0,
      "pads_62" : 0,
      "pads_63" : 0,
      "weights" : {

      },
      "bottom" : "model\/re_lu_10\/Relu,model\/tf_op_layer_Pad_9\/Pad_9\/paddings"
    },
    {
      "pad_r" : 0,
      "fused_relu" : 0,
      "fused_tanh" : 0,
      "debug_info" : "model\/conv2d_11\/Conv2D",
      "pad_fill_mode" : 0,
      "pad_b" : 0,
      "pad_l" : 0,
      "top" : "model\/conv2d_11\/Conv2D",
      "blob_weights" : 125,
      "K" : 80,
      "blob_biases" : 123,
      "name" : "model\/conv2d_11\/Conv2D",
      "has_batch_norm" : 0,
      "type" : "convolution",
      "n_groups" : 1,
      "pad_t" : 0,
      "has_biases" : 1,
      "C" : 88,
      "bottom" : "model\/depthwise_conv2d_10\/depthwise",
      "weights" : {

      },
      "Nx" : 1,
      "pad_mode" : 0,
      "pad_value" : 0,
      "Ny" : 1,
      "n_parallel" : 1
    },
    {
      "bottom" : "model\/conv2d_11\/Conv2D,model\/tf_op_layer_Pad_9\/Pad_9",
      "alpha" : 1,
      "operation" : 0,
      "weights" : {

      },
      "fused_relu" : 0,
      "debug_info" : "model\/add_10\/add",
      "top" : "model\/add_10\/add",
      "type" : "elementwise",
      "name" : "model\/add_10\/add",
      "beta" : 0
    },
    {
      "bottom" : "model\/add_10\/add",
      "weights" : {

      },
      "mode" : 0,
      "debug_info" : "model\/re_lu_11\/Relu",
      "top" : "model\/re_lu_11\/Relu",
      "type" : "activation",
      "name" : "model\/re_lu_11\/Relu"
    },
    {
      "pad_r" : 0,
      "fused_relu" : 0,
      "fused_tanh" : 0,
      "debug_info" : "model\/regressor_8\/Conv2D",
      "pad_fill_mode" : 0,
      "pad_b" : 0,
      "pad_l" : 0,
      "top" : "model\/regressor_8\/Conv2D",
      "blob_weights" : 129,
      "K" : 88,
      "blob_biases" : 127,
      "name" : "model\/regressor_8\/Conv2D",
      "has_batch_norm" : 0,
      "type" : "convolution",
      "n_groups" : 1,
      "pad_t" : 0,
      "has_biases" : 1,
      "C" : 32,
      "bottom" : "model\/re_lu_11\/Relu",
      "weights" : {

      },
      "Nx" : 1,
      "pad_mode" : 0,
      "pad_value" : 0,
      "Ny" : 1,
      "n_parallel" : 1
    },
    {
      "pad_r" : 0,
      "fused_relu" : 0,
      "fused_tanh" : 0,
      "debug_info" : "model\/depthwise_conv2d_11\/depthwise",
      "pad_fill_mode" : 0,
      "pad_b" : 0,
      "pad_l" : 0,
      "top" : "model\/depthwise_conv2d_11\/depthwise",
      "blob_weights" : 133,
      "K" : 88,
      "blob_biases" : 131,
      "stride_x" : 2,
      "name" : "model\/depthwise_conv2d_11\/depthwise",
      "has_batch_norm" : 0,
      "type" : "convolution",
      "n_groups" : 88,
      "pad_t" : 0,
      "stride_y" : 2,
      "has_biases" : 1,
      "C" : 88,
      "bottom" : "model\/re_lu_11\/Relu",
      "weights" : {

      },
      "Nx" : 3,
      "pad_mode" : 1,
      "pad_value" : 0,
      "Ny" : 3,
      "n_parallel" : 1
    },
    {
      "pad_r" : 0,
      "debug_info" : "model\/max_pooling2d_2\/MaxPool",
      "pad_fill_mode" : 0,
      "pad_b" : 0,
      "pad_l" : 0,
      "size_x" : 2,
      "top" : "model\/max_pooling2d_2\/MaxPool",
      "top_shape_style" : 0,
      "stride_x" : 2,
      "avg_or_max" : 1,
      "average_count_exclude_padding" : 1,
      "type" : "pool",
      "name" : "model\/max_pooling2d_2\/MaxPool",
      "pad_t" : 0,
      "stride_y" : 2,
      "bottom" : "model\/re_lu_11\/Relu",
      "weights" : {

      },
      "pad_mode" : 2,
      "size_y" : 2,
      "pad_value" : 0
    },
    {
      "pad_r" : 0,
      "fused_relu" : 0,
      "fused_tanh" : 0,
      "debug_info" : "model\/classificator_8\/Conv2D",
      "pad_fill_mode" : 0,
      "pad_b" : 0,
      "pad_l" : 0,
      "top" : "model\/classificator_8\/Conv2D",
      "blob_weights" : 137,
      "K" : 88,
      "blob_biases" : 135,
      "name" : "model\/classificator_8\/Conv2D",
      "has_batch_norm" : 0,
      "type" : "convolution",
      "n_groups" : 1,
      "pad_t" : 0,
      "has_biases" : 1,
      "C" : 2,
      "bottom" : "model\/re_lu_11\/Relu",
      "weights" : {

      },
      "Nx" : 1,
      "pad_mode" : 0,
      "pad_value" : 0,
      "Ny" : 1,
      "n_parallel" : 1
    },
    {
      "axis_h" : 0,
      "axis_w" : 2,
      "bottom" : "model\/regressor_8\/Conv2D",
      "axis_k" : 1,
      "axis_n" : 3,
      "axis_seq" : 4,
      "weights" : {

      },
      "debug_info" : "model\/regressor_8\/Conv2D_to_nhwc",
      "top" : "model\/regressor_8\/Conv2D_to_nhwc",
      "type" : "transpose",
      "name" : "model\/regressor_8\/Conv2D_to_nhwc"
    },
    {
      "pad_r" : 0,
      "fused_relu" : 0,
      "fused_tanh" : 0,
      "debug_info" : "model\/conv2d_12\/Conv2D",
      "pad_fill_mode" : 0,
      "pad_b" : 0,
      "pad_l" : 0,
      "top" : "model\/conv2d_12\/Conv2D",
      "blob_weights" : 141,
      "K" : 88,
      "blob_biases" : 139,
      "name" : "model\/conv2d_12\/Conv2D",
      "has_batch_norm" : 0,
      "type" : "convolution",
      "n_groups" : 1,
      "pad_t" : 0,
      "has_biases" : 1,
      "C" : 96,
      "bottom" : "model\/depthwise_conv2d_11\/depthwise",
      "weights" : {

      },
      "Nx" : 1,
      "pad_mode" : 0,
      "pad_value" : 0,
      "Ny" : 1,
      "n_parallel" : 1
    },
    {
      "pads_0" : 0,
      "top" : "model\/tf_op_layer_Pad_10\/Pad_10",
      "debug_info" : "model\/tf_op_layer_Pad_10\/Pad_10",
      "pads_2" : 0,
      "pads_4" : 0,
      "type" : "tensor_zero_pad",
      "pads_6" : 0,
      "pads_8" : 0,
      "pads_10" : 0,
      "value" : 0,
      "pads_11" : 0,
      "pads_12" : 0,
      "pads_13" : 0,
      "pads_20" : 0,
      "pads_14" : 0,
      "name" : "model\/tf_op_layer_Pad_10\/Pad_10",
      "pads_22" : 0,
      "pads_21" : 0,
      "pads_23" : 0,
      "nd_mode" : true,
      "pads_24" : 0,
      "pads_17" : 0,
      "pads_32" : 0,
      "pads_18" : 0,
      "pads_33" : 0,
      "pads_19" : 0,
      "pads_34" : 0,
      "pads_27" : 0,
      "pads_28" : 0,
      "pads_42" : 0,
      "pads_43" : 0,
      "pads_29" : 0,
      "pads_37" : 0,
      "pads_41" : 0,
      "pads_38" : 0,
      "pads_31" : 0,
      "pads_39" : 0,
      "pads_36" : 0,
      "pads_40" : 0,
      "pads_26" : 0,
      "pads_16" : 0,
      "pads_30" : 0,
      "pads_45" : 0,
      "pads_35" : 0,
      "pads_25" : 0,
      "pads_15" : 0,
      "pads_1" : 0,
      "pads_44" : 0,
      "pads_46" : 0,
      "pads_3" : 0,
      "pads_47" : 0,
      "pads_48" : 0,
      "pads_5" : 0,
      "pads_49" : 0,
      "pads_50" : 0,
      "pads_7" : 0,
      "pads_51" : 0,
      "pads_52" : 0,
      "pads_9" : 0,
      "pads_53" : 0,
      "pads_54" : 0,
      "pads_55" : 0,
      "pads_56" : 0,
      "pads_57" : 0,
      "pads_58" : 0,
      "pads_59" : 0,
      "pads_60" : 0,
      "pads_61" : 0,
      "pads_62" : 0,
      "pads_63" : 0,
      "weights" : {

      },
      "bottom" : "model\/max_pooling2d_2\/MaxPool,model\/tf_op_layer_Pad_10\/Pad_10\/paddings"
    },
    {
      "axis_h" : 0,
      "axis_w" : 2,
      "bottom" : "model\/classificator_8\/Conv2D",
      "axis_k" : 1,
      "axis_n" : 3,
      "axis_seq" : 4,
      "weights" : {

      },
      "debug_info" : "model\/classificator_8\/Conv2D_to_nhwc",
      "top" : "model\/classificator_8\/Conv2D_to_nhwc",
      "type" : "transpose",
      "name" : "model\/classificator_8\/Conv2D_to_nhwc"
    },
    {
      "name" : "model\/reshape_2\/Reshape",
      "weights" : {

      },
      "dst_w" : 16,
      "version" : 1,
      "dst_n" : 16,
      "dst_nd_rank" : 5,
      "type" : "reshape",
      "dst_h" : 2,
      "mode" : 0,
      "dynamic_shape" : false,
      "bottom" : "model\/regressor_8\/Conv2D_to_nhwc",
      "debug_info" : "model\/reshape_2\/Reshape",
      "dst_seq" : 1,
      "dst_k" : 16,
      "top" : "model\/reshape_2\/Reshape"
    },
    {
      "bottom" : "model\/conv2d_12\/Conv2D,model\/tf_op_layer_Pad_10\/Pad_10",
      "alpha" : 1,
      "operation" : 0,
      "weights" : {

      },
      "fused_relu" : 0,
      "debug_info" : "model\/add_11\/add",
      "top" : "model\/add_11\/add",
      "type" : "elementwise",
      "name" : "model\/add_11\/add",
      "beta" : 0
    },
    {
      "name" : "model\/reshape\/Reshape",
      "weights" : {

      },
      "dst_w" : 1,
      "version" : 1,
      "dst_n" : 1,
      "dst_nd_rank" : 3,
      "type" : "reshape",
      "dst_h" : 512,
      "mode" : 0,
      "dynamic_shape" : false,
      "bottom" : "model\/classificator_8\/Conv2D_to_nhwc",
      "debug_info" : "model\/reshape\/Reshape",
      "dst_seq" : 1,
      "dst_k" : 1,
      "top" : "model\/reshape\/Reshape"
    },
    {
      "begin_n" : 0,
      "static_sizes_k" : 0,
      "end_mask_h" : true,
      "end_w" : 2147483647,
      "end_h" : 2147483647,
      "begin_h" : 0,
      "stride_n" : 1,
      "end_seq" : 2,
      "begin_mask_seq" : true,
      "begin_mask_h" : true,
      "squeeze_mask_h" : false,
      "stride_k" : 1,
      "type" : "general_slice",
      "begin_mask_k" : true,
      "static_sizes_w" : 0,
      "begin_w" : 0,
      "end_mask_k" : true,
      "use_static_sizes" : false,
      "stride_h" : 1,
      "static_sizes_n" : 0,
      "begin_mask_n" : true,
      "weights" : {

      },
      "name" : "model\/tf_op_layer_strided_slice\/strided_slice",
      "stride_seq" : 1,
      "end_k" : 2147483647,
      "static_sizes_seq" : 0,
      "top" : "model\/tf_op_layer_strided_slice\/strided_slice",
      "begin_seq" : 0,
      "squeeze_mask_k" : false,
      "begin_k" : 0,
      "end_mask_w" : true,
      "end_mask_seq" : false,
      "end_mask_n" : true,
      "debug_info" : "model\/tf_op_layer_strided_slice\/strided_slice",
      "stride_w" : 1,
      "squeeze_mask_seq" : false,
      "static_sizes_h" : 0,
      "begin_mask_w" : true,
      "bottom" : "model\/reshape_2\/Reshape",
      "end_n" : 2147483647,
      "squeeze_mask_w" : false,
      "squeeze_mask_n" : false
    },
    {
      "begin_n" : 0,
      "static_sizes_k" : 0,
      "end_mask_h" : true,
      "end_w" : 2147483647,
      "end_h" : 2147483647,
      "begin_h" : 0,
      "stride_n" : 1,
      "end_seq" : 4,
      "begin_mask_seq" : false,
      "begin_mask_h" : true,
      "squeeze_mask_h" : false,
      "stride_k" : 1,
      "type" : "general_slice",
      "begin_mask_k" : true,
      "static_sizes_w" : 0,
      "begin_w" : 0,
      "end_mask_k" : true,
      "use_static_sizes" : false,
      "stride_h" : 1,
      "static_sizes_n" : 0,
      "begin_mask_n" : true,
      "weights" : {

      },
      "name" : "model\/tf_op_layer_strided_slice_1\/strided_slice_1",
      "stride_seq" : 1,
      "end_k" : 2147483647,
      "static_sizes_seq" : 0,
      "top" : "model\/tf_op_layer_strided_slice_1\/strided_slice_1",
      "begin_seq" : 2,
      "squeeze_mask_k" : false,
      "begin_k" : 0,
      "end_mask_w" : true,
      "end_mask_seq" : false,
      "end_mask_n" : true,
      "debug_info" : "model\/tf_op_layer_strided_slice_1\/strided_slice_1",
      "stride_w" : 1,
      "squeeze_mask_seq" : false,
      "static_sizes_h" : 0,
      "begin_mask_w" : true,
      "bottom" : "model\/reshape_2\/Reshape",
      "end_n" : 2147483647,
      "squeeze_mask_w" : false,
      "squeeze_mask_n" : false
    },
    {
      "begin_n" : 0,
      "static_sizes_k" : 0,
      "end_mask_h" : true,
      "end_w" : 2147483647,
      "end_h" : 2147483647,
      "begin_h" : 0,
      "stride_n" : 1,
      "end_seq" : 2147483647,
      "begin_mask_seq" : false,
      "begin_mask_h" : true,
      "squeeze_mask_h" : false,
      "stride_k" : 1,
      "type" : "general_slice",
      "begin_mask_k" : true,
      "static_sizes_w" : 0,
      "begin_w" : 0,
      "end_mask_k" : true,
      "use_static_sizes" : false,
      "stride_h" : 1,
      "static_sizes_n" : 0,
      "begin_mask_n" : true,
      "weights" : {

      },
      "name" : "model\/tf_op_layer_strided_slice_2\/strided_slice_2",
      "stride_seq" : 1,
      "end_k" : 2147483647,
      "static_sizes_seq" : 0,
      "top" : "model\/tf_op_layer_strided_slice_2\/strided_slice_2",
      "begin_seq" : 4,
      "squeeze_mask_k" : false,
      "begin_k" : 0,
      "end_mask_w" : true,
      "end_mask_seq" : true,
      "end_mask_n" : true,
      "debug_info" : "model\/tf_op_layer_strided_slice_2\/strided_slice_2",
      "stride_w" : 1,
      "squeeze_mask_seq" : false,
      "static_sizes_h" : 0,
      "begin_mask_w" : true,
      "bottom" : "model\/reshape_2\/Reshape",
      "end_n" : 2147483647,
      "squeeze_mask_w" : false,
      "squeeze_mask_n" : false
    },
    {
      "bottom" : "model\/add_11\/add",
      "weights" : {

      },
      "mode" : 0,
      "debug_info" : "model\/re_lu_12\/Relu",
      "top" : "model\/re_lu_12\/Relu",
      "type" : "activation",
      "name" : "model\/re_lu_12\/Relu"
    },
    {
      "bottom" : "model\/tf_op_layer_strided_slice\/strided_slice",
      "alpha" : 0.0078125,
      "operation" : 1,
      "weights" : {

      },
      "fused_relu" : 0,
      "debug_info" : "model\/tf_op_layer_RealDiv\/RealDiv",
      "top" : "model\/tf_op_layer_RealDiv\/RealDiv",
      "type" : "elementwise",
      "name" : "model\/tf_op_layer_RealDiv\/RealDiv",
      "beta" : 0
    },
    {
      "bottom" : "model\/tf_op_layer_strided_slice_1\/strided_slice_1",
      "alpha" : 0.0078125,
      "operation" : 1,
      "weights" : {

      },
      "fused_relu" : 0,
      "debug_info" : "model\/tf_op_layer_RealDiv_1\/RealDiv_1",
      "top" : "model\/tf_op_layer_RealDiv_1\/RealDiv_1",
      "type" : "elementwise",
      "name" : "model\/tf_op_layer_RealDiv_1\/RealDiv_1",
      "beta" : 0
    },
    {
      "bottom" : "model\/tf_op_layer_strided_slice_2\/strided_slice_2",
      "alpha" : 0.0078125,
      "operation" : 1,
      "weights" : {

      },
      "fused_relu" : 0,
      "debug_info" : "model\/tf_op_layer_RealDiv_2\/RealDiv_2",
      "top" : "model\/tf_op_layer_RealDiv_2\/RealDiv_2",
      "type" : "elementwise",
      "name" : "model\/tf_op_layer_RealDiv_2\/RealDiv_2",
      "beta" : 0
    },
    {
      "pad_r" : 0,
      "fused_relu" : 0,
      "fused_tanh" : 0,
      "debug_info" : "model\/depthwise_conv2d_12\/depthwise",
      "pad_fill_mode" : 0,
      "pad_b" : 0,
      "pad_l" : 0,
      "top" : "model\/depthwise_conv2d_12\/depthwise",
      "blob_weights" : 145,
      "K" : 96,
      "blob_biases" : 143,
      "name" : "model\/depthwise_conv2d_12\/depthwise",
      "has_batch_norm" : 0,
      "type" : "convolution",
      "n_groups" : 96,
      "pad_t" : 0,
      "has_biases" : 1,
      "C" : 96,
      "bottom" : "model\/re_lu_12\/Relu",
      "weights" : {

      },
      "Nx" : 3,
      "pad_mode" : 1,
      "pad_value" : 0,
      "Ny" : 3,
      "n_parallel" : 1
    },
    {
      "bottom" : "model\/tf_op_layer_RealDiv\/RealDiv,model\/tf_op_layer_AddV2\/AddV2\/y",
      "alpha" : 1,
      "operation" : 0,
      "weights" : {

      },
      "fused_relu" : 0,
      "debug_info" : "model\/tf_op_layer_AddV2\/AddV2",
      "nd_mode" : true,
      "top" : "model\/tf_op_layer_AddV2\/AddV2",
      "type" : "elementwise",
      "name" : "model\/tf_op_layer_AddV2\/AddV2",
      "beta" : 0
    },
    {
      "bottom" : "model\/tf_op_layer_RealDiv_2\/RealDiv_2,model\/tf_op_layer_AddV2_1\/AddV2_1\/y",
      "alpha" : 1,
      "operation" : 0,
      "weights" : {

      },
      "fused_relu" : 0,
      "debug_info" : "model\/tf_op_layer_AddV2_1\/AddV2_1",
      "nd_mode" : true,
      "top" : "model\/tf_op_layer_AddV2_1\/AddV2_1",
      "type" : "elementwise",
      "name" : "model\/tf_op_layer_AddV2_1\/AddV2_1",
      "beta" : 0
    },
    {
      "pad_r" : 0,
      "fused_relu" : 0,
      "fused_tanh" : 0,
      "debug_info" : "model\/conv2d_13\/Conv2D",
      "pad_fill_mode" : 0,
      "pad_b" : 0,
      "pad_l" : 0,
      "top" : "model\/conv2d_13\/Conv2D",
      "blob_weights" : 149,
      "K" : 96,
      "blob_biases" : 147,
      "name" : "model\/conv2d_13\/Conv2D",
      "has_batch_norm" : 0,
      "type" : "convolution",
      "n_groups" : 1,
      "pad_t" : 0,
      "has_biases" : 1,
      "C" : 96,
      "bottom" : "model\/depthwise_conv2d_12\/depthwise",
      "weights" : {

      },
      "Nx" : 1,
      "pad_mode" : 0,
      "pad_value" : 0,
      "Ny" : 1,
      "n_parallel" : 1
    },
    {
      "bottom" : "model\/tf_op_layer_AddV2\/AddV2,model\/tf_op_layer_RealDiv_1\/RealDiv_1,model\/tf_op_layer_AddV2_1\/AddV2_1",
      "weights" : {

      },
      "nd_mode" : true,
      "axis" : 4,
      "debug_info" : "model\/concatenate_1\/concat",
      "top" : "model\/concatenate_1\/concat",
      "type" : "general_concat",
      "name" : "model\/concatenate_1\/concat"
    },
    {
      "bottom" : "model\/conv2d_13\/Conv2D,model\/re_lu_12\/Relu",
      "alpha" : 1,
      "operation" : 0,
      "weights" : {

      },
      "fused_relu" : 0,
      "debug_info" : "model\/add_12\/add",
      "top" : "model\/add_12\/add",
      "type" : "elementwise",
      "name" : "model\/add_12\/add",
      "beta" : 0
    },
    {
      "name" : "model\/reshape_3\/Reshape",
      "weights" : {

      },
      "dst_w" : 16,
      "version" : 1,
      "dst_n" : 1,
      "dst_nd_rank" : 3,
      "type" : "reshape",
      "dst_h" : 512,
      "mode" : 0,
      "dynamic_shape" : false,
      "bottom" : "model\/concatenate_1\/concat",
      "debug_info" : "model\/reshape_3\/Reshape",
      "dst_seq" : 1,
      "dst_k" : 1,
      "top" : "model\/reshape_3\/Reshape"
    },
    {
      "bottom" : "model\/add_12\/add",
      "weights" : {

      },
      "mode" : 0,
      "debug_info" : "model\/re_lu_13\/Relu",
      "top" : "model\/re_lu_13\/Relu",
      "type" : "activation",
      "name" : "model\/re_lu_13\/Relu"
    },
    {
      "pad_r" : 0,
      "fused_relu" : 0,
      "fused_tanh" : 0,
      "debug_info" : "model\/depthwise_conv2d_13\/depthwise",
      "pad_fill_mode" : 0,
      "pad_b" : 0,
      "pad_l" : 0,
      "top" : "model\/depthwise_conv2d_13\/depthwise",
      "blob_weights" : 153,
      "K" : 96,
      "blob_biases" : 151,
      "name" : "model\/depthwise_conv2d_13\/depthwise",
      "has_batch_norm" : 0,
      "type" : "convolution",
      "n_groups" : 96,
      "pad_t" : 0,
      "has_biases" : 1,
      "C" : 96,
      "bottom" : "model\/re_lu_13\/Relu",
      "weights" : {

      },
      "Nx" : 3,
      "pad_mode" : 1,
      "pad_value" : 0,
      "Ny" : 3,
      "n_parallel" : 1
    },
    {
      "pad_r" : 0,
      "fused_relu" : 0,
      "fused_tanh" : 0,
      "debug_info" : "model\/conv2d_14\/Conv2D",
      "pad_fill_mode" : 0,
      "pad_b" : 0,
      "pad_l" : 0,
      "top" : "model\/conv2d_14\/Conv2D",
      "blob_weights" : 157,
      "K" : 96,
      "blob_biases" : 155,
      "name" : "model\/conv2d_14\/Conv2D",
      "has_batch_norm" : 0,
      "type" : "convolution",
      "n_groups" : 1,
      "pad_t" : 0,
      "has_biases" : 1,
      "C" : 96,
      "bottom" : "model\/depthwise_conv2d_13\/depthwise",
      "weights" : {

      },
      "Nx" : 1,
      "pad_mode" : 0,
      "pad_value" : 0,
      "Ny" : 1,
      "n_parallel" : 1
    },
    {
      "bottom" : "model\/conv2d_14\/Conv2D,model\/re_lu_13\/Relu",
      "alpha" : 1,
      "operation" : 0,
      "weights" : {

      },
      "fused_relu" : 0,
      "debug_info" : "model\/add_13\/add",
      "top" : "model\/add_13\/add",
      "type" : "elementwise",
      "name" : "model\/add_13\/add",
      "beta" : 0
    },
    {
      "bottom" : "model\/add_13\/add",
      "weights" : {

      },
      "mode" : 0,
      "debug_info" : "model\/re_lu_14\/Relu",
      "top" : "model\/re_lu_14\/Relu",
      "type" : "activation",
      "name" : "model\/re_lu_14\/Relu"
    },
    {
      "pad_r" : 0,
      "fused_relu" : 0,
      "fused_tanh" : 0,
      "debug_info" : "model\/depthwise_conv2d_14\/depthwise",
      "pad_fill_mode" : 0,
      "pad_b" : 0,
      "pad_l" : 0,
      "top" : "model\/depthwise_conv2d_14\/depthwise",
      "blob_weights" : 161,
      "K" : 96,
      "blob_biases" : 159,
      "name" : "model\/depthwise_conv2d_14\/depthwise",
      "has_batch_norm" : 0,
      "type" : "convolution",
      "n_groups" : 96,
      "pad_t" : 0,
      "has_biases" : 1,
      "C" : 96,
      "bottom" : "model\/re_lu_14\/Relu",
      "weights" : {

      },
      "Nx" : 3,
      "pad_mode" : 1,
      "pad_value" : 0,
      "Ny" : 3,
      "n_parallel" : 1
    },
    {
      "pad_r" : 0,
      "fused_relu" : 0,
      "fused_tanh" : 0,
      "debug_info" : "model\/conv2d_15\/Conv2D",
      "pad_fill_mode" : 0,
      "pad_b" : 0,
      "pad_l" : 0,
      "top" : "model\/conv2d_15\/Conv2D",
      "blob_weights" : 165,
      "K" : 96,
      "blob_biases" : 163,
      "name" : "model\/conv2d_15\/Conv2D",
      "has_batch_norm" : 0,
      "type" : "convolution",
      "n_groups" : 1,
      "pad_t" : 0,
      "has_biases" : 1,
      "C" : 96,
      "bottom" : "model\/depthwise_conv2d_14\/depthwise",
      "weights" : {

      },
      "Nx" : 1,
      "pad_mode" : 0,
      "pad_value" : 0,
      "Ny" : 1,
      "n_parallel" : 1
    },
    {
      "bottom" : "model\/conv2d_15\/Conv2D,model\/re_lu_14\/Relu",
      "alpha" : 1,
      "operation" : 0,
      "weights" : {

      },
      "fused_relu" : 0,
      "debug_info" : "model\/add_14\/add",
      "top" : "model\/add_14\/add",
      "type" : "elementwise",
      "name" : "model\/add_14\/add",
      "beta" : 0
    },
    {
      "bottom" : "model\/add_14\/add",
      "weights" : {

      },
      "mode" : 0,
      "debug_info" : "model\/re_lu_15\/Relu",
      "top" : "model\/re_lu_15\/Relu",
      "type" : "activation",
      "name" : "model\/re_lu_15\/Relu"
    },
    {
      "pad_r" : 0,
      "fused_relu" : 0,
      "fused_tanh" : 0,
      "debug_info" : "model\/depthwise_conv2d_15\/depthwise",
      "pad_fill_mode" : 0,
      "pad_b" : 0,
      "pad_l" : 0,
      "top" : "model\/depthwise_conv2d_15\/depthwise",
      "blob_weights" : 169,
      "K" : 96,
      "blob_biases" : 167,
      "name" : "model\/depthwise_conv2d_15\/depthwise",
      "has_batch_norm" : 0,
      "type" : "convolution",
      "n_groups" : 96,
      "pad_t" : 0,
      "has_biases" : 1,
      "C" : 96,
      "bottom" : "model\/re_lu_15\/Relu",
      "weights" : {

      },
      "Nx" : 3,
      "pad_mode" : 1,
      "pad_value" : 0,
      "Ny" : 3,
      "n_parallel" : 1
    },
    {
      "pad_r" : 0,
      "fused_relu" : 0,
      "fused_tanh" : 0,
      "debug_info" : "model\/conv2d_16\/Conv2D",
      "pad_fill_mode" : 0,
      "pad_b" : 0,
      "pad_l" : 0,
      "top" : "model\/conv2d_16\/Conv2D",
      "blob_weights" : 173,
      "K" : 96,
      "blob_biases" : 171,
      "name" : "model\/conv2d_16\/Conv2D",
      "has_batch_norm" : 0,
      "type" : "convolution",
      "n_groups" : 1,
      "pad_t" : 0,
      "has_biases" : 1,
      "C" : 96,
      "bottom" : "model\/depthwise_conv2d_15\/depthwise",
      "weights" : {

      },
      "Nx" : 1,
      "pad_mode" : 0,
      "pad_value" : 0,
      "Ny" : 1,
      "n_parallel" : 1
    },
    {
      "bottom" : "model\/conv2d_16\/Conv2D,model\/re_lu_15\/Relu",
      "alpha" : 1,
      "operation" : 0,
      "weights" : {

      },
      "fused_relu" : 0,
      "debug_info" : "model\/add_15\/add",
      "top" : "model\/add_15\/add",
      "type" : "elementwise",
      "name" : "model\/add_15\/add",
      "beta" : 0
    },
    {
      "bottom" : "model\/add_15\/add",
      "weights" : {

      },
      "mode" : 0,
      "debug_info" : "model\/re_lu_16\/Relu",
      "top" : "model\/re_lu_16\/Relu",
      "type" : "activation",
      "name" : "model\/re_lu_16\/Relu"
    },
    {
      "pad_r" : 0,
      "fused_relu" : 0,
      "fused_tanh" : 0,
      "debug_info" : "model\/regressor_16\/Conv2D",
      "pad_fill_mode" : 0,
      "pad_b" : 0,
      "pad_l" : 0,
      "top" : "model\/regressor_16\/Conv2D",
      "blob_weights" : 177,
      "K" : 96,
      "blob_biases" : 175,
      "name" : "model\/regressor_16\/Conv2D",
      "has_batch_norm" : 0,
      "type" : "convolution",
      "n_groups" : 1,
      "pad_t" : 0,
      "has_biases" : 1,
      "C" : 96,
      "bottom" : "model\/re_lu_16\/Relu",
      "weights" : {

      },
      "Nx" : 1,
      "pad_mode" : 0,
      "pad_value" : 0,
      "Ny" : 1,
      "n_parallel" : 1
    },
    {
      "pad_r" : 0,
      "fused_relu" : 0,
      "fused_tanh" : 0,
      "debug_info" : "model\/classificator_16\/Conv2D",
      "pad_fill_mode" : 0,
      "pad_b" : 0,
      "pad_l" : 0,
      "top" : "model\/classificator_16\/Conv2D",
      "blob_weights" : 181,
      "K" : 96,
      "blob_biases" : 179,
      "name" : "model\/classificator_16\/Conv2D",
      "has_batch_norm" : 0,
      "type" : "convolution",
      "n_groups" : 1,
      "pad_t" : 0,
      "has_biases" : 1,
      "C" : 6,
      "bottom" : "model\/re_lu_16\/Relu",
      "weights" : {

      },
      "Nx" : 1,
      "pad_mode" : 0,
      "pad_value" : 0,
      "Ny" : 1,
      "n_parallel" : 1
    },
    {
      "axis_h" : 0,
      "axis_w" : 2,
      "bottom" : "model\/regressor_16\/Conv2D",
      "axis_k" : 1,
      "axis_n" : 3,
      "axis_seq" : 4,
      "weights" : {

      },
      "debug_info" : "model\/regressor_16\/Conv2D_to_nhwc",
      "top" : "model\/regressor_16\/Conv2D_to_nhwc",
      "type" : "transpose",
      "name" : "model\/regressor_16\/Conv2D_to_nhwc"
    },
    {
      "axis_h" : 0,
      "axis_w" : 2,
      "bottom" : "model\/classificator_16\/Conv2D",
      "axis_k" : 1,
      "axis_n" : 3,
      "axis_seq" : 4,
      "weights" : {

      },
      "debug_info" : "model\/classificator_16\/Conv2D_to_nhwc",
      "top" : "model\/classificator_16\/Conv2D_to_nhwc",
      "type" : "transpose",
      "name" : "model\/classificator_16\/Conv2D_to_nhwc"
    },
    {
      "name" : "model\/reshape_4\/Reshape",
      "weights" : {

      },
      "dst_w" : 16,
      "version" : 1,
      "dst_n" : 8,
      "dst_nd_rank" : 5,
      "type" : "reshape",
      "dst_h" : 6,
      "mode" : 0,
      "dynamic_shape" : false,
      "bottom" : "model\/regressor_16\/Conv2D_to_nhwc",
      "debug_info" : "model\/reshape_4\/Reshape",
      "dst_seq" : 1,
      "dst_k" : 8,
      "top" : "model\/reshape_4\/Reshape"
    },
    {
      "name" : "model\/reshape_1\/Reshape",
      "weights" : {

      },
      "dst_w" : 1,
      "version" : 1,
      "dst_n" : 1,
      "dst_nd_rank" : 3,
      "type" : "reshape",
      "dst_h" : 384,
      "mode" : 0,
      "dynamic_shape" : false,
      "bottom" : "model\/classificator_16\/Conv2D_to_nhwc",
      "debug_info" : "model\/reshape_1\/Reshape",
      "dst_seq" : 1,
      "dst_k" : 1,
      "top" : "model\/reshape_1\/Reshape"
    },
    {
      "begin_n" : 0,
      "static_sizes_k" : 0,
      "end_mask_h" : true,
      "end_w" : 2147483647,
      "end_h" : 2147483647,
      "begin_h" : 0,
      "stride_n" : 1,
      "end_seq" : 2,
      "begin_mask_seq" : true,
      "begin_mask_h" : true,
      "squeeze_mask_h" : false,
      "stride_k" : 1,
      "type" : "general_slice",
      "begin_mask_k" : true,
      "static_sizes_w" : 0,
      "begin_w" : 0,
      "end_mask_k" : true,
      "use_static_sizes" : false,
      "stride_h" : 1,
      "static_sizes_n" : 0,
      "begin_mask_n" : true,
      "weights" : {

      },
      "name" : "model\/tf_op_layer_strided_slice_3\/strided_slice_3",
      "stride_seq" : 1,
      "end_k" : 2147483647,
      "static_sizes_seq" : 0,
      "top" : "model\/tf_op_layer_strided_slice_3\/strided_slice_3",
      "begin_seq" : 0,
      "squeeze_mask_k" : false,
      "begin_k" : 0,
      "end_mask_w" : true,
      "end_mask_seq" : false,
      "end_mask_n" : true,
      "debug_info" : "model\/tf_op_layer_strided_slice_3\/strided_slice_3",
      "stride_w" : 1,
      "squeeze_mask_seq" : false,
      "static_sizes_h" : 0,
      "begin_mask_w" : true,
      "bottom" : "model\/reshape_4\/Reshape",
      "end_n" : 2147483647,
      "squeeze_mask_w" : false,
      "squeeze_mask_n" : false
    },
    {
      "begin_n" : 0,
      "static_sizes_k" : 0,
      "end_mask_h" : true,
      "end_w" : 2147483647,
      "end_h" : 2147483647,
      "begin_h" : 0,
      "stride_n" : 1,
      "end_seq" : 4,
      "begin_mask_seq" : false,
      "begin_mask_h" : true,
      "squeeze_mask_h" : false,
      "stride_k" : 1,
      "type" : "general_slice",
      "begin_mask_k" : true,
      "static_sizes_w" : 0,
      "begin_w" : 0,
      "end_mask_k" : true,
      "use_static_sizes" : false,
      "stride_h" : 1,
      "static_sizes_n" : 0,
      "begin_mask_n" : true,
      "weights" : {

      },
      "name" : "model\/tf_op_layer_strided_slice_4\/strided_slice_4",
      "stride_seq" : 1,
      "end_k" : 2147483647,
      "static_sizes_seq" : 0,
      "top" : "model\/tf_op_layer_strided_slice_4\/strided_slice_4",
      "begin_seq" : 2,
      "squeeze_mask_k" : false,
      "begin_k" : 0,
      "end_mask_w" : true,
      "end_mask_seq" : false,
      "end_mask_n" : true,
      "debug_info" : "model\/tf_op_layer_strided_slice_4\/strided_slice_4",
      "stride_w" : 1,
      "squeeze_mask_seq" : false,
      "static_sizes_h" : 0,
      "begin_mask_w" : true,
      "bottom" : "model\/reshape_4\/Reshape",
      "end_n" : 2147483647,
      "squeeze_mask_w" : false,
      "squeeze_mask_n" : false
    },
    {
      "begin_n" : 0,
      "static_sizes_k" : 0,
      "end_mask_h" : true,
      "end_w" : 2147483647,
      "end_h" : 2147483647,
      "begin_h" : 0,
      "stride_n" : 1,
      "end_seq" : 2147483647,
      "begin_mask_seq" : false,
      "begin_mask_h" : true,
      "squeeze_mask_h" : false,
      "stride_k" : 1,
      "type" : "general_slice",
      "begin_mask_k" : true,
      "static_sizes_w" : 0,
      "begin_w" : 0,
      "end_mask_k" : true,
      "use_static_sizes" : false,
      "stride_h" : 1,
      "static_sizes_n" : 0,
      "begin_mask_n" : true,
      "weights" : {

      },
      "name" : "model\/tf_op_layer_strided_slice_5\/strided_slice_5",
      "stride_seq" : 1,
      "end_k" : 2147483647,
      "static_sizes_seq" : 0,
      "top" : "model\/tf_op_layer_strided_slice_5\/strided_slice_5",
      "begin_seq" : 4,
      "squeeze_mask_k" : false,
      "begin_k" : 0,
      "end_mask_w" : true,
      "end_mask_seq" : true,
      "end_mask_n" : true,
      "debug_info" : "model\/tf_op_layer_strided_slice_5\/strided_slice_5",
      "stride_w" : 1,
      "squeeze_mask_seq" : false,
      "static_sizes_h" : 0,
      "begin_mask_w" : true,
      "bottom" : "model\/reshape_4\/Reshape",
      "end_n" : 2147483647,
      "squeeze_mask_w" : false,
      "squeeze_mask_n" : false
    },
    {
      "bottom" : "model\/reshape\/Reshape,model\/reshape_1\/Reshape",
      "weights" : {

      },
      "nd_mode" : true,
      "axis" : 1,
      "debug_info" : "model\/concatenate\/concat",
      "top" : "model\/concatenate\/concat",
      "type" : "general_concat",
      "name" : "model\/concatenate\/concat"
    },
    {
      "bottom" : "model\/tf_op_layer_strided_slice_3\/strided_slice_3",
      "alpha" : 0.0078125,
      "operation" : 1,
      "weights" : {

      },
      "fused_relu" : 0,
      "debug_info" : "model\/tf_op_layer_RealDiv_3\/RealDiv_3",
      "top" : "model\/tf_op_layer_RealDiv_3\/RealDiv_3",
      "type" : "elementwise",
      "name" : "model\/tf_op_layer_RealDiv_3\/RealDiv_3",
      "beta" : 0
    },
    {
      "bottom" : "model\/tf_op_layer_strided_slice_4\/strided_slice_4",
      "alpha" : 0.0078125,
      "operation" : 1,
      "weights" : {

      },
      "fused_relu" : 0,
      "debug_info" : "model\/tf_op_layer_RealDiv_4\/RealDiv_4",
      "top" : "model\/tf_op_layer_RealDiv_4\/RealDiv_4",
      "type" : "elementwise",
      "name" : "model\/tf_op_layer_RealDiv_4\/RealDiv_4",
      "beta" : 0
    },
    {
      "bottom" : "model\/tf_op_layer_strided_slice_5\/strided_slice_5",
      "alpha" : 0.0078125,
      "operation" : 1,
      "weights" : {

      },
      "fused_relu" : 0,
      "debug_info" : "model\/tf_op_layer_RealDiv_5\/RealDiv_5",
      "top" : "model\/tf_op_layer_RealDiv_5\/RealDiv_5",
      "type" : "elementwise",
      "name" : "model\/tf_op_layer_RealDiv_5\/RealDiv_5",
      "beta" : 0
    },
    {
      "bottom" : "model\/concatenate\/concat,model\/tf_op_layer_Minimum\/Minimum\/y",
      "alpha" : 1,
      "operation" : 22,
      "weights" : {

      },
      "fused_relu" : 0,
      "debug_info" : "model\/tf_op_layer_Minimum\/Minimum",
      "nd_mode" : true,
      "top" : "model\/tf_op_layer_Minimum\/Minimum",
      "type" : "elementwise",
      "name" : "model\/tf_op_layer_Minimum\/Minimum",
      "beta" : 0
    },
    {
      "bottom" : "model\/tf_op_layer_RealDiv_3\/RealDiv_3,model\/tf_op_layer_AddV2_2\/AddV2_2\/y",
      "alpha" : 1,
      "operation" : 0,
      "weights" : {

      },
      "fused_relu" : 0,
      "debug_info" : "model\/tf_op_layer_AddV2_2\/AddV2_2",
      "nd_mode" : true,
      "top" : "model\/tf_op_layer_AddV2_2\/AddV2_2",
      "type" : "elementwise",
      "name" : "model\/tf_op_layer_AddV2_2\/AddV2_2",
      "beta" : 0
    },
    {
      "bottom" : "model\/tf_op_layer_RealDiv_5\/RealDiv_5,model\/tf_op_layer_AddV2_3\/AddV2_3\/y",
      "alpha" : 1,
      "operation" : 0,
      "weights" : {

      },
      "fused_relu" : 0,
      "debug_info" : "model\/tf_op_layer_AddV2_3\/AddV2_3",
      "nd_mode" : true,
      "top" : "model\/tf_op_layer_AddV2_3\/AddV2_3",
      "type" : "elementwise",
      "name" : "model\/tf_op_layer_AddV2_3\/AddV2_3",
      "beta" : 0
    },
    {
      "bottom" : "model\/tf_op_layer_Minimum\/Minimum,model\/tf_op_layer_Maximum\/Maximum\/y",
      "alpha" : 1,
      "operation" : 23,
      "weights" : {

      },
      "fused_relu" : 0,
      "debug_info" : "model\/tf_op_layer_Maximum\/Maximum",
      "nd_mode" : true,
      "top" : "model\/tf_op_layer_Maximum\/Maximum",
      "type" : "elementwise",
      "name" : "model\/tf_op_layer_Maximum\/Maximum",
      "beta" : 0
    },
    {
      "bottom" : "model\/tf_op_layer_AddV2_2\/AddV2_2,model\/tf_op_layer_RealDiv_4\/RealDiv_4,model\/tf_op_layer_AddV2_3\/AddV2_3",
      "weights" : {

      },
      "nd_mode" : true,
      "axis" : 4,
      "debug_info" : "model\/concatenate_2\/concat",
      "top" : "model\/concatenate_2\/concat",
      "type" : "general_concat",
      "name" : "model\/concatenate_2\/concat"
    },
    {
      "bottom" : "model\/tf_op_layer_Maximum\/Maximum",
      "weights" : {

      },
      "mode" : 3,
      "debug_info" : "model\/tf_op_layer_Sigmoid\/Sigmoid",
      "top" : "model\/tf_op_layer_Sigmoid\/Sigmoid",
      "type" : "activation",
      "name" : "model\/tf_op_layer_Sigmoid\/Sigmoid"
    },
    {
      "name" : "model\/reshape_5\/Reshape",
      "weights" : {

      },
      "dst_w" : 16,
      "version" : 1,
      "dst_n" : 1,
      "dst_nd_rank" : 3,
      "type" : "reshape",
      "dst_h" : 384,
      "mode" : 0,
      "dynamic_shape" : false,
      "bottom" : "model\/concatenate_2\/concat",
      "debug_info" : "model\/reshape_5\/Reshape",
      "dst_seq" : 1,
      "dst_k" : 1,
      "top" : "model\/reshape_5\/Reshape"
    },
    {
      "bottom" : "model\/reshape_3\/Reshape,model\/reshape_5\/Reshape",
      "weights" : {

      },
      "nd_mode" : true,
      "axis" : 1,
      "debug_info" : "model\/concatenate_3\/concat",
      "top" : "model\/concatenate_3\/concat",
      "type" : "general_concat",
      "name" : "model\/concatenate_3\/concat"
    },
    {
      "begin_n" : 0,
      "static_sizes_k" : 0,
      "end_mask_h" : true,
      "end_w" : 2147483647,
      "end_h" : 2147483647,
      "begin_h" : 0,
      "stride_n" : 1,
      "end_seq" : 1,
      "begin_mask_seq" : false,
      "begin_mask_h" : true,
      "squeeze_mask_h" : false,
      "stride_k" : 1,
      "type" : "general_slice",
      "begin_mask_k" : true,
      "static_sizes_w" : 0,
      "begin_w" : 0,
      "end_mask_k" : false,
      "use_static_sizes" : false,
      "stride_h" : 1,
      "static_sizes_n" : 0,
      "begin_mask_n" : false,
      "weights" : {

      },
      "name" : "boxes_pre",
      "stride_seq" : 1,
      "end_k" : 4,
      "static_sizes_seq" : 0,
      "top" : "boxes_pre",
      "begin_seq" : 0,
      "squeeze_mask_k" : false,
      "begin_k" : 0,
      "end_mask_w" : true,
      "end_mask_seq" : false,
      "end_mask_n" : false,
      "debug_info" : "boxes_pre",
      "stride_w" : 1,
      "squeeze_mask_seq" : false,
      "static_sizes_h" : 0,
      "begin_mask_w" : true,
      "bottom" : "model\/concatenate_3\/concat",
      "end_n" : 1,
      "squeeze_mask_w" : false,
      "squeeze_mask_n" : false
    },
    {
      "bottom" : "boxes_pre",
      "size_of_axes" : 0,
      "squeeze_all" : true,
      "weights" : {

      },
      "nd_axis" : 0,
      "debug_info" : "boxes",
      "version" : 1,
      "top" : "boxes",
      "type" : "squeeze",
      "name" : "boxes",
      "attributes" : {
        "is_output" : 1
      }
    },
    {
      "bottom" : "model\/tf_op_layer_Sigmoid\/Sigmoid",
      "size_of_axes" : 0,
      "squeeze_all" : true,
      "weights" : {

      },
      "nd_axis" : 0,
      "debug_info" : "box_confidence",
      "version" : 1,
      "top" : "box_confidence",
      "type" : "squeeze",
      "name" : "box_confidence",
      "attributes" : {
        "is_output" : 1
      }
    }
  ],
  "transform_params" : {
    "input_image" : {
      "bias_a" : 0,
      "bias_g" : -1,
      "bias_r" : -1,
      "bias_b" : -1,
      "center_mean" : 0,
      "is_network_bgr" : 0,
      "scale" : 0.0078431377187371254
    }
  },
  "storage" : "model.espresso.weights",
  "metadata_in_weights" : [

  ],
  "properties" : {

  },
  "analyses" : {

  },
  "format_version" : 200
}